toSubmit/VAE/vae_mnist_weights_8.pth (torch, 726724 bytes, 14 tensors)

encoder.fc1.weight f4 [100, 784]
00000000: c2a2 093d 8c2f 0e3d ea56 37bc 1332 2f3b
00000010: 6ec3 87bb a502 7ebb 779e 8ebc 38de 72bb
00000020: 11ad bd3c 975c 9a3c 238e edbc f33f aabc
00000030: 67aa 673e 13a9 593d 10f4 20be 063f 5ebe
00000040: c33a a2bc 6af4 efbc 7c97 37bc 7cbc e5bc
00000050: 1761 01bd 73ee e0bc ea45 693c d734 56bc
00000060: eab5 853c b8d2 ee3a fe1f 82bc 5747 963c
00000070: 8a14 36bc 60f0 073c 75a7 d53c d62d 053d
00000080: 0f61 f2be 3fd4 eabe 138b 333c 524b 0a3e
00000090: 3c9a eabc 8c1c 36bd 2655 f2bd fad7 98be
000000a0: 936a e3be bfa2 84be f29e 56be 2bf6 d1be
000000b0: f197 f4be 768b 39be 99ef 38be cf99 b1bd
000000c0: 2e84 07be 290c a2be ec41 29bc a0ab 8dbe
000000d0: fe76 983c 25fb f0ba 6e78 203b 5c47 093b
000000e0: 2392 0d3d 63a0 a33c 1d61 443e eadc b83d
000000f0: b440 d53d ce64 40bf 8650 f13c 2619 163b
00000100: 33aa 1bbc 2ac8 ad3d 2dcd 863c 8db4 5e3e
00000110: 9b10 8b3e 1a06 54be 3161 3dbe 6ac9 e9bd
00000120: aac5 a83e c464 843d 995a 233e 300a 093e
00000130: 17b0 92be 6496 7d3e f686 693e 1e5b e23e
00000140: eb3c eb3d c0f6 b8be dcde 8e3c 257a ac3b
00000150: d02c aabc 9385 4fbc c293 e73c 51ce 1d3f
00000160: 06b1 0cbf 2a57 8b3e e0fa a83e 8767 563e
00000170: 7f08 b9bd 7c29 b23e 2f9b b53c 0e23 84bd
00000180: f9e1 8f3e b562 993c 97c1 91bc dc7f 80bc
00000190: 15c3 823d ca17 ddbd 74f4 62be 796a 363e
000001a0: d815 053e 1c6e 57be 1617 91be 501a d33e
000001b0: cd9e 5c3e 07b4 34bf 8cf3 1abe d720 03bd
000001c0: 2e40 cfbc 0088 da3e 8517 943d 0edf 963e
000001d0: b6a1 0fbe 97c5 783e dea7 883e 85c9 b5bd
000001e0: 8510 65bb da59 5bbd eb93 ac3d 1130 5a3d
000001f0: ed4b 3e3b 6672 02bc ec2e 59bd d816 ce3d
00000200: eeb8 093d 5054 623e af33 3abd 584b d33c
00000210: 64cd a63d f4e7 133e 41a2 97be 54a1 dd3c
00000220: 927f 0f3d 4727 48bd 9891 eb3d 4743 d03e
00000230: b3c1 773c d7f6 083d dc2d 333e 70c3 623d
00000240: 8098 b7be 8938 f13d 78c8 343e 73b4 15be
00000250: c353 db3d 233a 11be 4228 953d 0f82 033d
00000260: 3c79 2fbd 431e 65bd a59d 503d 3669 73bd
00000270: d41c 8d3d d6b5 7abd 6a9d c23d 8bea 9fbc
00000280: 2a4e b5bc 0267 183c 31f4 bebd f8ce 12be
00000290: f1fe 0d3e 9f89 6dbe c8e8 89be 1f13 96be
000002a0: 5af9 cf3c e40d 42bf 8195 dabe d27a bfbe
000002b0: 030f 10bf 4219 713d 6271 473e 4d4d 133d
000002c0: 496c a0bc 04fb df3d efbf d3bd e643 e63c
000002d0: 4cd1 053e acd6 f83c 22f2 ff3b 230a 1b3a
000002e0: d0f9 903b b352 063d 4087 853d d8d4 043e
000002f0: 46ef 063d 489c 80bd 43a2 283e 0ac0 a83d
00000300: 1519 bebd a6d1 e43c cb1b a1be 4f22 82be
00000310: b394 0e3d 773f f43e e712 62bd 5f24 28be
00000320: 5958 b63e 92b4 c3bc 6c36 1ebd 4ef6 003e
00000330: 60c6 bebd 3c56 c23d 3ae5 e53d d350 91bc
00000340: fc0d 923d f44a ca3d dd0a 64bd 45b2 5fbc
00000350: 1bc0 c2bd 7f76 873d 42b7 7e3c 8ab1 6dbc
00000360: a2b8 ddbd f9bb b2bc 7561 fd3c 0f99 2c3e
00000370: 31f7 813c c90b 673e 081b c63e 88e7 163e
00000380: 4194 af3d eca7 e43e 22b7 a93d aba8 29be
00000390: f763 0b3e 4bcd abbc 5702 cfbd dd0d 0e3e
000003a0: 9b02 b4bd fa83 083d d5bb 243d 18a4 43bd
000003b0: f40b 38bc 8c8b 5c3d 89b3 bdbd b7a9 003e
000003c0: c0fa 383d 76d3 39bd d7e5 173d 7b36 8c3d
000003d0: 6d09 513d 3303 b43d 0e3d 163e 2bfe 033e
000003e0: 95aa b73d 2ff5 02be f78c 39be a959 dc3d
000003f0: ecf4 1a3e d2e4 0d3f 3645 103e 9710 d83d
0.033602484 0.034713313 -0.0111901555 0.0026732727 -0.00414317 -0.00387589 -0.017409546 -0.0037058722
0.023153814 0.018842978 -0.02899844 -0.020782446 0.22623597 0.053139757 -0.15718102 -0.21703729
-0.01980341 -0.02929135 -0.01120555 -0.028043978 -0.031586733 -0.027457451 0.01423786 -0.013074121
0.016322095 0.0018220758 -0.015884396 0.018344564 -0.011113295 0.008297056 0.026080826 0.032514416
-0.47339675 -0.45865056 0.010958451 0.13505295 -0.028637998 -0.04446082 -0.11832647 -0.29852277
-0.44417247 -0.25905415 -0.2095907 -0.41008124 -0.47772172 -0.18119606 -0.18060149 -0.08671915
-0.13234016 -0.31649902 -0.010330658 -0.27670002 0.018611427 -0.0018385394 0.0024485844 0.0020947075
0.034563195 0.01997394 0.19177671 0.09026511 0.10412732 -0.75153816 0.029457342 0.0022903173
-0.009501028 0.08485444 0.016455257 0.21748562 0.27161106 -0.20705453 -0.18494107 -0.1141537
0.32963306 0.06464532 0.15952529 0.13382792 -0.2864997 0.247644 0.2280539 0.44210142
0.114862286 -0.36125755 0.017440252 0.005263584 -0.020773321 -0.012666124 0.028268699 0.6164294
-0.54957616 0.27214938 0.33003902 0.2093793 -0.090348236 0.34797275 0.022168724 -0.06451999
0.2810209 0.018723825 -0.017792506 -0.015685968 0.06384865 -0.10795553 -0.22163564 0.17814054
0.12996614 -0.21038097 -0.28337926 0.41231012 0.21544953 -0.705872 -0.15131968 -0.03201374
-0.025299158 0.42681885 0.072310485 0.29467052 -0.14026532 0.24294125 0.26690573 -0.088763274
-0.0034952473 -0.053552486 0.084266506 0.053268496 0.0029036955 -0.007961845 -0.053023264 0.10062951
0.03362363 0.22102475 -0.045459446 0.025792763 0.08144644 0.14443952 -0.29615977 0.027054466
0.03503377 -0.048865583 0.11502379 0.4067633 0.015121865 0.03343853 0.17497963 0.055362165
-0.35858536 0.11778361 0.17654598 -0.14619617 0.10709336 -0.14182334 0.07283069 0.032106455
-0.042840227 -0.055937063 0.05093159 -0.05942651 0.06890264 -0.06120857 0.095026806 -0.019521018
-0.022131998 0.009301903 -0.093239196 -0.14336765 0.13866784 -0.2319703 -0.2693541 -0.29311463
0.025387455 -0.75802445 -0.42692187 -0.37398392 -0.56272906 0.05886198 0.19476846 0.03596239
-0.019582884 0.10936549 -0.10339343 0.028108548 0.13068122 0.030375801 0.007810847 0.0005914291
0.004424311 0.032793712 0.065199375 0.12971818 0.032943033 -0.06279808 0.16468148 0.082397535
-0.09282128 0.027932 -0.31466517 -0.254168 0.03480978 0.4770467 -0.055193808 -0.16420124
0.3561428 -0.023889814 -0.03862612 0.12593958 -0.09315181 0.09489104 0.11225362 -0.017738735
0.071315736 0.098775774 -0.055674423 -0.013653343 -0.095092975 0.06614398 0.015546622 -0.014507661
-0.108262315 -0.021818148 0.03093026 0.16855262 0.01586494 0.2256309 0.38692498 0.1473676
0.08573199 0.44659364 0.08286883 -0.16568248 0.13612352 -0.020971915 -0.10107868 0.13872476
-0.087895595 0.033328988 0.040218193 -0.047763914 -0.011233319 0.05384402 -0.09262759 0.12564741
0.04516101 -0.04536768 0.037084427 0.06846329 0.05103438 0.08789673 0.14671728 0.12889926
0.08968083 -0.12788843 -0.1812018 0.10759289 0.15132493 0.5542728 0.14088902 0.10550039

encoder.fc1.bias f4 [100]
00000000: edd0 403d 8b3a 9e3e ef28 02bd ff93 343e
00000010: d378 7a3f ce03 57be ab89 063e 72fe 633e
00000020: 05bb 5d3c a99e c93e dd22 703e 3797 1bbe
00000030: 46cb b03e 9a88 1ebe 2f60 163e a256 fb3d
00000040: d851 e53c 1efe f83e f5bc ac3e 9fb3 993e
00000050: babb 853e fbb1 523e 0ad5 fb3e d1ec 163e
00000060: 952a 5f3f 8f71 c33e bc89 a3bd 89c2 c33d
00000070: 1162 193e 631b 433f ac5b cb3e e33e c2bd
00000080: dc95 80be 872c be3d bca2 063f 26a2 50bc
00000090: 6c9f 68bc ba56 acbd 62a8 d73d 273c ce3e
000000a0: d94c 983e 8003 1e3d 607b 833e a745 5f3e
000000b0: 6b75 3e3e 3171 5f3e 0454 573e 010a 933e
000000c0: cedd 813e a63f eb3e 98cb 083f dc27 4abe
000000d0: c7dc ae3e bae6 3a3e f435 db3e 73b5 213e
000000e0: 657e bbbe 47df 78be 96ef 8fbd c906 653e
000000f0: 86bf b93e 76a4 9fbd 9c3a 063f d024 8f3e
00000100: cd93 a33c f3d1 b13d 2300 c63d 73ac ae3e
00000110: 596c 8a3e 8269 e33e ef35 1e3f f3a1 003f
00000120: 3f00 0abd e6b4 273d 2f2f 023f 2d8b 883e
00000130: 63a5 dabc 52c0 79be fd9c 693e 8613 de3e
00000140: 1f34 e63e 40bb 593e 5b60 943e b2db 723e
00000150: 4a5a 3b3e c370 a4bd 6444 ef3d bee4 e0bd
00000160: 88ce 01be 1478 3dbd daab 4e3e 4429 9c3e
00000170: 9483 203e 24db f13e 7f83 05be e07e 6b3e
00000180: 6e56 dcbb 959e fa3e 7337 7a3d 6f8b 04be
0.047074247 0.3090404 -0.03177732 0.17634581 0.97840613 -0.20997545 0.13138454 0.22265032
0.013533358 0.3937886 0.234508 -0.15194403 0.34530085 -0.15481797 0.14685129 0.12272383
0.027993128 0.48631376 0.33737913 0.30019853 0.26119787 0.20575707 0.49185973 0.14738776
0.8717435 0.38172576 -0.07985255 0.09558589 0.14978816 0.76213664 0.39718378 -0.09484651
-0.25114334 0.09285837 0.5259206 -0.012733972 -0.014198165 -0.08414979 0.10530163 0.40280268
0.2974613 0.038577557 0.25680065 0.21803914 0.18599479 0.21820523 0.21028143 0.2871857
0.25364536 0.45946997 0.5343566 -0.19741768 0.34152815 0.18252078 0.428146 0.15791874
-0.3661987 -0.24303924 -0.07028119 0.2236587 0.36278933 -0.0779504 0.5243318 0.27957773
0.019967938 0.08682623 0.09667995 0.34115943 0.27035788 0.44416434 0.61801046 0.50247115
-0.03369164 0.040944003 0.50853246 0.26668683 -0.02669019 -0.2438977 0.22813793 0.4337427
0.4496164 0.21262836 0.28979763 0.2371662 0.18296161 -0.0802932 0.11682966 -0.10981129
-0.12676442 -0.046257094 0.20182744 0.30500233 0.15675193 0.47237504 -0.13038443 0.22997618
-0.0067241704 0.48949113 0.061088037 -0.12943815

encoder.fc2.weight f4 [100, 100]
00000000: 3c84 96bd 533a 813d f99e 04bd 8dac 36bd
00000010: 90b3 953d 2868 82bc 278a f13d fdcb b83d
00000020: 3d6b 01bc a3c6 10be a758 c3be 6263 d0bc
00000030: 55c6 36bd a5bc 2abe 6de0 68bd 28c7 fd3c
00000040: cda0 b03d e883 c23d 1354 a53d a3c5 cabd
00000050: fb59 cbbd 1ab8 28bd 8322 6ebc e7d2 99bb
00000060: ad6a 3e3d ce79 eebd f741 0c3d 6703 d4bd
00000070: e9eb 0e3e fbca 6abc 5d96 a53d 8d55 953c
00000080: 7c4f 4bbd 5972 e03d 409a a13d b7c7 963c
00000090: 6604 45be 2e1c 3c3e a118 51bc ea5b 0d3e
000000a0: fe53 473e 6d60 243e 1c1a 3bbe 36bd c13c
000000b0: 32ca 92bc 9150 d0bd 9835 7d3d 434a 18bd
000000c0: 1aaa 053d 9c02 d13d 7181 313c 40eb c3bd
000000d0: a1cb 8fbd 3501 b6ba 56f1 debd 4800 c43c
000000e0: 46a9 35bd a351 1d3e 1d0e 11bd 48f3 943d
000000f0: 851a f1bc 56d7 063d a51d 9dbd b925 23bd
00000100: 6e7f 58bc cd53 32bc b45c 83bd 09c5 3fbd
00000110: 405c a7bc 5736 2c3e 6f35 03bd 02c9 dd3c
00000120: 23fb 48bb dbf3 0cbd e99e 29bc fb2b 38bc
00000130: 4966 f83c 88c7 16bd 1553 48be 350d 733b
00000140: 67a5 5b3d fa60 b9bd 9326 a1bc 5b29 ac3c
00000150: 27de a4bd 8596 27bd 2a30 a2bc 577a a8bd
00000160: 000b 993d 7dce b43d d614 c83c 2121 00bd
00000170: 7694 5ebe 9abf 2d3b 22ce 403d ffed 83be
00000180: 8d5a a33c 5095 a7bd 5152 013e e534 60be
00000190: 3f09 49be ad98 71bd 547c 873d c3e7 bcbd
000001a0: 26c9 a13d 667d a6bd 7555 eabb 637b 43be
000001b0: 328b d63c fb7f 04be 663b a5be 731f 11be
000001c0: 8e0c 7abd 6de9 d43d ac63 c13b 12df 62bd
000001d0: e895 b2bd 1834 56be c132 69bc 184b 36bc
000001e0: 954b f9bd 29da 73bb dc49 023e d863 97bb
000001f0: 692f 333e f4a2 afba 3cb8 d9bd 73ce eebc
00000200: ec00 573d 8bc1 ef3c 1665 d63d dfef a4bd
00000210: 4954 d1bc 43f0 493e 4f23 063d 290d 2fbe
00000220: e1bf 923d da42 ad3c 3146 353e b0e8 41bb
00000230: 0dba 73bc 5599 823d 7f5e af3b ec0f 843d
00000240: 7282 a53d 87fd 0f3d fd7a 9f3c 9a6d c5bc
00000250: 2c18 263d 3278 8d3d 575b 62bc 1827 753e
00000260: 47a7 c0bd 4a20 98bd 8cd3 00be d69e a83c
00000270: 84d9 2dbe f6dd 54be b963 c3bd 9948 cd3c
00000280: 6125 ac3d 335f 6e3d 83c2 10be 98fe b03b
00000290: 18ef dcbd 6a96 243e 4093 0bbd eebf 993d
000002a0: e518 a73b 6bca 8dbb 8401 97bd 1ba3 fdbd
000002b0: 4de5 eb3d fffb 32bd 408f 3e3d db00 c5bb
000002c0: 2f17 433e f85f 43bd b6df eb3d 3246 5e3d
000002d0: 2e78 b7bd 6109 413d 84c8 ea3c a3c8 503e
000002e0: fd43 5dbd 8008 a8bd b4da eb3c b161 65be
000002f0: 044f 6ebd c3d2 8c3e 9d05 9e3d a87c 3a3e
00000300: 9879 5a3e ae28 a4bd 9982 e9bd f517 a1bd
00000310: fb10 15bd d3ab 2bbd a98c 47be 25b8 adbd
00000320: b59c b83d 3792 00bd 24c2 e63c cd25 073e
00000330: 5735 ed3d 95bd 913d 7142 94bb 1a24 74bc
00000340: 9894 9e3d e7ee e63d 778a bd3d 6c4c 8fbe
00000350: e0ac 373b 97a6 dfbd f2d2 27be 95cf e1bd
00000360: 789d c9bc 10ef 13bd 0ac2 6bbc f44b ce3d
00000370: 4e40 4d3d a84e 063d 218d c63c 92af 29be
00000380: cfc3 20be 254e 1d3e 5a05 6b3b ca6c e5bd
00000390: d343 d3bd fc5d 763d c24c a33d ea19 09bd
000003a0: 551f 39be 7d05 ccbc 63a9 cb3b 3de5 d93d
000003b0: 290d 81bd 442f 223e f200 3fbd cff3 58be
000003c0: f793 323d b89f 01bc 8346 6bbd ad82 51bd
000003d0: 4e45 abbd ca3d 30be 8442 203c 170e 62bd
000003e0: 061b 1abd 7c77 2f3c 7830 a73d ac9d a2bd
000003f0: af6b 4dbc 4f60 dcbd afe2 033d 16cd 083c
-0.073494405 0.063099526 -0.03237817 -0.04459815 0.073096395 -0.015918806 0.117939286 0.09023283
-0.007899103 -0.14138274 -0.38153574 -0.025438014 -0.044622738 -0.16673525 -0.056854654 0.030978754
0.0862442 0.09497815 0.080726765 -0.099009775 -0.09929272 -0.041191198 -0.014534595 -0.004694331
0.046488453 -0.11644326 0.034242596 -0.103522114 0.1395718 -0.014330621 0.0808532 0.01822927
-0.04963635 0.1095931 0.07890749 0.018405778 -0.19239959 0.18370125 -0.01276222 0.13804594
0.19465634 0.16052409 -0.18271679 0.023649793 -0.01791868 -0.10171617 0.06181869 -0.037180196
0.032632925 0.10205576 0.010834084 -0.09566355 -0.07021261 -0.0013885858 -0.10885875 0.023925915
-0.044350885 0.15363173 -0.03541385 0.07272965 -0.02943159 0.032920204 -0.0767167 -0.039830897
-0.013213975 -0.0108842375 -0.06414166 -0.046818767 -0.02042973 0.16817604 -0.03203338 0.027073387
-0.0030667267 -0.034412246 -0.010352829 -0.0112409545 0.03032221 -0.03681138 -0.19562943 0.003708673
0.053624537 -0.090517 -0.019671714 0.021015814 -0.08050185 -0.04091503 -0.019798357 -0.082264595
0.07472801 0.08828447 0.024423998 -0.031281594 -0.21736321 0.0026511909 0.047071584 -0.25767514
0.019940639 -0.08182776 0.12629057 -0.21895178 -0.19632433 -0.058983494 0.066155106 -0.092238925
0.07899694 -0.081293866 -0.0071513006 -0.19090037 0.02618942 -0.12939446 -0.3227188 -0.14172153
-0.06104713 0.10396085 0.0059017744 -0.055388518 -0.087199986 -0.2091831 -0.014233292 -0.011126302
-0.12172619 -0.003720889 0.12723488 -0.0046200566 0.17498554 -0.0013400004 -0.10630843 -0.029151177
0.052491114 0.029267093 0.10468499 -0.08053564 -0.025552886 0.19720559 0.032748517 -0.17094864
0.07165504 0.021150041 0.17702557 -0.0029588155 -0.014875901 0.06376902 0.005351841 0.06448349
0.08081521 0.035153892 0.019467825 -0.024100114 0.040550396 0.06907691 -0.013815722 0.23940694
-0.094069056 -0.07428034 -0.12580699 0.020583551 -0.16977507 -0.20787796 -0.09540505 0.025059031
0.08405567 0.058196258 -0.141367 0.0054014437 -0.10787791 0.16073003 -0.034075975 0.07507311
0.005099403 -0.0043271086 -0.07373336 -0.123846255 0.11518345 -0.043697353 0.046523333 -0.006012065
0.19051813 -0.047698945 0.11517279 0.054266162 -0.08958469 0.047128085 0.028660066 0.20389037
-0.054019917 -0.08204746 0.02879081 -0.22400548 -0.058180824 0.27504548 0.077159144 0.18211615
0.21335447 -0.080155715 -0.11401863 -0.078658976 -0.036393147 -0.04191191 -0.19487251 -0.084823884
0.090142645 -0.03138944 0.028168745 0.13198014 0.115824394 0.07116238 -0.004524522 -0.014901185
0.07743186 0.11276036 0.09254926 -0.27987993 0.0028026626 -0.10920446 -0.16389063 -0.11025921
-0.02461122 -0.03611666 -0.014389524 0.10073081 0.050110154 0.032789856 0.024237217 -0.16570881
-0.15699695 0.15361841 0.0035861344 -0.112023905 -0.10315671 0.060148224 0.07973625 -0.03347198
-0.18078358 -0.02490496 0.006215261 0.10639427 -0.06301338 0.15838343 -0.04663176 -0.21186756
0.04359814 -0.007911615 -0.057440292 -0.051150013 -0.08362828 -0.1721107 0.009781484 -0.05518922
-0.037623428 0.01070964 0.081635416 -0.0794023 -0.012537881 -0.10760557 0.032198604 0.008349678

encoder.fc2.bias f4 [100]
00000000: dae3 633d 6d9e 8a3d b181 4a3d 1e92 833e
00000010: 9252 f6bb 4fec 833c a491 0e3e 29de 873d
00000020: 72f2 cc3d 8374 433b 4b50 b53e 6300 7a3e
00000030: 0c47 673e 9b2c 2ebc 7bca 9e3c 0249 0cbd
00000040: 22aa a13d 6c96 0f3e a5e6 893e 3e31 483d
00000050: 8e16 833e 596c c23e 2b26 563d ceab 623e
00000060: adfd ec3d df28 8a3d 7fad 4cbd 373d 48bd
00000070: ece1 793e 13e4 4a3e baa6 b63d 7ba4 913e
00000080: f26d 823d a2b1 c4bc 076a 863e 26e2 1c3e
00000090: 567c 6b3c aa74 493e 6f88 4d3d 51a9 00bd
000000a0: 091e be3d 3d18 8c3c 7c72 a93d d897 833e
000000b0: a6a3 b4b8 d96d 043b b2f4 393e 25c0 903e
000000c0: 51be 253d ca00 613e b8a1 093e eb45 383e
000000d0: 8c9e 123e 54e6 aa3d d183 cfbc a62a 1a3d
000000e0: 3de9 69bd 34bf be3c a75d f73c b2eb 723d
000000f0: 6135 1a3e 1918 7c3e a04b f23c bb0e 773e
00000100: e68f 243b 55c7 89bd bdf5 eb3d 7f61 ce3d
00000110: 5b11 763d 4365 cc3d 6321 013e dcf6 b63d
00000120: 19d3 533e 31ff 233e 073a 333e 2162 9c3e
00000130: d34d 663e 73c5 aa3d 4a6e 96bd 68fc 4a3e
00000140: 937d a0bb 8b4b abbd 09b3 f53d 7b1d 6b3e
00000150: ee99 e63d 4141 e5bd ff4e f8bc 3d18 6f3e
00000160: 4926 303e ddea e93d 61de 9cbd 201d 7b3e
00000170: 55cd 143e 97a0 16bf 104f b13d dd0f 7b3e
00000180: 5495 0a3e 778b 4b3e b94e f93d 3c43 cb3e
0.055637218 0.067684986 0.04944009 0.25697416 -0.0075171674 0.016103892 0.13922745 0.066341706
0.1000718 0.0029824085 0.3541282 0.2441421 0.22585696 -0.010630752 0.01938366 -0.034249313
0.078937784 0.14022225 0.2693378 0.048875086 0.25603145 0.37973288 0.052282494 0.22135851
0.11571822 0.06746077 -0.049970146 -0.048886504 0.24402589 0.19813566 0.08918519 0.284458
0.06368627 -0.024010483 0.26252767 0.15320644 0.014372906 0.1967341 0.05017894 -0.031411473
0.092830725 0.017101401 0.08273789 0.25701785 -8.613551e-05 0.0020207076 0.1815975 0.28271595
0.040464703 0.21972957 0.13440597 0.17995422 0.14318293 0.08344713 -0.02533141 0.03763833
-0.0571072 0.023284532 0.030196024 0.059306808 0.15059425 0.24618568 0.029577076 0.24126713
0.0025110184 -0.06727473 0.1152148 0.1007719 0.060075145 0.09980252 0.12610392 0.089338034
0.20685996 0.16015317 0.17502604 0.30543616 0.22490625 0.08338442 -0.07345255 0.19822848
-0.004897782 -0.08364018 0.11997039 0.22960465 0.112598285 -0.11194087 -0.030311106 0.2334909
0.17202105 0.1142175 -0.07659603 0.24522829 0.14531453 -0.5883879 0.08657658 0.2451777
0.13533527 0.1987742 0.12173218 0.39699733

encoder.fc_mean.weight f4 [8, 100]
00000000: 4324 783c af3a af3b 21fd 6fbd ce55 e2bd
00000010: 54ee 633d b107 d23d 23c7 adbd 17df 9e3d
00000020: 573b babd 1214 e5bb 4407 84bd 0e59 1dbd
00000030: e202 923d 1d1b 3b3c c10e d33b 64c7 903b
00000040: eca8 62bc 5aab 5b3d 726e 9b3d 77b8 203d
00000050: 6f2a 193d 0488 603b 664c f73b 3bfe 2a3e
00000060: e5b1 63bd 37b2 98bc 2009 ee3c 9871 0dbd
00000070: e76c 363c 55d2 af3d 7502 963d 0cf9 fc3d
00000080: f116 35bc 53e7 5d3d 2d94 7cbd db73 533d
00000090: be02 3e3d d625 c13d e60b 8c3d a2fe 833d
000000a0: 75c2 4d3d 54c3 08bd d419 cd3c f264 86bd
000000b0: 6d0d 453d bfc3 9d3d 00b3 e0bc 9b1e db3d
000000c0: 8362 84bd 11d2 833d f94c 163e 5858 2cbc
000000d0: df80 dfbd d208 753d ba4e d33d 0890 ac3c
000000e0: cbe0 9e3c ccf7 7dbc ce45 2abd 75fe 813b
000000f0: 725b 83bd cdab 03bd 5e94 3dbd bd34 523d
00000100: f0b1 14bd cbef 75bd ff99 5c3d 8675 3b3b
00000110: 4eae 903d 97f7 ecbd ee5a 5abd d2ed 813c
00000120: 60a0 f93c 92e6 93bb 4cc8 4abd 097b 5cbd
00000130: bd19 1cbc f7de 8d3d d955 20bd 1c58 e4bc
00000140: 5048 ad3c 6242 03bc 9c3a 043d 1ee1 2c3d
00000150: 6e66 2bbd fb70 babd dcbb 123c d17e a8bd
00000160: 5490 6a3c ae41 3f3c 68cc 95bd f6fd bb3d
00000170: 9326 16bc b4fd 3d3d 3e05 3a3c d3e2 80bd
00000180: fcba 5bbd fdba abbd c3a7 cf3d 9605 75bd
00000190: 36cb f73d 9342 a33d 586b fb3c 745f 82bb
000001a0: ad17 2c3c dc01 813d 2e2b 05bd 06c3 bb3d
000001b0: deac 3b3d f38d a43d 76fa 4abe 0502 b73c
000001c0: 8883 1ebd 7037 33bd dcc6 88bc 623f 4abd
000001d0: 5755 7d3d 93f8 323d 7904 0c3e e53b 9e3d
000001e0: 9b0f 05be 28c8 98bd 96db 9c3d 6f84 7c3d
000001f0: b574 10bd dd8f 40bd bb46 5cbd d23c 9c3b
00000200: a6b6 983d ea8c 62bd ec98 8cbc 056e 473d
00000210: 249f f63c 1fd4 7abd c454 bd3d 297c 013d
00000220: 792d 9cbd 8f97 0ebe a8be a7bb c85a 01bc
00000230: 5ead d53c 2cb6 3b3d 8411 ccbd 318f 81bd
00000240: 796b 7b3c 7b6e 3b3d f721 1dbe 5ed6 48bb
00000250: b300 bbbd 509d c0bd ce91 fbbc da63 403d
00000260: feb5 e33b 7bc7 10bd a0b8 e23d 66c3 c33d
00000270: c429 973d 119f 63bd d8ce cebc 094b cb3c
00000280: 6f69 fc3d 824e 8abd 3592 933d bf8d 4f3c
00000290: 0cbe 893d e0f4 9f3c 9da4 cfbb 2cf1 7bba
000002a0: d9ae 9dbd 0695 7b3d b919 253e a913 c2bd
000002b0: eb59 7fbd 59ed 283e 0a33 933d 7ca3 82bd
000002c0: dc9e 903d d3be 5dbd 642a 083d 37fe 5f3c
000002d0: 1b00 bfbd 21ef d33c 4dc7 87bd 9359 99bd
000002e0: cd83 793d d9f7 833d 53df b2bb 0263 7e3d
000002f0: 452a 10bc 7f47 b0bd 8217 1d3b 433b 8d3d
00000300: 4ae8 35bd d273 fcbb 1051 c43d 6897 67bd
00000310: e7f8 07bd ee07 c33d 0528 43bd a6b8 86bc
00000320: 2dd3 c6bc 3129 59bd 43a0 c13c 6cf2 a63c
00000330: 9ed1 253c 5401 b93d 42b0 38bd 001c 133d
00000340: 5d6d 1b3d c053 89bd 897e 223d 5366 c73d
00000350: 1d46 debb c935 f73c 6e14 c0bc bc18 b5bd
00000360: 70ea 5dbd e9ab a7bc f56e eebd 6a2d 3cbd
00000370: 5123 34bd 8587 593c cf58 04bd 6d50 b73c
00000380: 1c29 e23c 3de3 e4bb d9e2 de3c 6b7b 753d
00000390: 295a bc3c 5245 8e3d 00c7 923d e406 e33d
000003a0: f346 923c 22e4 fabc eb0c 9e3d 3c76 81bd
000003b0: b714 763d 7b57 b83d e51a 14bd 047e 99bc
000003c0: cb6a c13c 1c1c ef3d f8d9 3d3d 65ce 9a3c
000003d0: 8606 c03c fe49 283d d89b ab3d c664 8a3c
000003e0: 166d 2ebd cbcf 73bd 79b1 94bd 8f2a 18bb
000003f0: a5c8 773d e524 d8bd a1f5 d93c 5159 053c
0.015145364 0.005347572 -0.058591012 -0.11051522 0.05564721 0.10255373 -0.08485248 0.07757395
-0.090933494 -0.006990918 -0.06446698 -0.038415007 0.07129456 0.0114200385 0.006440968 0.0044183005
-0.013834219 0.05363021 0.07589425 0.03923842 0.037393983 0.003426076 0.007546949 0.16698544
-0.055589575 -0.018639667 0.029057086 -0.03453216 0.011134363 0.085850395 0.073246874 0.123521894
-0.011052833 0.054175686 -0.06166475 0.05162416 0.046389334 0.09431045 0.06838207 0.06445052
0.050234277 -0.033389404 0.02503673 -0.065622225 0.048108507 0.07703351 -0.027429104 0.10699197
-0.06464102 0.06436551 0.146778 -0.01051911 -0.10913252 0.059822865 0.1031775 0.021064773
0.019394299 -0.015500974 -0.041570477 0.003967101 -0.06413926 -0.032146264 -0.046284072 0.051319826
-0.036302507 -0.060043138 0.0538578 0.0028603985 0.07064496 -0.115706615 -0.053309374 0.015860472
0.03047198 -0.00451357 -0.049507424 -0.053828273 -0.009527621 0.06927293 -0.03914437 -0.027874045
0.021152645 -0.008011432 0.032282457 0.042206876 -0.04184573 -0.091035806 0.008955922 -0.08227313
0.014316637 0.011673374 -0.07314378 0.091792986 -0.00916447 0.04638453 0.011353789 -0.06293263
-0.05364512 -0.083852746 0.1013942 -0.05981978 0.12099306 0.079716824 0.030690834 -0.003978664
0.010503692 0.06299183 -0.032511882 0.09168057 0.045819156 0.08034887 -0.19822106 0.02233983
-0.038699657 -0.04375404 -0.016696386 -0.049376853 0.061848965 0.04369409 0.13673581 0.07726268
-0.12994234 -0.07460052 0.0765907 0.061649736 -0.03526755 -0.0470122 -0.05377839 0.0047679925
0.074567124 -0.055310167 -0.017162763 0.048688907 0.030105181 -0.06123745 0.092446834 0.03161255
-0.07625861 -0.13925003 -0.0051191635 -0.007895179 0.026083644 0.04582803 -0.09964278 -0.0632614
0.015345448 0.04575966 -0.15344988 -0.003064535 -0.09130993 -0.09405005 -0.030709174 0.046970226
0.0069491854 -0.03534649 0.11070371 0.09558754 0.07381013 -0.05557162 -0.025245115 0.024816053
0.12324797 -0.067532554 0.07205621 0.012668072 0.06725702 0.019525945 -0.006336762 -0.00096108275
-0.07699365 0.061421417 0.16123094 -0.09476406 -0.06234161 0.16496791 0.07187469 -0.063788384
0.0706155 -0.054137062 0.03324355 0.013671449 -0.09326192 0.025870861 -0.066298105 -0.07487788
0.06091671 0.064437576 -0.005458751 0.06210614 -0.00879914 -0.08607387 0.002397031 0.06896069
-0.04441098 -0.0077042365 0.09585774 -0.056540877 -0.033196356 0.09522997 -0.047645587 -0.01644547
-0.024270618 -0.0530178 0.023635989 0.020379268 0.010120777 0.090334564 -0.045089968 0.035915375
0.037946094 -0.06705427 0.039671455 0.09736314 -0.0067832605 0.030177014 -0.023447242 -0.08842608
-0.054178655 -0.020467715 -0.11642257 -0.045941748 -0.043978993 0.013276939 -0.032311257 0.022377217
0.027607493 -0.0069850967 0.027207779 0.059932154 0.02299221 0.069468156 0.071668625 0.11085299
0.017856097 -0.03062636 0.07717308 -0.063213795 0.06007835 0.090010606 -0.03615846 -0.018736847
0.023610493 0.11675283 0.04635045 0.018897245 0.02344061 0.04108619 0.08379334 0.016893756
-0.0425845 -0.05952434 -0.07260413 -0.0023218726 0.060494084 -0.10553912 0.026606383 0.0081389705

encoder.fc_mean.bias f4 [8]
00000000: 326d 87bd e2cb b2bc aeff e13d a5ec 7dbd
00000010: 7c77 933d 280e 7a3d 48df a73d f7e5 abbc
-0.06612624 -0.021825735 0.11035095 -0.06199326 0.07200524 0.061048657 0.081968844 -0.02098368

encoder.fc_var.weight f4 [8, 100]
00000000: 7f69 bd3a 3bfc 8fba 6eeb 433a 0c98 4fbb
00000010: 1047 d9ba 3c8b 1239 d60b 0739 c1fd 5439
00000020: a61a 44ba ed87 2a3a 9336 d3ba 4552 243a
00000030: 693e ed39 80b0 4eb6 0097 ebba 8cf8 8439
00000040: 7b44 6d3a 3909 0939 3026 2aba 4293 88ba
00000050: d62f c0b8 a8e5 ecba 818a ff3a e63f 1b3a
00000060: ec8d 003a 0264 293a 1c44 173b 4ecc ec3a
00000070: e4f2 cf3a c221 f3ba 4b01 0dba 8e74 b73a
00000080: d415 51bb 630a f7ba b8f4 4dbb 1e7b 313b
00000090: 1a5e 9dbb 3d74 38ba 3e71 d1b8 5421 803a
000000a0: ae80 fcba 06d0 1d3b 24ee 2f3b eedd 35ba
000000b0: 0dac f53a 0457 11bc fe3c 023b 7832 9aba
000000c0: 521d 3fba e354 1c3a 5137 0b3a c542 42ba
000000d0: 5c39 00bb 1af5 423a 9b45 bfba a4ee c53a
000000e0: 7c0d 83ba feed adba ff49 dbb9 615b 7fba
000000f0: beda 68bb d846 90ba e2aa 4b3b 49a5 ebb9
00000100: c486 98b9 ceb2 ddbb feaa 16ba 561f a1ba
00000110: 73a8 7f39 fdad a43a 1ac1 ec39 228f 0cbb
00000120: 7be9 50bb 2adc 7bba 9e0f 73ba 7f7f 4b3b
00000130: c415 14bb 9926 9f39 9fb0 4bbb 5cba 95bb
00000140: b4bb dc39 70dd 07ba bc32 e538 c295 73ba
00000150: 2405 a5ba 50b1 ba3a 596b 8fba 282b 3cbb
00000160: d520 66bb 69d2 35bb cc3f b6bc 5f3b e53a
00000170: f1ce 06bb 96b0 c53a 7b95 d63a ba5a c6b9
00000180: aa31 183b d002 ecba b4a9 4cb9 dde8 8cba
00000190: a260 af3a b031 d63a a536 80ba fed1 ae3a
000001a0: d1f0 b0ba 28fb db3a 1422 deba 32a3 5f3a
000001b0: 0e21 4f3b 7f16 de38 18ec f0ba f1c2 1f38
000001c0: 1723 3239 46e6 503b 0ff7 4939 0314 773a
000001d0: 84fc 09bb 6275 3f3b fc8a ee3a 0a37 82bb
000001e0: a018 7c37 a90c 2dbb 1d34 1c3b f452 003a
000001f0: ff84 aeba a35f 573b bf9e 4c3a 466e 7f39
00000200: 47a3 503b 7227 8cbb 664e bb3a 6387 8c38
00000210: 7405 333b 6cbb 3738 6881 1f3b a1d6 96bb
00000220: 3481 03bb fa8a 19bb eb93 46bb 3276 a8ba
00000230: 8ad7 383b 83f0 6e3b a437 493a 245d 6038
00000240: b8d7 92b8 ff9e 633c 1a46 243b 6956 eaba
00000250: 2854 35b9 1fd1 74ba 2e66 c43a cde8 81ba
00000260: 5895 b4ba 7ab8 31ba ecf5 9b3a e706 0239
00000270: eb95 8aba 6641 4cbb 62dc fa3a 1e33 6937
00000280: 0df4 36ba 3265 cd3a 4371 a6ba 6d0c 5b3b
00000290: 3a7b 1b3a 6646 893c 1b2e d5b9 70a2 7dba
000002a0: fa60 84b8 42a6 1339 a3f3 f53a 79a3 fcba
000002b0: 7488 453b f3e4 0bba 13ce 75bb 5b01 fe39
000002c0: be14 6a3a b742 dbba b590 93bb 8fd1 13ba
000002d0: d347 943a 9f17 ed39 a9f2 22bb 0280 10bb
000002e0: 56a9 6cb8 d9e5 48bb 9125 47bb 3644 063b
000002f0: 819b a53a eefd e1b8 4a9e 9c3c 0aea 0f3b
00000300: f99c 533a 85ca e1b9 6086 d0ba 9eed a639
00000310: 38b4 c13a b45c 13b9 20d1 22b9 1f4a ad3a
00000320: c81f 59ba 63bd 0dbb c806 1e3a 9440 fcb9
00000330: f201 b3ba 6005 1b3b 7903 bcba 67bc 00bb
00000340: cbc9 a4bb 95fe 1338 b2d9 2bba db13 35ba
00000350: 4332 4aba cb11 053b 1590 2cb9 8c85 e8b9
00000360: 834e 0cbb 37c2 01bb 8792 f43a a0a2 9eba
00000370: 6c4f 513a 2b16 fe38 8d59 1d3b bad0 cfba
00000380: 229c dbba eed2 27ba c44c 41bb f753 46bb
00000390: 3d3d e23a 2d68 7cbb 541d 56ba 567c 29bb
000003a0: 432c 3c3b 939b 443b f40e d339 be33 49bb
000003b0: 35dd 153b 5a8e b43b da28 f8ba 27ab 493a
000003c0: 9f1f 30bb fb46 1cbb 23c2 be3a b618 5a39
000003d0: fdf8 a73a d0ab 09bb 3c57 b7b9 e283 b9ba
000003e0: 9305 02bb 618c 4ebb b592 cc39 5aec 80ba
000003f0: b49f ce39 e6e5 9eb9 bf38 e83b 4905 513a
0.0014450996 -0.0010985205 0.00074737414 -0.003167632 -0.0016576964 0.00013975514 0.00012879013 0.00020312426
-0.00074807776 0.000650524 -0.0016114287 0.00062683626 0.00045250662 -3.0799129e-06 -0.0017974079 0.00025362184
0.0009051037 0.00013068774 -0.0006490676 -0.0010419863 -9.1641836e-05 -0.0018073814 0.0019496233 0.00059223024
0.00049039605 0.00064617407 0.0023081368 0.0018066259 0.0015865234 -0.0018549489 -0.0005378916 0.0013996528
-0.003190388 -0.00188477 -0.0031426381 0.002708144 -0.0048024775 -0.0007036364 -9.9869896e-05 0.0009775558
-0.0019264424 0.002408029 0.0026844824 -0.0006937672 0.0018743292 -0.008870844 0.001987278 -0.0011764308
-0.0007290441 0.0005963577 0.0005310672 -0.0007410462 -0.001956544 0.00074370357 -0.0014592888 0.0015101028
-0.0009998525 -0.001326978 -0.00041826066 -0.00097410945 -0.003553077 -0.0011007441 0.0031077196 -0.0004494584
-0.00029092107 -0.0067657 -0.0005747526 -0.0012292664 0.00024381447 0.001256406 0.000451573 -0.0021447618
-0.0031877446 -0.0009607697 -0.00092720415 0.0031051335 -0.002259598 0.000303556 -0.0031080616 -0.004569335
0.0004210152 -0.0005182838 0.00010929021 -0.000929203 -0.0012590033 0.0014243517 -0.0010942026 -0.0028712247
-0.0035114784 -0.0027743822 -0.022247218 0.0017489007 -0.0020570124 0.0015082534 0.0016371453 -0.000378331
0.0023222961 -0.0018006209 -0.00019518175 -0.0010750551 0.0013380239 0.0016341712 -0.000978191 0.0013337729
-0.0013499503 0.0016783224 -0.0016947412 0.0008531093 0.0031605395 0.00010589975 -0.0018380908 3.8090107e-05
0.00016988475 0.0031875535 0.0001926089 0.0009425284 -0.0021055052 0.0029214253 0.001819938 -0.0039738463
1.5026104e-05 -0.002640525 0.0023834773 0.00048951735 -0.0013314782 0.00328634 0.00078056374 0.00024359775
0.0031835602 -0.004277163 0.0014290332 6.700938e-05 0.0027316483 4.380515e-05 0.0024338607 -0.0046032225
-0.0020066025 -0.0023428784 -0.0030300568 -0.0012852608 0.0028204643 0.0036459274 0.00076758326 5.3492506e-05
-7.002003e-05 0.013892888 0.0025066198 -0.0017878535 -0.00017292856 -0.0009339023 0.0014984065 -0.0009911299
-0.0013777418 -0.00067795033 0.0011898852 0.00012400337 -0.0010573243 -0.003116691 0.0019139166 1.3899784e-05
-0.00069791154 0.0015670417 -0.001269855 0.0033424154 0.0005931143 0.016757201 -0.00040660877 -0.0009675389
-6.312314e-05 0.00014080948 0.0018764626 -0.0019274793 0.0030141147 -0.00053365453 -0.0037506863 0.00048447665
0.00089294824 -0.0016728257 -0.0045033344 -0.00056388316 0.0011312909 0.00045221762 -0.0024863875 -0.0022048955
-5.642449e-05 -0.0030654578 -0.0030387382 0.0020487434 0.0012634845 -0.00010776134 0.019118447 0.0021959567
0.0008072402 -0.00043066233 -0.0015909187 0.00031839026 0.0014778441 -0.00014053547 -0.00015527429 0.0013220942
-0.0008282629 -0.0021627776 0.0006028232 -0.000481133 -0.0013657196 0.0023654327 -0.0014344297 -0.0019643547
-0.0050289384 3.528463e-05 -0.00065555715 -0.0006907561 -0.0007713178 0.0020304795 -0.00016456873 -0.00044349988
-0.0021409101 -0.00197996 0.0018659391 -0.0012102909 0.0007984552 0.00012115793 0.0024009675 -0.0015855052
-0.0016754905 -0.00064019754 -0.0029495219 -0.003026245 0.0017260682 -0.0038514242 -0.00081678224 -0.0025861464
0.0028712905 0.0029999956 0.00040256197 -0.0030701007 0.0022867445 0.0055101337 -0.0018933073 0.0007693045
-0.0026874316 -0.0023846019 0.0014553707 0.00020799306 0.0012815293 -0.002100695 -0.00034969475 -0.0014153684
-0.0019839748 -0.0031516778 0.00039019217 -0.0009836063 0.0003941037 -0.00030307396 0.007086843 0.0007973505

encoder.fc_var.bias f4 [8]
00000000: 713b 66ba 8763 d9ba 1c05 92b9 3fe2 ecb9
00000010: c361 3aba 0917 03bb d2e0 8bba c348 2cba
-0.0008782661 -0.0016585448 -0.00027851097 -0.00045181994 -0.00071099045 -0.0020002744 -0.001067186 -0.00065721216

decoder.fc1.weight f4 [100, 8]
00000000: ea8d c83e 33a6 4f3f b9f6 8abf 5101 193f
00000010: ec85 14bd 360f da3e 7b13 96bf eef6 fdbd
00000020: b71d 033f 49e8 0a3f c352 d0be 71bd abbe
00000030: ad57 7c3b d6b4 76bf e0f6 8abe 1b44 2e3f
00000040: d9e1 103f 6b8a 60bf d20d 953f c3a7 52bf
00000050: b310 e5be 49aa 50bd 4f9e 4c3f 44dc 863f
00000060: df3e 523f 837c 05be 5ae5 4e3f 946c 593e
00000070: 92ae 4ebf a21f 2b3e 5ec0 23bf f2c8 14bf
00000080: 5cf2 933f 788e 1e3d 1275 603e 7a16 8c3f
00000090: 96bf a63f 734c 96bf dd3a 053f 9cc7 893f
000000a0: 600f e53e 1e19 493f d8f0 02be d722 3bbe
000000b0: f5c6 9bbe cfca 863f c240 023f 32de 6b3f
000000c0: 27df 403d 363e 4f3f 56db 7fbf 92e9 14bf
000000d0: 1db7 3e3e 980f 633f d4ff a5be e02d 813f
000000e0: e331 c1bf 198e 8fbe 0816 99bf a407 fe3e
000000f0: 7b24 d23f 1814 83bf eda1 01bf f797 bf3f
00000100: 47c4 c83f 61c9 373f 0f4e 583f 038c 05bf
00000110: 9426 89bf d2bd 6dbe 6208 b03f 62f0 81bd
00000120: c1a3 97be 0dd3 af3e af04 563f 1faf 0abf
00000130: ae59 ea3e 9173 98bf 4465 bd3b b4ea c4bf
00000140: 83b1 c43f 6410 a5bf e6c7 283e c270 48be
00000150: 4415 6abe f60f 6abf e4ae 9a3f dbcc 91be
00000160: 2400 9a3f 626d 3abc af24 b73e f85f 8f3d
00000170: f022 d3bf cc0a 143f 86de 2c3f f5cc c93e
00000180: 3c31 5e3f bfe5 9dbe 6303 f9be bf4f cabe
00000190: b467 e7be 5949 273f 7d20 4e3f affd be3f
000001a0: ffa6 dcbe 30f2 36be 85e0 2f3f 1b64 b2be
000001b0: d3c4 e0bf d962 513f 87f3 1dbf a777 8f3f
000001c0: 901f 5dbf e408 78bf 1a98 ee3f 859e bd3f
000001d0: 632b c4be a4cd 90bf 670b 813e aead c4be
000001e0: 209c cc3f 6a9f 873f 7d07 723f 61f4 5fbf
000001f0: 4fcc 6b3e a778 aebe 7a5c ab3f ae58 693f
00000200: 1d89 90be 1d87 033e 05d3 6c3f b240 ebbe
00000210: 679f 0c3e 8021 ddbd b46d 35bf 171a 8a3e
00000220: f191 e13f 79ce 45bd d0e4 8b3f acbe b63e
00000230: e763 aabe 9d2b a8be 050c 0ebf cdf9 d23e
00000240: 6eb5 073f 2245 ce3f 5179 04bf 934d df3d
00000250: 1253 55bf 09af 733f 6912 3dbf bcd7 a43f
00000260: dbe4 243e 0e29 80be 3ec9 953f 8e54 2c3f
00000270: c957 86bf cd97 8c3f a5cd cabe d017 e4bb
00000280: 87d2 77bf c20d 5e3f e8ab 74bf 74b3 273f
00000290: 8235 4fbf cb1d 7d3e 3a28 303e d867 523f
000002a0: 68b0 b03f 6969 9dbd 3c08 733f 7862 2a3e
000002b0: 0327 873f 5589 083f 4afe 8cbf c493 07bf
000002c0: 1a2a 91bf d45e 143f e246 41bf 94ea 2bbf
000002d0: 6d5e a4bf efda 8dbd 7555 d73e 5d11 77bf
000002e0: 5ebd e3be 5281 aabf a666 00bf ddd3 623f
000002f0: 7c7e 80bc d3ef d0bf 62d0 85bf f5be 9c3f
00000300: 7414 4bbf 5eeb a83f a825 943e b191 3cbe
00000310: 2164 0dbe 73ba d4bf 1c18 843f a877 3dbe
00000320: d2a4 593f 4b53 92bf 1339 ec3e 6333 8c3e
00000330: 8c68 00bc e6fe cb3f 74a6 3a3e a055 063f
00000340: a2f1 86bf 4c63 bcbe 5b95 683f 4d79 023e
00000350: 8439 d4be 8c03 bf3e be3a bebf b491 6dbf
00000360: c524 1fbf d3d6 313f 5c3f 38bf 2b4b 0abf
00000370: fa9c b33e 7121 d43f ef7a 553f e8d8 e43e
00000380: 3122 a1be 30c0 0a3e bcb4 4a3f 2a50 7fbf
00000390: 24e2 d63e 8cf7 a1be 86fa 3cbd 50b2 8fbd
000003a0: 6bf4 95bf 472a a13f a381 7c3f 2440 a73f
000003b0: 3054 22bf 6625 7fbd b689 9dbf 705e 38bd
000003c0: 3b91 f53e 376f 323f 9ca6 ef3e 76ff 03be
000003d0: 61b2 ff3e 3269 41bf a658 273b 8b68 8dbf
000003e0: 0f2a 1f3f f207 44bf 9c6f edbb c715 d6bf
000003f0: ec65 12c0 6a52 3cbe 284d 77bf 6bfd 53bf
0.39170772 0.81112975 -1.0856544 0.59767634 -0.03626053 0.4258973 -1.1724695 -0.12400614
0.51217216 0.5426069 -0.40688142 -0.3354297 0.0038504407 -0.96369684 -0.27141476 0.6807267
0.56594616 -0.8771121 1.1644843 -0.82287234 -0.44739303 -0.050943647 0.7992906 1.053597
0.82127184 -0.13035779 0.8081871 0.21232826 -0.80735123 0.16711286 -0.63965404 -0.5811912
1.1558337 0.038710088 0.21919659 1.0944359 1.3027217 -1.174208 0.52042943 1.0764041
0.44738293 0.7855395 -0.12787187 -0.18275009 -0.3042523 1.0530642 0.5088006 0.9213592
0.047087815 0.809543 -0.99944055 -0.581689 0.1862454 0.8869567 -0.32421744 1.0092125
-1.5093349 -0.280381 -1.1959848 0.49615204 1.6417383 -1.0240507 -0.50637704 1.4968251
1.5684899 0.71791655 0.8449411 -0.52166766 -1.0714898 -0.23216942 1.3752558 -0.063446775
-0.29617122 0.34340706 0.83600897 -0.54173464 0.45771545 -1.1910268 0.005779894 -1.5384126
1.5366672 -1.2895627 0.16482505 -0.19574264 -0.22859675 -0.91430604 1.2084622 -0.28476605
1.2031293 -0.011378618 0.35770175 0.070007265 -1.6495037 0.57828975 0.67527044 0.39414182
0.86793876 -0.30839345 -0.48635396 -0.39513966 -0.45196307 0.65346295 0.80518323 1.4921168
-0.43096158 -0.17865825 0.68701965 -0.34842 -1.7560066 0.81791455 -0.6169972 1.120839
-0.86376286 -0.96888566 1.8640168 1.4814001 -0.3831435 -1.1312757 0.25204012 -0.38413757
1.5985146 1.0595524 0.94542676 -0.8748227 0.23027156 -0.34076425 1.3387597 0.9115094
-0.2822961 0.1284451 0.9250949 -0.45947796 0.13732682 -0.10797405 -0.7087052 0.2697303
1.7622663 -0.04829261 1.0929203 0.35692346 -0.33279344 -0.32845774 -0.5548709 0.41206208
0.53011215 1.6114848 -0.51747614 0.10903468 -0.8332988 0.9518896 -0.73856217 1.2878337
0.16102926 -0.25031322 1.1702039 0.6731652 -1.049554 1.0983826 -0.3961002 -0.0069608465
-0.96805614 0.8673974 -0.9557481 0.655082 -0.8094102 0.24718396 0.17202845 0.82189703
1.3803835 -0.07686121 0.9493444 0.16639125 1.055878 0.5333455 -1.1015103 -0.5295985
-1.1340973 0.57957196 -0.75498784 -0.6715481 -1.2841316 -0.06926524 0.42057386 -0.9651087
-0.44480413 -1.3320715 -0.5015663 0.8860453 -0.015685312 -1.6323189 -1.0454218 1.2245775
-0.79328084 1.3196828 0.2893498 -0.18414952 -0.13807727 -1.66194 1.0319858 -0.18502676
0.8501712 -1.1431669 0.46137294 0.27382955 -0.007837426 1.5937164 0.1822756 0.52474403
-1.054249 -0.36794508 0.908529 0.12741585 -0.4145013 0.37307394 -1.4861677 -0.9280045
-0.6216548 0.6946842 -0.7197168 -0.5402095 0.350807 1.6572706 0.83390707 0.44696736
-0.31471398 0.13549876 0.7918203 -0.99731696 0.41969407 -0.31634176 -0.046137355 -0.07016432
-1.1715215 1.2591027 0.9863531 1.3066449 -0.6340971 -0.062291525 -1.2307651 -0.045011938
0.47962365 0.6970095 0.468068 -0.1289042 0.4994078 -0.7555114 0.0025535016 -1.1047529
0.6217355 -0.76574624 -0.007245971 -1.6725396 -2.2874708 -0.18390813 -0.96602106 -0.8280856

decoder.fc1.bias f4 [100]
00000000: 349b 99bd f26e 0c3f bb3b 4c3d 88f6 f43e
00000010: 3758 433d 89aa ae3e 3f29 c53e e859 003e
00000020: 0829 4e3d 00f3 08be a266 d13e ce97 183d
00000030: 1f1b 073f 39bc 93bd 1ebb ac3d 9aa4 f2be
00000040: 9427 643f 30db 9c3e 9f55 ed3e 2abd 1a3e
00000050: 1353 263f 2eea 9bbe c064 5f3e 3ca3 0e3f
00000060: abe6 be3e 9f47 b2bd 2e74 863e 3717 033f
00000070: c424 4d3f 5bb6 9bbe bfb6 d93e 3000 a63d
00000080: 5a76 853e d5c1 ae3c 5d75 853e 5d8c c63d
00000090: e661 a63e 9263 90bd c50f e5bd 6d5a 233e
000000a0: 90e7 c33e 1a26 08bf 252c 883e 90f5 3e3f
000000b0: 56df f93d a98a 8ebe ada2 433f 6f2d 513f
000000c0: 9107 ca3e 35ee c33e bd4c 5d3f 3aac 5a3d
000000d0: 0800 91bd 4d4e a43e e472 bd3d 895d aa3e
000000e0: b886 123f 5647 b8be 0eee 273e 9557 e63d
000000f0: c2bd 18be eeb5 2bbe 5a18 ef3e fd2f a83e
00000100: c153 013f ad6e 0b3e 87f0 0c3f 276e 793d
00000110: a1d4 a33e a638 883e 06f0 353f 0eef 4fbe
00000120: 9edb bebe f04a 96be bbbb a9be a3e2 68be
00000130: 9b87 6dbd c56b d63e 37f5 893e 7b78 ba3e
00000140: f003 0b3e 9bc0 373f 2809 be3e 014f 4b3f
00000150: e5d9 d5bd 97bb 193f 0a7a 013d e059 6a3e
00000160: 8a0b 9e3e 3787 dfbd 56ce 603f 304f 6d3c
00000170: 1140 5fbe 450a 063f cf6e 893c 4b9b 053f
00000180: 68ba d93d 5b32 903e 7721 bb3b ff11 cb3e
-0.07500306 0.5485679 0.04986165 0.47844338 0.04769155 0.34114483 0.3850803 0.12534297
0.0503321 -0.13373947 0.40898615 0.037254147 0.5277576 -0.07213635 0.08434127 -0.47391206
0.8912289 0.30635977 0.46354386 0.15111223 0.6497051 -0.30452102 0.21815777 0.55717826
0.3728536 -0.08705067 0.26260513 0.512073 0.80134225 -0.30412564 0.42522237 0.081055045
0.26066858 0.02133266 0.26066104 0.09694741 0.32496566 -0.070502415 -0.111846484 0.15952463
0.38262606 -0.5318314 0.2659618 0.7459345 0.12200801 -0.27840164 0.764201 0.8170995
0.39458898 0.38267675 0.8644522 0.053386904 -0.07080084 0.3209099 0.09250429 0.33274487
0.57236814 -0.35991925 0.16399404 0.11247174 -0.14916137 -0.1676862 0.46698266 0.32849112
0.50518423 0.13616438 0.55054516 0.060896065 0.3199816 0.2660572 0.7106937 -0.20306036
-0.3727693 -0.29354048 -0.3315104 -0.22742705 -0.05799065 0.41879097 0.26944897 0.36420044
0.13575721 0.7177827 0.3711636 0.79417425 -0.10441951 0.60051864 0.031610526 0.22885847
0.3086818 -0.10914462 0.87814844 0.014484212 -0.21801783 0.5235942 0.01677647 0.52190083
0.10631257 0.28163418 0.0057107764 0.39662167

decoder.fc2.weight f4 [100, 100]
00000000: 18b6 0ebf 28c2 f63c bce7 a83e 8bd7 883e
00000010: c9e4 983e 8cb6 04bf bc52 84be 28c3 fabe
00000020: 640a 653e eba1 f6bc 1b72 1ebe 5115 1b3f
00000030: def3 be3d 8ce6 493e 7561 4f3e 7ba2 40bf
00000040: fc19 1fbd 849e 463f f4d0 5b3e 632c 163f
00000050: ae32 c4be 3d09 603f cabc 44be 4a99 243e
00000060: d97e 97bf 6ff5 43bf ab7f 34be 78a8 293f
00000070: d7e9 ea3c 5be2 f3be 0899 733e ed90 623d
00000080: 591a dfbe 3631 bdbd 0031 bb3e a72e 463f
00000090: bf83 793c 7931 60bf 60dc 753c 2a3b b9be
000000a0: 0e32 533e 630c 45bf 97e3 9dbe 3c6c 723e
000000b0: 53d0 74be 7cc3 febe 85f9 a83d 88da 34bf
000000c0: 8dad 0d3e 00e2 58be 4f1a e1bc dabc 31bf
000000d0: 67aa d2bd fdf4 c9bd baf4 0c3e 0404 febd
000000e0: 5568 52bf 603d 863d 40cd 523e 0f29 523e
000000f0: 4073 12bf 274f 0a3e 1c6e 27be 4779 b7be
00000100: a887 773d 2149 c4bd e283 09bf 4af5 ccbd
00000110: 9cde d93e 74fb c73e 8efd dd3e 95e0 8bbe
00000120: 9f10 a93e 86dd 883e d15b c7bf 3e00 73bf
00000130: 26ec fd3c be72 db3e 12f8 d43a c248 c43e
00000140: 05ce 60bf 1cb5 b53e 31dc 12bf 328d 573e
00000150: 5002 1f3e 80fd 80bf 6ccc 00bf f220 d83e
00000160: 1068 133f 47ab 783e 5827 9f3e 11b1 883e
00000170: 2ebc 163e bc97 403e 6066 cdbd a131 473d
00000180: 179e 983d 1e48 5fbe d5cb 553e 0cb1 3dbe
00000190: 0448 99bd f27a a43e 9034 9b3e 57fc 13bf
000001a0: 8a84 20be ce71 013f 5cb1 1f3e 4275 be3e
000001b0: 85ea f3bd 90a7 ddbd ba2d 563e c700 243e
000001c0: 91d9 253d 82c4 093e 63d0 583d b14b 013e
000001d0: fe7b f23e 45ac 0bbe 1723 923e 1af4 3fbd
000001e0: 9de4 a93e 50bd 6ebf 0176 ccbd 316f 2f3f
000001f0: 19d4 e1be 69b2 2cbe ee96 b93e 3226 493f
00000200: 4151 dcbe a050 c03e 767d 80be 0412 ccbd
00000210: d485 a53e fff9 9d3d efb0 98be 8ec1 853e
00000220: c9cd 823e decf e53d c971 c6be b60c 99be
00000230: e9e3 82be 6636 d03e e151 3bbf be39 423d
00000240: 8119 42be f6d2 563e 30be ffbc 007b b73e
00000250: f792 273e 9c41 5c3e 9af9 d33e d4d7 0e3f
00000260: de03 00bf 85ee 0abf bdc0 923c 0a74 0f3e
00000270: c62f 69bd 90f0 833e 0275 2dbf 9639 703f
00000280: e2a0 1d3e 6c08 2abf b461 f0be 366f 0fbf
00000290: 2b5f 2f3e 965b ec3c a0a6 ab3e b6d7 293e
000002a0: e207 e63e b6f1 533d 5d50 ba3d 044e 55be
000002b0: 44e0 02be 08ce 4f3e 750b 973f de80 1bbf
000002c0: 9cc1 0dbe b4d4 0a3e 66af e6bc fd79 2b3f
000002d0: 5777 d4be 8f7a 913e 99a3 c93e cd77 d63e
000002e0: e3ee 583e 9248 b9bd 3efe 4bbe d20e 383e
000002f0: c940 3cbe 8ec3 e9bd ff2f 033f 430c 4ebe
00000300: 1ea3 30bf 7d07 2dbf 8bfa 15bf a4ec 6c3e
00000310: 1aa0 233f 8019 52be 88e0 6e3f 89f6 993e
00000320: ea53 a2be 780b f1be bc15 813e 1638 9a3e
00000330: 8475 bb3e 3e24 27be 3c26 acbd 84da 6b3f
00000340: b657 c93f 4f0a 3ebc 6850 b3bc d51e 653e
00000350: e62b 81bc c814 00bf 1daa dbbe 956c 493d
00000360: 8bd8 ca3e 083f c7bd f9da 8ebf 7b69 f0bd
00000370: cfcc afbe 9c7b 14bf 8a96 473b 77fe 0f3f
00000380: 1697 c0be c73b 1dbe 2f76 f03d 07ac 76be
00000390: 63f2 d4bd 71d2 043f f99f 7ebd 3413 db3e
000003a0: 6c6f df3c 969a a5be 31a2 a4be 3da8 93bf
000003b0: 6c74 fabd d7f1 a73e 4c34 44be 8093 93be
000003c0: ff4a 643f 0969 773f 919b 8fbf 87aa a23d
000003d0: 165e 99be 6162 1bbe 5ad1 e1be eae8 ae3e
000003e0: 302a 4f3e cb06 adbe 9904 e63c 911b db3e
000003f0: 8e1c 4cbe bdc4 363e fea0 86bf 4ba9 563e
-0.55746603 0.030121878 0.329893 0.26726946 0.2986205 -0.51841044 -0.2584437 -0.48977017
0.22367245 -0.030106505 -0.15473215 0.605794 0.09323858 0.19716853 0.2025202 -0.75247926
-0.03884314 0.77585626 0.21466428 0.5866148 -0.38319916 0.87514096 -0.19212642 0.160741
-1.1835586 -0.76546377 -0.17626826 0.6627269 0.028675957 -0.47633633 0.23788846 0.055313993
-0.4357479 -0.09237902 0.36560822 0.77414936 0.015229165 -0.8757549 0.015006155 -0.3617795
0.20624563 -0.76972026 -0.308377 0.236741 -0.23907594 -0.49758518 0.08250717 -0.7064595
0.13835736 -0.21179962 -0.027478365 -0.6942879 -0.10286408 -0.09861181 0.13765231 -0.1240311
-0.8219045 0.06554675 0.20586109 0.20523475 -0.5720711 0.13506757 -0.16350597 -0.35834715
0.060432106 -0.09584261 -0.5371686 -0.10007723 0.4255265 0.3905903 0.4335751 -0.2731978
0.33020493 0.2673151 -1.5574895 -0.94922245 0.030996393 0.4286098 0.0016248247 0.3833676
-0.8781436 0.35489738 -0.57367235 0.21049955 0.15528226 -1.0077362 -0.50311923 0.42212635
0.5758066 0.24284087 0.31084704 0.2669759 0.14720222 0.18807882 -0.10029292 0.048631314
0.07452028 -0.21804854 0.20878537 -0.1852457 -0.07484439 0.3212505 0.3031354 -0.57806915
-0.1567556 0.5056428 0.15595001 0.37198836 -0.119099654 -0.10822976 0.20915881 0.16015922
0.04049069 0.13453868 0.052933108 0.1262653 0.47360224 -0.13639934 0.28542396 -0.046863653
0.3318223 -0.9325762 -0.09983445 0.6852904 -0.4410713 -0.16864933 0.36247963 0.78573906
-0.43030742 0.37561512 -0.2509572 -0.09964374 0.32328665 0.077136986 -0.2982249 0.26124233
0.25547627 0.11221288 -0.38758686 -0.2989251 -0.25564507 0.40666503 -0.7317181 0.04741835
-0.18955041 0.20978913 -0.031218618 0.3583603 0.16364656 0.21509403 0.41401368 0.5579808
-0.500059 -0.542702 0.01791417 0.14009109 -0.056930326 0.25769472 -0.67756665 0.9383787
0.15393403 -0.664191 -0.46949542 -0.5602907 0.17126147 0.028852265 0.33525562 0.16586193
0.4492789 0.051744185 0.09097359 -0.20830542 -0.12780863 0.20293438 1.1800371 -0.6074351
-0.13843387 0.13557702 -0.028159808 0.66983014 -0.414973 0.28413817 0.39382628 0.41888276
0.21184878 -0.09047045 -0.19921204 0.17974404 -0.18384089 -0.11414252 0.5124511 -0.20121865
-0.689989 -0.6758955 -0.58585423 0.23137146 0.6391617 -0.2051754 0.9331136 0.30070904
-0.31704646 -0.47079062 0.25211895 0.30120915 0.36613095 -0.16322419 -0.0840573 0.92130303
1.5729892 -0.011599137 -0.021888927 0.22375043 -0.015768003 -0.5003171 -0.42903224 0.049175818
0.39618334 -0.09728819 -1.1160575 -0.11738869 -0.34335944 -0.5800111 0.0030454719 0.5624766
-0.3761527 -0.15354834 0.11741292 -0.2408906 -0.10397794 0.5188361 -0.06216428 0.42788088
0.02727481 -0.32344502 -0.32154992 -1.1535717 -0.12229237 0.32801697 -0.19160575 -0.2882347
0.89176935 0.96644646 -1.121935 0.07942682 -0.29954594 -0.15174247 -0.44105035 0.34162074
0.20230937 -0.33794245 0.028078364 0.4279447 -0.19932768 0.17848487 -1.0517881 0.20963018

decoder.fc2.bias f4 [100]
00000000: f63f 52bd 0a03 e53d 7c86 db3b 9cc8 af3d
00000010: f446 863d 3aeb e8bd 1d7d 64bd 4e93 dc3d
00000020: 0539 493e 3f6c 33ba 4e4e d9bc 322b c5bd
00000030: d981 433e dc2c 05bc 1254 1a3d 6d98 fa3d
00000040: 56b6 973e feff 7c3e 3ca0 cdbd 65c2 6bbe
00000050: b9ff 433e dfa9 803c f917 a53d 2bc3 fa3d
00000060: 7580 193e e95e 02bb 8e05 603e cdf5 763e
00000070: e069 073e f678 903e 5e69 543d 38b4 f73c
00000080: a6c8 953d bcb0 aa3e 00ae 613e 65de 1b3e
00000090: 8c7f ee3d 5832 86be a306 533d bc38 ac3d
000000a0: cebf 40be 2cce 683e 1150 ea3d 2931 afbd
000000b0: 6d5d 8d3e 06fd 8c3e 4ce6 2abe 71b0 b23e
000000c0: db44 b6bd 83ca 883e a66a 91bc ab2e 5e3d
000000d0: 9f93 493c c64b f93d 1098 8b3e 390c 933e
000000e0: 76a7 9a3c ffcf 313e aa53 4d3e 2529 b43d
000000f0: 882c d9bd f8b0 27ba 635f 883d 862e 4a3e
00000100: 3b1b bc3d a3b0 d43d 9838 763e 1e1e 8e3e
00000110: 105b 65bc f8ef 813d b165 883d 53e9 60be
00000120: c824 ac3e a5eb 183e 4698 67bd 6d6b 653e
00000130: 37c3 3b3e f49a 7fbd db15 b13d 7b26 233d
00000140: b90c 95be b8f5 8abd ba28 923e ead9 813e
00000150: 17cb 8abe 4795 14be 8ced 023e 939e 6b3e
00000160: d0e4 913c 2dfe 0f3e 8e66 9f3d 59e8 613d
00000170: 93d3 093d f856 8c3e c907 703e 2160 0e3e
00000180: ad12 7f3e da7b b73d 4725 01be 120f 11bd
-0.05133053 0.1118222 0.0066993814 0.08583185 0.06556502 -0.11372991 -0.05578338 0.10770284
0.19650657 -0.0006844438 -0.026526596 -0.096273795 0.19092502 -0.008128371 0.037677832 0.12236104
0.296313 0.24707028 -0.10040328 -0.23023374 0.19140519 0.015706 0.08061213 0.122442566
0.14990409 -0.0019892997 0.21877119 0.24117203 0.13223982 0.28217286 0.0518583 0.030237302
0.07313661 0.33337963 0.22039032 0.15221556 0.116454214 -0.26210284 0.05152 0.08409259
-0.18823168 0.22734898 0.11441053 -0.085542984 0.2761034 0.27536792 -0.16689414 0.3490024
-0.08899852 0.26717004 -0.01775105 0.054243725 0.012303262 0.12172656 0.27264452 0.28720263
0.01887868 0.173645 0.20051447 0.0879691 -0.10604197 -0.0006396915 0.066588186 0.1974431
0.09184881 0.10385253 0.24045026 0.27757353 -0.013998762 0.063445985 0.06660021 -0.21964006
0.33621812 0.14933641 -0.056541704 0.22404261 0.18336187 -0.062403634 0.08646747 0.03983162
-0.2911127 -0.067851484 0.28546697 0.25361568 -0.2710807 -0.1451007 0.1278593 0.2300971
0.017809302 0.14061804 0.07783233 0.055153225 0.03364904 0.27410102 0.2344047 0.13903858
0.24909468 0.0895917 -0.12611876 -0.035414763
