toSubmit/VAE/vae_mnist_weights_2.pth (torch, 719428 bytes, 14 tensors)

encoder.fc1.weight f4 [100, 784]
-0.024712896 -0.023582388 0.012413145 0.010887952 -0.0004037023 0.026717132 -0.03442824 0.007445668
-0.030276202 0.00586451 0.004546085 -0.015235621 0.086933315 0.06909694 0.097227864 0.09512384
0.016559798 0.006798306 -0.01564915 -0.012579625 0.029499387 -0.0014788636 -0.022098359 0.032983147
0.0127686355 -0.035158508 -0.024800098 -0.0026048338 -0.022475354 -0.0138586555 -0.03229745 0.00957005
-0.37521666 -0.33134615 0.26104656 0.27216414 -0.00856765 0.08525178 0.0428219 -0.012850763
-0.0023196822 -0.08307853 -0.08090255 0.07993223 -0.030359726 -0.2707222 -0.41807187 -0.37380806
0.065169886 0.5254171 -0.025620675 -0.30336088 -0.028180936 0.014516525 0.01943129 -0.008063964
-0.03114884 0.019570936 0.20397036 0.1322451 0.39738774 -0.05510497 -0.12143657 -0.055280983
0.28495625 -0.0963991 0.14089859 -0.017993085 -0.032214284 0.009986456 0.19716921 -0.06481582
-0.10884981 -0.13535453 -0.20202038 -0.28983563 -0.29122633 -0.23161398 -0.49636337 -0.4335609
-0.25777996 0.07931554 -0.01025283 0.005578003 -0.028395083 0.011137725 0.063765 -0.17748539
0.19976398 -0.14096382 0.3902161 0.12219801 0.092534386 0.20367216 0.17568552 -0.30247772
-0.09962649 -0.1571121 -0.38111484 -0.35861376 -0.15814883 0.06001806 0.07880845 -0.05079609
-0.039217345 0.115606435 -0.063429564 -0.68520015 -0.18256593 -0.0828576 -0.16242841 0.0070015662
-0.03154636 -0.03767592 -0.0008396835 0.16165935 -0.29292807 0.051967878 0.04918846 -0.08513674
0.056633815 -0.13528 -0.36527824 -0.6442846 -0.5273583 -0.4574426 -0.25581086 -0.026040133
0.022293959 0.10218433 0.02073903 0.18636136 -0.069993846 -0.08300681 0.13771984 0.074122354
-0.0051428266 0.16330048 0.27181706 0.0676691 0.0025483712 -0.024386795 -0.04027968 0.076176435
-0.1571641 0.065017916 -0.29454094 -0.09273334 -0.25040248 0.07311435 -0.36015677 -0.17778125
-0.14349099 -0.070395425 -0.17403151 -0.03586509 -0.009562921 0.10636127 -0.044589642 -0.04808589
-0.03585855 -0.1294302 -0.13721272 -0.08016066 0.16456366 0.2106152 0.043346412 0.17114097
-0.028564885 0.08142034 -0.17632884 0.13661781 0.16930869 0.19975732 -0.153057 -0.36493674
-0.34186032 -0.14301984 0.0027355368 0.034507006 -0.12510423 0.050814647 0.07370586 0.092769384
0.055819053 -0.06300582 -0.16010013 -0.13910912 0.046796218 -0.045497183 0.147971 -0.04891881
0.024345372 -0.0014169383 -0.09347749 0.0740973 -0.17278168 -0.03391206 -0.3359037 -0.053634085
-0.31865156 0.38947436 0.2273373 -0.2145959 -0.46734846 -0.10853452 0.046790667 0.09873354
0.00591171 -0.022968221 0.059356347 0.04494222 0.07605933 -0.09211212 -0.06927185 0.07505561
0.2414386 0.0041851155 0.10409503 -0.13981938 0.14339241 0.113093175 -0.25557387 0.63739634
-0.16642955 -0.023298297 0.06818644 0.023388576 -0.47642276 0.2427629 -0.052930646 -0.16164653
-0.22937164 -0.15808122 -0.21293554 -0.04489992 -0.0670458 -0.11169911 0.019834856 0.15458371
0.027919516 0.09537795 0.0023145247 -0.10143647 0.012334019 -0.062788315 -0.1516446 -0.05190184
-0.1405735 0.01543157 -0.13663077 0.74552894 0.06975014 0.6747013 -0.124864355 0.35204303
00000000: b372 cabc da2f c1bc 8160 4b3c 6163 323c
00000010: 01a8 d3b9 e3dd da3c a004 0dbd cafa f33b
00000020: cc05 f8bc 132b c03b 53f7 943b d39e 79bc
00000030: 180a b23d b282 8d3d 671f c73d 4ad0 c23d
00000040: 6aa8 873c 53c4 de3b a532 80bc c51a 4ebc
00000050: b3a8 f13c 6ed6 c1ba 9e07 b5bc 5619 073d
00000060: 8a33 513c 5e02 10bd 9329 cbbc dcb5 2abb
00000070: 3c1e b8bc 6a0f 63bc 554a 04bd b3cb 1c3c
00000080: 661c c0be 34a6 a9be e5a7 853e 1959 8b3e
00000090: 545f 0cbc 7c98 ae3d 0466 2f3d 028c 52bc
000000a0: cf05 18bb 1425 aabd 3cb0 a5bd 82b3 a33d
000000b0: f6b4 f8bc 1a9c 8abe 840d d6be c563 bfbe
000000c0: ca77 853d bc81 063f 73e2 d1bc 1e52 9bbe
000000d0: b5db e6bc b8d6 6d3c 5e2e 9f3c b71e 04bc
000000e0: da2b ffbc 3a53 a03c 9bdd 503e 426b 073e
000000f0: 6876 cb3e c0b5 61bd bdb3 f8bd 506e 62bd
00000100: c9e5 913e e46c c5bd b847 103e 3c66 93bc
00000110: 20f3 03bd 3b9e 233c bae6 493e 28be 84bd
00000120: a6ec debd 619a 0abe 6ede 4ebe 5665 94be
00000130: 9e1b 95be 372c 6dbe 5723 febe b2fb ddbe
00000140: bcfb 83be 3070 a23d 7cfb 27bc aec7 b63b
00000150: ce9c e8bc 017b 363c 3997 823d bbbe 35be
00000160: ee8e 4c3e d258 10be 68ca c73e f342 fa3d
00000170: ab82 bd3d 6f8f 503e e8e6 333e 5cde 9abe
00000180: f908 ccbd ffe1 20be 7c21 c3be 399c b7be
00000190: c4f1 21be 7fd5 753d 5366 a13d 900f 50bd
000001a0: 5ea2 20bd 11c3 ec3d 5ce7 81bd 4769 2fbf
000001b0: 90f2 3abe 3fb1 a9bd a253 26be 656d e53b
000001c0: c236 01bd 1152 1abd 351e 5cba 078a 253e
000001d0: abfa 95be 45dc 543d d779 493d 2c5c aebd
000001e0: dcf8 673d d786 0abe c005 bbbe d6ef 24bf
000001f0: f400 07bf eb35 eabe a4f9 82be 1e52 d5bc
00000200: d2a1 b63c 0546 d13d e6e4 a93c 83d5 3e3e
00000210: ef58 8fbd 79ff a9bd 6e06 0d3e 76cd 973d
00000220: 2885 a8bb 3e38 273e 9b2b 8b3e 1996 8a3d
00000230: 9302 273b d1c6 c7bc 4efc 24bd 6402 9c3d
00000240: a0ef 20be 1d28 853d 12ce 96be faea bdbd
00000250: c134 80be fabc 953d 7866 b8be 4a0c 36be
00000260: 4def 12be 7a2b 90bd 5135 32be 46e7 12bd
00000270: ccad 1cbc f0d3 d93d a1a3 36bd b6f5 44bd
00000280: 6ae0 12bd 5a89 04be 7e81 0cbe 462b a4bd
00000290: 6083 283e 83ab 573e 028c 313d 943f 2f3e
000002a0: e800 eabc b5bf a63d 8c8f 34be 8ae5 0b3e
000002b0: 425f 2d3e 2f8d 4c3e f9ba 1cbe fdd8 babe
000002c0: 5108 afbe cb73 12be b146 333b 3857 0d3d
000002d0: 531b 00be 0523 503d 19f3 963d e0fd bd3d
000002e0: 85a2 643d 3209 81bd 4af1 23be 9f72 0ebe
000002f0: 64ad 3f3d 415b 3abd b685 173e 175f 48bd
00000300: f26f c73c 8fb8 b9ba 2071 bfbd 53c0 973d
00000310: aeed 30be 5fe7 0abd 92fb abbe 6aaf 5bbd
00000320: 4c26 a3be 2f69 c73e 1ccb 683e 07bf 5bbe
00000330: 4c48 efbe 5947 debd 92a7 3f3d cf34 ca3d
00000340: 05b7 c13b da27 bcbc a41f 733d 5515 383d
00000350: fec4 9b3d 47a5 bcbd 66de 8dbd c1b6 993d
00000360: ae3b 773e 4b23 893b c62f d53d d02c 0fbe
00000370: 76d5 123e 659d e73d 94da 82be 682c 233f
00000380: 826c 2abe 12dc bebc 55a5 8b3d 6699 bf3c
00000390: afed f3be d696 783e cecd 58bd ab86 25be
000003a0: 66e0 6abe 0be0 21be c60b 5abe fae8 37bd
000003b0: 4f4f 89bd 81c2 e4bd b57c a23c 314b 1e3e
000003c0: 78b7 e43c 8455 c33d 48af 173b edbd cfbd
000003d0: a014 4a3c 2997 80bd b948 1bbe 0697 54bd
000003e0: 80f2 0fbe b2d4 7c3c f0e8 0bbe fcda 3e3f
000003f0: 29d9 8e3d 39b9 2c3f e2b8 ffbd fc3e b43e

encoder.fc1.bias f4 [100]
0.44263783 -0.3655403 0.4813448 -0.19634132 -0.03920767 0.4207143 0.007988576 -0.30509746
-0.26594824 0.17759089 -0.009395097 0.7727378 0.0019357349 -0.24898034 0.16483751 0.5609959
0.44272548 -0.11401493 0.74219346 0.36426106 0.37849817 -0.24769719 0.71303165 -0.13308644
0.77767944 0.40447158 -0.43851057 -0.043798044 -0.20999222 -0.118494794 0.031438716 0.66851515
-0.04755699 0.8613128 0.6140055 0.19999297 0.103205286 -0.08719395 -0.092043445 0.391209
0.5703459 -0.18425064 0.41839796 0.077075414 0.7460943 0.51185864 -0.33294478 0.44488975
-0.59617347 0.3039152 0.53942287 -0.46585324 0.36331344 0.53697413 0.2793695 0.12066709
0.087950885 0.34720513 -0.070694424 -0.14911516 0.059415888 0.60576624 -0.015713062 0.55972844
0.39151406 0.93051845 0.48184076 0.7124696 0.35231522 0.31959927 -0.18639137 -0.92287755
0.7917366 0.2505114 -0.26691452 0.55533177 0.66381496 -0.15240958 0.00352823 0.487791
0.82908255 -0.540323 0.42022595 -0.7155723 0.35063335 -0.1424891 0.15874617 -0.044434074
-0.40188384 0.4501316 -0.02560864 0.07955194 -0.05878691 -0.11089851 0.045563128 0.73702157
-0.031199759 -0.4059913 0.4830262 -0.16842356
00000000: 6da1 e23e 1928 bbbe d372 f63e b30d 49be
00000010: 3998 20bd dd67 d73e 84e2 023c bc35 9cbe
00000020: 5e2a 88be 63da 353e e5ed 19bc 25d2 453f
00000030: 7cb8 fd3a b4f4 7ebe 2acb 283e 6d9d 0f3f
00000040: eaac e23e a980 e9bd 6400 3e3f 6d80 ba3e
00000050: 83ca c13e 55a4 7dbe 3e89 363f d047 08be
00000060: 0016 473f e616 cf3e 7584 e0be 9465 33bd
00000070: 3308 57be 66ad f2bd e2c5 003d cf23 2b3f
00000080: 1ecb 42bd ff7e 5c3f 772f 1d3f f5ca 4c3e
00000090: 4b5d d33d be92 b2bd 4681 bcbd 8c4c c83e
000000a0: 3002 123f 33ac 3cbe 4238 d63e b7d9 9d3d
000000b0: 0900 3f3f 2b09 033f bd77 aabe 97c8 e33e
000000c0: d39e 18bf c69a 9b3e 9e17 0a3f 5184 eebe
000000d0: 3804 ba3e 2377 093f 8509 8f3e 4f20 f73d
000000e0: 981f b43d dfc4 b13e 3dc8 90bd a5b1 18be
000000f0: 135e 733d 7f13 1b3f aeb8 80bc 5d4a 0f3f
00000100: 8874 c83e 7536 6e3f d5b3 f63e 6864 363f
00000110: a962 b43e 84a2 a33e 61dd 3ebe b441 6cbf
00000120: 40af 4a3f 0843 803e 05a9 88be 392a 0e3f
00000130: c7ef 293f 4211 1cbe e039 673b bebf f93e
00000140: c13e 543f 9c52 0abf db27 d73e bf2f 37bf
00000150: 3786 b33e aae8 11be 5b8e 223e 8100 36bd
00000160: b8c3 cdbe a677 e63e 36c9 d1bc 21ec a23d
00000170: 8bca 70bd c21e e3bd 67a0 3a3d 72ad 3c3f
00000180: a396 ffbc 17de cfbe 364f f73e 3a77 2cbe

encoder.fc2.weight f4 [100, 100]
0.075000815 0.1350336 -0.10668374 -0.08585547 0.16639718 -0.15505308 -0.07106542 -0.018560765
-0.13672265 -0.7803803 -0.13792156 0.057554506 0.094623975 -0.08083224 0.10467106 -0.08094416
-0.23263569 -0.0682379 0.05653191 0.11503166 0.036896206 -0.04803056 0.06635066 -0.3132986
0.014074846 -0.06699315 -0.17306119 -0.04751021 0.042363413 -0.046133976 0.011325711 -0.07823439
-0.0123309195 0.059718866 0.07145419 0.17352799 0.14689691 0.06331264 -0.29200935 -0.027230635
-0.26266882 -0.14058152 -0.13054761 -0.047705077 0.03813245 -0.62969804 0.07894761 -0.39104468
-0.09026493 0.050971348 0.3652999 -0.18221456 0.038308408 -0.067124344 -0.1348631 -0.039098285
0.0032470345 0.11605377 -0.1811003 -0.053140227 -0.05463069 0.15501165 -0.093761005 0.12095329
-0.20937812 -0.10909307 -0.058317564 0.10751831 0.07612522 0.14484903 0.09799982 -0.073929
-0.11763006 -0.003007458 0.30303952 0.13312383 0.07344615 -0.41193518 -0.4636411 -0.115107514
0.008102755 -0.20975636 0.007374962 0.05345178 0.030473528 -0.41864133 -0.02193456 0.072216704
0.0823385 -0.027528204 -0.9008585 -0.022645 -0.25706223 0.13963199 -1.1859244 0.12106654
0.05053779 -0.44727388 -0.2547231 -0.020914102 0.038000032 0.053413358 0.17287646 -0.0183679
0.01872664 0.14565066 0.20058161 0.035675075 -0.08956004 0.03461967 -0.37368375 0.13888574
0.1309151 -0.02066923 0.13300304 0.022692615 0.19139352 0.09008171 0.08606084 -0.2007032
0.05440384 -0.08723604 -0.031116907 -0.054185145 -0.024229707 -0.005827446 0.033341136 0.03227199
-0.11357883 0.15532212 0.05343432 -0.0494182 -8.009214e-06 0.073171996 0.041319806 -0.08558139
0.18183237 -0.055198483 -0.1709423 0.12382167 -0.04700802 0.13115445 -0.1256567 -0.14475866
-0.008755668 -0.07196161 -0.036662105 0.08480235 -0.058885187 -0.08840934 0.053655792 -0.0035163087
0.10151735 -0.041584376 0.048802227 0.19294855 -0.083547324 0.12020888 -0.05108006 -0.26394042
-0.10562729 -0.055183813 0.048896547 0.03565686 0.058270797 0.029100543 0.013178605 0.09711245
-0.085129514 0.06063443 -0.013861299 -0.32198256 0.038392935 0.10810099 0.147653 0.2549496
0.008728421 -0.18863891 -0.7139072 -0.021987688 -0.01790487 0.006228332 -0.07901998 -0.04892742
0.04389314 0.017135197 -0.17261079 -0.05953365 -0.057969682 -0.105357155 0.02079989 -0.11430026
0.11440011 0.17278017 -0.02589893 0.11945305 0.04991626 -0.03711842 -0.26808998 -0.05844423
-0.14541042 0.2770058 0.273409 -0.17142558 -0.27757606 -0.057484947 0.010438368 0.3255243
0.13167217 -0.0972876 -0.049750492 0.37365875 -0.123525016 -0.1704535 0.29916382 0.1472745
-0.1770576 0.29595637 -0.02729564 0.17921413 -0.03360753 0.11685022 -0.09148134 -0.18089655
0.11304448 0.016900752 -0.1266902 0.09082163 -0.003536772 -0.05241497 0.24723387 -0.009198793
-0.39987624 0.10317249 -0.119066924 -0.01660777 -0.03762817 0.13994853 0.1780137 0.16176394
-0.12645483 -0.069827795 -0.18835203 0.14684927 0.05572659 -0.06959184 0.21905144 0.16835083
-0.3653818 0.0697688 0.11520613 0.049925704 0.33177233 -0.03673629 0.1677249 0.12382859
00000000: 079a 993d 3f46 0a3e 017d dabd fed4 afbd
00000010: 0664 2a3e 3cc6 1ebe bf8a 91bd bf0c 98bc
00000020: 0601 0cbe 01c7 47bf 4f3b 0dbe 46be 6b3d
00000030: 37ca c13d 608b a5bd c85d d63d 0dc6 a5bd
00000040: 0d38 6ebe 50c0 8bbd 018e 673d b895 eb3d
00000050: 7a20 173d b1bb 44bd dbe2 873d ad68 a0be
00000060: 2f9a 663c b433 89bd f436 31be 119a 42bd
00000070: 4285 2d3d fbf6 3cbd 7a8f 393c 5a39 a0bd
00000080: a007 4abc c59b 743d 9356 923d 52b1 313e
00000090: 256c 163e 0faa 813d 4082 95be c812 dfbc
000000a0: 877c 86be 9af4 0fbe 46ae 05be 6666 43bd
000000b0: c630 1c3d e433 21bf 49af a13d 0237 c8be
000000c0: d2dc b8bd 55c7 503d 9708 bb3e 7496 3abe
000000d0: 47e9 1c3d 7d78 89bd 8d19 0abe 8625 20bd
000000e0: 33cc 543b 99ad ed3d 5b72 39be 91a9 59bd
000000f0: 6ec4 5fbd 60bb 1e3e c505 c0bd 5cb6 f73d
00000100: 3867 56be 306c dfbd 66de 6ebd 8f32 dc3d
00000110: 8ae7 9b3d 4e53 143e 21b4 c83d 1668 97bd
00000120: 07e8 f0bd c618 45bb ff27 9b3e 9d51 083e
00000130: ef6a 963d 2be9 d2be 5e62 edbe 7dbd ebbd
00000140: 6bc1 043c 5fca 56be aaa9 f13b 41f0 5a3d
00000150: 9fa3 f93c 2858 d6be 1bb0 b3bc 5ae6 933d
00000160: 16a1 a83d d482 e1bc aa9e 66bf 0282 b9bc
00000170: a99d 83be b0fb 0e3e 5fcc 97bf bcf1 f73d
00000180: b700 4f3d 1501 e5be 116b 82be 0d54 abbc
00000190: eca5 1b3d f7c7 5a3d 8706 313e 4778 96bc
000001a0: 9c68 993c 7225 153e 4465 4d3e 0720 123d
000001b0: 416b b7bd 5bcd 0d3d 7a53 bfbe 1038 0e3e
000001c0: 9c0e 063e 8452 a9bc f331 083e dde5 b93c
000001d0: aafc 433e c27c b83d aa40 b03d 2485 4dbe
000001e0: 90d6 5e3d cfa8 b2bd e2e8 febc 3ef1 5dbd
000001f0: 617d c6bc 29f4 bebb b790 083d a22f 043d
00000200: 059c e8bd c30c 1f3e f2dd 5a3d bd6a 4abd
00000210: 505f 06b7 33db 953d f53e 293d 4c45 afbd
00000220: 4432 3a3e ce17 62bd 800b 2fbe 3796 fd3d
00000230: 7b8b 40bd 5a4d 063e 26ac 00be 9d3b 14be
00000240: ef73 0fbc 9c60 93bd 012b 16bd dbac ad3d
00000250: 9831 71bd f50f b5bd 2dc6 5b3d df71 66bb
00000260: 54e8 cf3d 6154 2abd d8e4 473d 4e94 453e
00000270: dc1a abbd 1330 f63d 5339 51bd 3323 87be
00000280: 1f53 d8bd 6c08 62bd bf47 483d ed0c 123d
00000290: 5cad 6e3d 4364 ee3c 13eb 573c e4e2 c63d
000002a0: 6258 aebd cf5b 783d 801a 63bc e6da a4be
000002b0: e941 1d3d 0d64 dd3d 5932 173e c188 823e
000002c0: a701 0f3c 8f2a 41be 9fc2 36bf 861f b4bc
000002d0: 3cad 92bc 0917 cc3b 3ad5 a1bd 1e68 48bd
000002e0: 4bc9 333d 1d5f 8c3c e2c0 30be 8ed9 73bd
000002f0: 9e71 6dbd 7ec5 d7bd 8864 aa3c 4116 eabd
00000300: 9b4a ea3d 49ed 303e fe29 d4bc cda3 f43d
00000310: fe74 4c3d 7c09 18bd 1743 89be 3863 6fbd
00000320: 78e6 14be b4d3 8d3e 44fc 8b3e 308a 2fbe
00000330: 731e 8ebe 5675 6bbd b005 2b3c 1fab a63e
00000340: 12d5 063e b93e c7bd 2cc7 4bbd 3350 bf3e
00000350: affa fcbd 5d8b 2ebe 002c 993e 20cf 163e
00000360: 964e 35be 9887 973e 1b9b dfbc e983 373e
00000370: 0da8 09bd 2b4f ef3d 925a bbbd f23c 39be
00000380: dd83 e73d 7273 8a3c 13bb 01be b100 ba3d
00000390: 30c9 67bb 14b1 56bd e02a 7d3e 89b6 16bc
000003a0: 94bc ccbe 194c d33d 5cd9 f3bd 050d 88bc
000003b0: ff1f 1abd ab4e 0f3e 3949 363e 72a5 253e
000003c0: 607d 01be e001 8fbd 5bdf 40be a85f 163e
000003d0: 9141 643d 2b86 8ebd 054f 603e 2964 2c3e
000003e0: 5313 bbbe f2e2 8e3d 31f1 eb3d e57e 4c3d
000003f0: 10de a93e cb78 16bd 14c0 2b3e d899 fd3d

encoder.fc2.bias f4 [100]
-0.21703981 0.19655891 0.18493447 0.18693073 0.2096659 -0.07473331 -0.2459919 0.20480931
0.10440602 -0.066221505 -0.1285432 -0.24756336 0.24051295 -0.21389328 0.119814664 0.31797314
0.3093132 -0.022785977 0.24272464 -0.21792313 -0.020665312 -0.074710414 -0.3009262 0.25528044
-0.2335865 -0.6331192 0.23823087 0.1570502 -0.108613744 -0.055987705 -0.011053384 0.055505693
-0.24257614 0.109561905 0.3838942 0.08364841 -0.2085639 0.3326307 0.21743266 -0.19619744
0.30651233 -0.4617561 -0.0066579715 -0.040042624 -0.13219373 0.2780037 -0.56944835 -0.15461911
-0.056729767 -0.04503104 0.3810226 0.18764997 0.017955847 -0.118569516 -0.056737546 0.21923013
0.19848217 0.33940637 0.21139249 0.14768517 0.2602747 -0.28793633 -0.3095453 0.024763301
0.33957958 0.21421261 0.19298261 -0.280313 0.31500638 -0.20934077 0.15698151 -0.11257653
0.29339296 0.049150877 0.45772696 0.34188685 0.079379626 -0.07562136 0.35870853 0.13682774
0.49505273 0.14916953 0.41285932 -0.07996494 0.14940223 0.17462659 0.34159464 0.023230698
0.25216362 0.46784523 0.110959455 -0.0335696 0.026700797 0.3968691 0.21972328 0.2518851
0.16055849 -0.019247208 0.053981625 0.10990544
00000000: af3f 5ebe bd46 493e 765f 3d3e c56a 3f3e
00000010: a8b2 563e c70d 99bd 4de5 7bbe 88b9 513e
00000020: d3d2 d53d 249f 87bd d4a0 03be 4081 7dbe
00000030: 0749 763e d706 5bbe 6461 f53d 60cd a23e
00000040: 4d5e 9e3e a8a9 babc cf8c 783e 3e27 5fbe
00000050: 4d4a a9bc c601 99bd 0013 9abe 1eb4 823e
00000060: 4d31 6fbe 1a14 22bf cbf2 733e c5d1 203e
00000070: e270 debd 5d53 65bd 4119 35bc f059 633d
00000080: e165 78be fe61 e03d c88d c43e dc4f ab3d
00000090: c691 55be 924e aa3e aba6 5e3e fbe7 48be
000000a0: 2fef 9c3e 4c6b ecbe 1d2b dabb bc03 24bd
000000b0: cb5d 07be 8056 8e3e 5ec7 11bf 7954 1ebe
000000c0: 795d 68bd 7872 38bd 6515 c33e 5027 403e
000000d0: 2418 933c 93d4 f2bd a165 68bd dd7d 603e
000000e0: e93e 4b3e acc6 ad3e 4677 583e c83a 173e
000000f0: ba42 853e 646c 93be b97c 9ebe 68dc ca3c
00000100: 60dd ad3e 8d5a 5b3e 3c9d 453e 2f85 8fbe
00000110: 8448 a13e 6d5d 56be c3bf 203e 868e e6bd
00000120: 9a37 963e 6e52 493d 305b ea3e cb0b af3e
00000130: c991 a23d 5fdf 9abd a5a8 b73e 921c 0c3e
00000140: 8d77 fd3e e6bf 183e 4c62 d33e a9c4 a3bd
00000150: e6fc 183e 50d1 323e 7ee5 ae3e 4e4e be3c
00000160: 971b 813e 6989 ef3e b63e e33d 4780 09bd
00000170: a1bb da3c 6d32 cb3e 24ff 603e 15f7 803e
00000180: 7269 243e 52ac 9dbc d61b 5d3d 1a16 e13d

encoder.fc_mean.weight f4 [2, 100]
0.16563082 0.14308663 0.084178366 0.06716732 0.059044447 0.04389758 -0.010406787 0.052046314
0.1712836 0.014742464 0.053959332 -0.08485953 -0.16179885 -0.0009499338 0.14126183 0.038427502
0.009470761 0.027009077 0.13177744 -0.01848222 0.2147154 -0.028349608 0.10337493 -0.08577047
-0.12216061 0.40385854 0.0018763161 0.062358156 -0.063433 -0.23677397 -0.3051651 0.09403237
0.002787359 0.05406717 0.08608156 -0.27197686 0.13150446 0.04026363 -0.6913636 -0.0010474661
0.115154125 0.07051617 -0.22869107 -0.040462695 -0.30750695 -0.025666898 0.16395126 0.002822954
0.004171084 -0.07561856 -0.051557478 0.121944636 0.022571962 -0.11813567 -0.099837236 -0.66754854
-0.21484941 0.105180666 0.04340401 -0.1956466 -0.013710799 0.04320091 0.09734944 0.18682411
-0.2553434 -0.021012666 0.20021044 0.19414347 -0.041765332 -0.00956134 -0.16563042 0.02746705
-0.07603037 0.010077785 0.01279884 -0.017711835 0.0347405 -0.05114073 -0.012944084 -0.054360997
-0.107639864 0.06596508 -0.003548277 0.019313127 0.062125426 -0.2914482 0.033129163 -0.048339225
-0.25615677 -0.04969077 -0.010019906 -0.14777078 0.12732981 -0.012890254 -0.14597 0.03074825
0.020501224 0.11505275 0.012022892 -0.042419136 0.27174905 0.0155792935 -0.012988085 0.040259887
-0.24468595 0.013800146 -0.1364344 -0.23032267 -0.047766473 -0.020759108 -0.0533135 0.11586603
-0.22210877 -0.12014293 -0.05730701 0.07232862 0.08777068 -0.06712116 -0.06579721 0.17544141
0.09650074 -0.024536576 0.017652357 0.075862154 -0.2928105 0.15360175 0.061486997 -0.048885763
0.03700176 -0.09469327 -0.008818307 0.14917527 -0.0037657144 -0.0862403 -0.0028986842 -0.52388597
-0.2534276 0.03126181 0.9419091 -0.007704196 0.16831104 0.115831435 0.10687881 -0.009731784
0.2412748 0.021621814 0.24162805 0.0014508426 -0.043983225 0.06228846 -0.059678152 -0.051184285
0.026737733 -0.003132102 0.12897263 0.40073404 -0.09345158 -0.106286794 -0.04475078 -0.1618994
-0.046520382 0.18065587 0.33695567 0.09109952 -0.24764062 0.25375116 -0.19329597 -0.12890993
0.18612741 -0.108081706 0.117224656 -0.014689196 -0.100893326 -0.014980828 0.08892925 0.085180916
0.034275558 0.054893196 -0.07516289 -0.07231698 -0.23096435 -0.02390045 0.06160029 -0.020349499
-0.05995899 -0.016640548 0.047505297 -0.009293418 0.5172071 -0.033497464 0.21215859 -0.04441737
-0.17774063 0.16264094 -0.17281625 0.06465832 -0.007304555 -0.053168997 0.041854303 0.032353334
00000000: 209b 293e 4d85 123e b565 ac3d 058f 893d
00000010: 97d8 713d f3cd 333d 3a81 2abc 842e 553d
00000020: f864 2f3e 608a 713c 7604 5d3d d5ca adbd
00000030: 99ae 25be fa04 79ba f1a6 103e 2866 1d3d
00000040: 402b 1b3c 2442 dd3c aaf0 063e 0668 97bc
00000050: 5bde 5b3e 703d e8bc 3cb6 d33d 6ea8 afbd
00000060: 582f fabd 8cc6 ce3e b9ee f53a 446b 7f3d
00000070: 29e9 81bd e074 72be 9a3e 9cbe 0b94 c03d
00000080: 20ac 363b 8975 5d3d 874b b03d 8d40 8bbe
00000090: 1ba9 063e 7aeb 243d 34fd 30bf 214b 89ba
000000a0: edd5 eb3d c86a 903d fe2d 6abe 36bc 25bd
000000b0: 8d71 9dbe 6343 d2bc d7e2 273e 4f01 393b
000000c0: 97ad 883b e7dd 9abd ef2d 53bd 1cbe f93d
000000d0: d6e8 b83c 1df1 f1bd 7777 ccbd 76e4 2abf
000000e0: 7c01 5cbe f668 d73d 67c8 313d 9557 48be
000000f0: 42a3 60bc 70f3 303d 255f c73d d24e 3f3e
00000100: 5fbc 82be c122 acbc f703 4d3e 8ccd 463e
00000110: 2012 2bbd 2ba7 1cbc 059b 29be 9402 e13c
00000120: d0b5 9bbd 4b1d 253c 3ab2 513c 6918 91bc
00000130: 0e4c 0e3d f178 51bd 6c13 54bc a3a9 5ebd
00000140: 4a72 dcbd b318 873d 368a 68bb 9036 9e3c
00000150: 3b77 7e3d b338 95be 72b2 073d 5aff 45bd
00000160: fb26 83be 8d88 4bbd 882a 24bc 3951 17be
00000170: bf62 023e a531 53bc 2979 15be c1e3 fb3c
00000180: 2ff2 a73c c7a0 eb3d aafb 443c b0bf 2dbd
00000190: b122 8b3e 4b40 7f3c facb 54bc 8de7 243d
000001a0: f48e 7abe 021a 623c 76b5 0bbe b5d9 6bbe
000001b0: c7a6 43bd 010f aabc 425f 5abd 2b4b ed3d
000001c0: 7b70 63be 7f0d f6bd c1ba 6abd 0721 943d
000001d0: 1dc1 b33d d276 89bd b0c0 86bd eaa6 333e
000001e0: 2ea2 c53d ee00 c9bc ad9b 903c 9e5d 9b3d
000001f0: 42eb 95be c749 1d3e cad9 7b3d 703c 48bd
00000200: 288f 173d 8cee c1bd a97a 10bc 67c1 183e
00000210: 34ca 76bb c19e b0bd daf7 3dbb 641d 06bf
00000220: 43c1 81be 620c 003d f420 713f 7b73 fcbb
00000230: bb59 2c3e 0839 ed3d 47e3 da3d 1072 1fbc
00000240: be10 773e 3b20 b13c 586d 773e 332a be3a
00000250: c127 34bd 2f22 7f3d 1471 74bd 9da6 51bd
00000260: 1709 db3c f443 4dbb 6711 043e 032d cd3e
00000270: 8b63 bfbd e4ac d9bd 984c 37bd f5c8 25be
00000280: 288c 3ebd dafd 383e 7485 ac3e 6392 ba3d
00000290: 8195 7dbe aceb 813e 61ef 45be f700 04be
000002a0: 2f98 3e3e f159 ddbd 7b13 f03d f4aa 70bc
000002b0: 29a1 cebd 2672 75bc 8a20 b63d 5573 ae3d
000002c0: 8764 0c3d b0d7 603d 00ef 99bd ed1a 94bd
000002d0: eb81 6cbe e0ca c3bc 9650 7c3d feb3 a6bc
000002e0: 8f97 75bd c251 88bc ea94 423d 6c43 18bc
000002f0: af67 043f a334 09bd 1a40 593e fdee 35bd
00000300: a401 36be 598b 263e bef6 30be 956b 843d
00000310: 0c5b efbb bcc7 59bd 6b6f 2b3d ee84 043d

encoder.fc_mean.bias f4 [2]
0.010241074 0.06741235
00000000: 2dca 273c 7c0f 8a3d

encoder.fc_var.weight f4 [2, 100]
0.00032158836 -0.0009276296 -0.00039105618 -0.00024341785 -5.578414e-05 -0.002795305 -0.008298052 -0.0020751683
0.00045336672 0.00063771836 -0.0056062215 -0.005896711 0.00027908647 0.00027844822 -0.00028696706 -0.0028525556
-0.0012144223 -0.008896447 0.00053861795 -6.654793e-05 -0.0061150948 0.0031187478 0.0028055636 -0.000104537714
0.00048967474 -0.0022485792 0.0033051304 -0.0009136773 0.007919366 -0.0061688535 0.003584985 0.0013692358
0.0017454261 -0.0011458389 -0.00430745 0.0020422623 0.0028270052 0.002445559 -0.0008905548 0.011512328
-0.002131326 -0.0037450562 0.00047151154 0.00013763286 0.00018996147 -0.001275375 -0.00016149352 -0.0018281998
0.00046219685 -0.0033839021 0.0066984645 -0.00091764814 -0.0008843113 -0.006333802 -0.00065509125 -0.00039355256
-0.0012928456 0.0022094175 -0.00038677087 0.009571322 0.0008588849 -0.00014601123 0.00078772905 -0.003392287
-0.0005517922 0.00079767744 0.0007813082 0.0001468385 0.00088941614 -0.00047940313 0.002283507 -0.0029268563
0.0039469586 -0.0014436897 -0.0008979692 -0.0017254521 -0.0028330926 -0.001577929 0.001111727 0.00073660753
0.011647264 -0.003155354 -0.0005915177 0.001158976 0.0002152505 0.0005117556 -6.874751e-05 0.0012921131
0.0057958975 -0.000572306 -0.0029721449 -0.0037281155 -0.0051179794 -0.0008060681 0.0014550615 0.0012073169
0.0008891891 -0.00018922644 -0.003593146 -0.005190611 -0.00066403643 -0.0019480438 0.0022613786 0.0011006532
0.00017781684 -0.0050681015 0.00020037347 0.0007217076 -0.00034915592 -0.0009696107 0.0016446192 -0.003731305
0.0014195268 -0.00074246846 0.0009793747 0.0016009206 -0.0007151571 -0.0011972403 0.0007476827 0.0010967788
0.00074018835 -0.002572351 0.0021466007 -0.00029388623 -0.0021963322 -0.000110132736 0.0011345844 0.0068040043
0.0130948415 -0.00031130144 -0.00017984447 -0.0018789202 0.0026826088 -0.0009776236 -0.0032962686 -6.634502e-05
-0.00011420375 -0.0019533045 0.003593353 0.0006232461 -0.00010601494 0.0019662874 -3.631706e-05 -0.0047381185
-0.0008844803 -0.0012238254 0.0006964661 0.0057092463 -0.008505218 0.0061060395 -0.00032434205 -0.0010248654
-0.00077541947 -0.017958695 0.00019339798 0.0036400168 -0.0016321591 0.0010480109 0.0022723158 0.005416863
0.0011138939 -0.0018364489 -0.0035231505 0.0012731845 -0.0007128879 0.00095311535 0.0011564288 0.0022589928
-0.0009358899 -0.0027358187 -0.0010169095 -0.0147432685 -0.0014996848 0.0018212784 -0.0014229768 0.00071921316
-0.0001309744 0.00066974084 0.0008411831 -0.0065016714 0.004023194 0.0058189225 0.0031633466 -0.0002005897
0.0032638828 0.0027906103 -0.002078211 -0.0008965002 -0.0040149493 -0.0012214696 0.0016546643 -0.0011269571
-0.0009331545 -0.0014855394 -5.3113938e-05 -0.0015350045 -0.0016010475 -0.0016647198 -0.003778604 0.0038044099
00000000: dc9a a839 2b2c 73ba ac06 cdb9 fb3d 7fb9
00000010: c4f9 69b8 7031 37bb 8df4 07bc 8cff 07bb
00000020: dab1 ed39 8e2c 273a 65b4 b7bb 3239 c1bb
00000030: 5a52 9239 b0fc 9139 1174 96b9 f1f1 3abb
00000040: 402d 9fba 67c2 11bc 0a32 0d3a a68f 8bb8
00000050: 2261 c8bb e863 4c3b 8cdd 373b 423b dbb8
00000060: 845d 003a e65c 13bb e39a 583b d883 6fba
00000070: 3ac0 013c 1824 cabb 11f2 6a3b ee77 b33a
00000080: c8c6 e43a f92f 96ba 8225 8dbb 7ad7 053b
00000090: 4745 393b ac45 203b 1f74 69ba 349e 3c3c
000000a0: b7ad 0bbb 9e6f 75bb 3535 f739 8a51 1039
000000b0: 6530 4739 7c2a a7ba 9656 29b9 35a0 efba
000000c0: 0353 f239 75c4 5dbb cb7e db3b 538e 70ba
000000d0: 20d1 67ba c88b cfbb 6eba 2bba bb55 ceb9
000000e0: b374 a9ba e0cb 103b 82c7 cab9 09d1 1c3c
000000f0: ca26 613a 971a 19b9 9a7f 4e3a 2251 5ebb
00000100: 26a6 10ba 3a1b 513a b5d0 4c3a a9f8 1939
00000110: b527 693a 6658 fbb9 e4a6 153b 80d0 3fbb
00000120: 7d55 813b 303a bdba b165 6bba 9128 e2ba
00000130: 68ab 39bb 83d2 ceba 5eb7 913a e518 413a
00000140: 2ad4 3e3c 0eca 4ebb 1510 1bba c8e8 973a
00000150: deb4 6139 5627 063a 8a2c 90b8 1f5c a93a
00000160: 83eb bd3b ce06 16ba 51c8 42bb 6653 74bb
00000170: b9b4 a7bb 514e 53ba c3b7 be3a d53e 9e3a
00000180: 7818 693a 166b 46b9 fd7a 6bbb 0016 aabb
00000190: bb12 2eba 8155 ffba a333 143b cb43 903a
000001a0: 5874 3a39 5112 a6bb 581b 5239 fa30 3d3a
000001b0: ea0e b7b9 792d 7eba 4390 d73a e988 74bb
000001c0: 6a0f ba3a 37a2 42ba 5d5e 803a fbd5 d13a
000001d0: 6179 3bba b8ec 9cba 2300 443a cac1 8f3a
000001e0: 3309 423a e394 28bb fcad 0c3b be14 9ab9
000001f0: 57f0 0fbb 10f7 e6b8 56b6 943a 20f4 de3b
00000200: bf8b 563c 2c36 a3b9 a294 3cb9 1a46 f6ba
00000210: b5ce 2f3b 9b23 80ba 3606 58bb b622 8bb8
00000220: ac80 efb8 0303 00bb 767e 6b3b 5661 233a
00000230: 5654 deb8 d4dc 003b 2553 18b8 3842 9bbb
00000240: 78dc 67ba c468 a0ba 0c93 363a a114 bb3b
00000250: 7859 0bbc 2c15 c83b 740c aab9 c754 86ba
00000260: 8545 4bba 1d1e 93bc e0ca 4a39 598d 6e3b
00000270: 2cee d5ba 695d 893a 22eb 143b f17f b13b
00000280: 1400 923a 00b5 f0ba a8e4 66bb fce0 a63a
00000290: 19e1 3aba 7dda 793a 5093 973a 9c0b 143b
000002a0: 8256 75ba 6c4b 33bb d249 85ba c08d 71bc
000002b0: 1291 c4ba f6b7 ee3a 2e83 baba 9489 3c3a
000002c0: 2c56 09b9 8c91 2f3a d882 5c3a f90b d5bb
000002d0: ffd4 833b a9ac be3b 2650 4f3b 6355 52b9
000002e0: dee6 553b ace2 363b 9832 08bb 1c03 6bba
000002f0: d68f 83bb b819 a0ba 52e1 d83a 68b6 93ba
00000300: f09e 74ba 6eb6 c2ba a8c6 5eb8 3432 c9ba
00000310: 3dda d1ba ba32 daba 75a2 77bb 6853 793b

encoder.fc_var.bias f4 [2]
-0.0013654324 -0.0015904219
00000000: 4ff8 b2ba b475 d0ba

decoder.fc1.weight f4 [100, 2]
-0.9838243 1.0136867 0.0057234634 -0.22329393 -1.0019199 -2.373355 0.07189706 2.0839865
0.18095046 0.09946275 -1.3658789 1.6235491 1.4123975 -1.541445 0.7556866 -0.82198656
1.864525 0.7622104 1.5001321 -1.5364279 -0.67477435 -1.5936573 1.4558369 0.009447607
0.12847026 -1.9539729 1.1191251 -1.6333587 0.5587837 1.7727295 0.1325531 0.06862816
-0.75015366 1.1871692 0.25083134 0.041945662 -0.856677 -1.0718243 0.5793378 0.66521865
1.4205343 -1.9362488 0.32441095 1.0751835 -1.1895672 1.2968966 -1.1448817 0.78949016
0.0721127 1.8910923 1.0831198 -1.0986702 0.30877286 -0.5144246 1.445174 1.3418797
-1.5226321 -0.43109927 -1.3815804 -1.2926661 0.20270073 -0.20707001 1.573741 -0.6875568
-0.94997203 1.1909175 0.5295666 -0.5606202 -0.6637483 -1.3363075 -1.6920552 -1.0316494
-1.2165197 -0.82591176 -1.3249972 1.3224872 -1.9765592 -0.4752364 1.4305698 0.45162994
-1.1181432 -0.75207853 1.1786702 0.830096 0.10101747 0.154173 -1.5013393 0.81820285
-1.4164522 -1.7787206 -1.3902909 -0.14820915 1.7262931 0.5293126 0.90482485 0.7532842
1.548051 -0.43725255 -0.9201157 0.19100982 -1.8946959 -1.4322355 1.7739602 -0.2780443
-0.79413664 1.747131 1.0629637 0.99135804 0.13355199 -0.034571137 -0.50218827 -1.4637424
1.6536561 0.61042213 0.22291526 0.13355042 0.117402256 0.3456263 -1.1045305 1.5026828
1.255574 -0.4956864 -2.0298648 -0.41049618 0.9493979 -0.13310651 0.9912587 1.1972115
0.9311596 1.206694 -0.9013521 0.86214924 0.18877861 1.2450825 1.0596069 0.88204175
-1.1795305 0.9047905 -0.69480723 -0.8764372 -1.0532026 0.9969237 1.2591175 0.8659449
1.6621592 -1.3888575 0.47777784 0.13882954 1.2175028 -1.3234531 0.64484173 0.57780653
1.8258004 0.27291796 -0.9832749 -0.7212538 -1.006618 -0.8299295 0.33533165 1.4498177
1.0917178 -1.7050381 0.18312098 -0.39012358 -1.7250314 -0.19428037 -1.9841022 -0.42175332
0.57328355 0.8366508 -1.0516835 -0.64466876 -1.5429872 -0.59851384 1.9921198 -0.19604217
2.430642 -0.18762574 -0.2553506 -1.5354229 -1.0025314 -1.0945154 -1.1109908 1.3552957
0.2145862 0.70454997 0.20554851 0.08863232 0.05074806 1.1201245 -1.3029892 -1.5061368
2.473654 0.15706834 1.459826 1.3246174 -0.32684454 1.2752994 1.664424 -0.792154
00000000: e9db 7bbf 7cc0 813f e48b bb3b 2aa7 64be
00000010: e93e 80bf 0ce5 17c0 c43e 933d 0960 0540
00000020: 144b 393e 20b3 cb3d 1fd5 aebf 75d0 cf3f
00000030: 71c9 b43f 124e c5bf ad74 413f b66d 52bf
00000040: c1a8 ee3f 3920 433f 5404 c03f aba9 c4bf
00000050: 03be 2cbf f6fc cbbf dd58 ba3f 23ca 1a3c
00000060: b58d 033e c91b fabf 7e3f 8f3f e611 d1bf
00000070: 730c 0f3f cde8 e23f 00bc 073e ec8c 8c3d
00000080: 120a 40bf 29f5 973f f76c 803e 37cf 2b3d
00000090: 2f4f 5bbf 8a31 89bf 7b4f 143f c54b 2a3f
000000a0: 11d4 b53f 00d7 f7bf 3119 a63e 9d9f 893f
000000b0: bd43 98bf b500 a63f 7c8b 92bf 071c 4a3f
000000c0: d3af 933d 500f f23f aba3 8a3f 3aa1 8cbf
000000d0: 7a17 9e3e 55b1 03bf 76fb b83f b7c2 ab3f
000000e0: 9ce5 c2bf 0bb9 dcbe a0d7 b0bf 1576 a5bf
000000f0: c890 4f3e 290a 54be 5870 c93f b903 30bf
00000100: 5e31 73bf fc6f 983f ad91 073f ce84 0fbf
00000110: 69eb 29bf 200c abbf 4495 d8bf 160d 84bf
00000120: ebb6 9bbf f46e 53bf 8299 a9bf 4347 a93f
00000130: e4ff fcbf 2f52 f3be e91c b73f 0a3c e73e
00000140: 511f 8fbf 3888 40bf aade 963f 2c81 543f
00000150: 3fe2 ce3d 87df 1d3e e32b c0bf be75 513f
00000160: 4e4e b5bf 1ead e3bf 0df5 b1bf 24c4 17be
00000170: 2cf7 dc3f 0881 073f 9aa2 673f 3cd7 403f
00000180: 8926 c63f 91df dfbe b48c 6bbf 1498 433e
00000190: 6585 f2bf 7e53 b7bf 2111 e33f d35b 8ebe
000001a0: 8a4c 4bbf fda1 df3f 320f 883f a4c9 7d3f
000001b0: dac1 083e 779a 0dbd 698f 00bf e95b bbbf
000001c0: 01ab d33f a044 1c3f e643 643e 71c1 083e
000001d0: 9870 f03d eef5 b03e 4161 8dbf e957 c03f
000001e0: a6b6 a03f 9cca fdbe 4ee9 01c0 8e2c d2be
000001f0: be0b 733f 134d 08be 21c3 7d3f 3a3e 993f
00000200: 7a60 6e3f f374 9a3f 03bf 66bf d0b5 5c3f
00000210: 2e4f 413e dd5e 9f3f 33a1 873f 7dcd 613f
00000220: dbfa 96bf 5aa0 673f e3de 31bf 305e 60bf
00000230: 58cf 86bf 6436 7f3f c32a a13f 91ae 5d3f
00000240: a2c1 d43f 15c6 b1bf 4c9f f43e 5529 0e3e
00000250: 22d7 9b3f e966 a9bf 5914 253f 21eb 133f
00000260: d4b3 e93f e7bb 8b3e e7b7 7bbf 17a4 38bf
00000270: dcd8 80bf 4276 54bf 97b0 ab3e a093 b93f
00000280: 69bd 8b3f b03e dabf 1184 3b3e 47be c7be
00000290: d4cd dcbf 6ff1 46be 10f7 fdbf 0df0 d7be
000002a0: b6c2 123f bf2e 563f 919d 86bf 0309 25bf
000002b0: 9b80 c5bf 3438 19bf c8fd fe3f 47bf 48be
000002c0: a38f 1b40 f620 40be 50bd 82be bd88 c4bf
000002d0: f352 80bf 1519 8cbf f234 8ebf 547a ad3f
000002e0: 7cbc 5b3e 635d 343f 4f7b 523e dd84 b53d
000002f0: 33dd 4f3d 3d60 8f3f 5ac8 a6bf 17c9 c0bf
00000300: 5950 1e40 86d6 203e 94db ba3f 108d a93f
00000310: 2b58 a7be 033d a33f d80b d53f 9bca 4abf

decoder.fc1.bias f4 [100]
0.12755743 0.7733538 -0.08382331 0.10454988 0.78114754 0.10934337 -0.08759347 0.56292266
-1.2121692 -0.33958116 0.09363 -1.1511554 0.12613 -0.31285068 -0.38448697 0.5411795
0.7878118 0.65601814 0.58535904 0.64434826 -0.11658509 0.79844123 0.07583782 -0.62137675
-0.6672848 -0.3714595 0.61802655 -0.60794985 0.46562037 0.28067315 0.6830703 0.073603235
0.061898828 0.62875193 -0.97209495 -0.47750434 0.7817546 0.17294388 0.47350883 0.51124054
0.13590282 0.7536959 0.6449741 0.22956674 -0.45815527 0.5042339 -0.20011003 -0.023277989
0.821792 0.69231397 0.09779752 -1.2137074 -0.22500241 0.0041581467 0.73774725 0.48280108
-0.2269217 0.72245616 0.39719948 0.012087702 0.6753216 0.18111436 0.627476 -0.21991146
-0.7855195 0.4512361 -0.3694645 0.7727749 0.3543809 0.65643126 0.5212015 -0.10879773
-0.46294448 0.401869 0.27008379 0.69652116 0.38105622 0.5189871 0.65029925 0.756721
0.047939263 0.43454036 -0.5332566 0.4190073 0.6624625 -1.1045575 -0.5034193 0.014067049
-0.6840976 0.36854106 0.11562 0.08788649 0.67051876 0.5604854 0.45891896 -0.021202687
-0.016677542 0.004464293 0.35330808 0.1885838
00000000: 6a9e 023e 84fa 453f 8eab abbd 3f1e d63d
00000010: 49f9 473f 6bef df3d 3564 b3bd b31b 103f
00000020: 5c28 9bbf 95dd adbe 16c1 bf3d 0f59 93bf
00000030: 3928 013e f72d a0be 7adb c4be bd8a 0a3f
00000040: 09ae 493f cef0 273f 17da 153f 02f4 243f
00000050: 2ac4 eebd a566 4c3f dc50 9b3d 8c12 1fbf
00000060: 2dd3 2abf f12f bebe fd36 1e3f 9aa2 1bbf
00000070: cb65 ee3e 64b4 8f3e b2dd 2e3f 4bbd 963d
00000080: a089 7d3d e3f5 203f 37db 78bf 737b f4be
00000090: 1221 483f 3318 313e c06f f23e a9e0 023f
000000a0: 1c2a 0b3e 37f2 403f 061d 253f 8b13 6b3e
000000b0: 5493 eabe 7915 013f a5e9 4cbe 7bb1 bebc
000000c0: f660 523f 7d3b 313f 114a c83d c45a 9bbf
000000d0: 0867 66be 1041 883b 01dd 3c3f b431 f73e
000000e0: 2a5e 68be e3f2 383f bb5d cb3e 7f0b 463c
000000f0: e0e1 2c3f 0b76 393e 44a2 203f 7830 61be
00000100: ce17 49bf 6b08 e73e 732a bdbe 93d4 453f
00000110: 6a71 b53e e10b 283f 766d 053f 58d1 debd
00000120: 0f07 edbe c6c1 cd3e 6c48 8a3e 364f 323f
00000130: cd19 c33e 57dc 043f 037a 263f 78b8 413f
00000140: f65b 443d 137c de3e 8183 08bf 2088 d63e
00000150: 2497 293f 2462 8dbf 16e0 00bf 7b79 663c
00000160: 0521 2fbf 6ab1 bc3e 2eca ec3d d5fd b33d
00000170: 1ea7 2b3f f97b 0f3f 6df7 ea3e 42b1 adbc
00000180: 579f 88bc 3449 923b cce4 b43e 1d1c 413e

decoder.fc2.weight f4 [100, 100]
0.19605987 0.20516439 -1.6734282 -0.3354625 0.061916895 0.23827071 0.25764084 0.038002346
0.46458483 -0.27678514 -0.5982321 0.8655505 -0.70332164 -0.69983506 -0.25907606 0.07702096
0.22631252 0.1271665 0.05187941 0.050613906 0.13152122 0.07258235 0.3435804 -1.210746
0.042511284 -0.23352404 0.016603384 -0.19523624 0.07312895 0.16526602 0.1072782 -0.0034087093
0.30561116 0.19463716 -0.40115967 -1.7262626 0.4654591 0.2188198 0.08250585 -0.25891376
0.1605746 -0.16512841 0.14808159 0.18209492 -3.293358 0.11898901 0.05607303 0.0759956
-0.025277758 0.29185498 -0.22909749 0.9890147 0.022018261 -0.056364838 0.17893186 0.18471923
0.144527 0.10434127 0.11638116 0.22876771 0.004699651 0.13314575 0.10173618 -0.2869584
-0.3495124 0.15523152 -0.14956073 0.027140692 0.10107932 0.31830144 0.29593593 -0.0488228
0.018762102 0.0324808 0.063258864 0.033437647 -0.20174962 0.25258633 0.21064481 -0.03341874
0.3106271 0.0757099 -1.2467625 0.018116185 0.105061874 0.23434675 -1.2036512 -0.047438424
0.28806803 -0.3782076 0.10292215 0.2336997 0.081611305 0.109594695 0.045321934 -0.014928673
0.0076800887 0.0049037184 -0.047627795 -0.2653626 0.012390186 0.094413996 -0.25059876 0.009891318
0.13575165 -0.026982542 0.065377064 -0.11098254 1.1080887 -0.33639374 -0.14961809 0.62064236
-0.01639101 -0.4822122 -0.22792539 0.11172362 -0.12783435 0.041862484 0.084409475 0.05284053
-0.06886596 0.1253977 -0.07425075 -1.2357769 -0.55364496 -0.06215946 -0.014873105 0.2042396
0.23325425 -0.0071061766 0.04076194 -0.037037637 -0.17758608 -0.0025904365 -0.03098715 -0.36769706
0.18298776 -0.11150648 0.16918665 0.119599044 0.33936334 0.21743326 0.053873297 -0.079988316
-0.21238662 0.39278913 0.41693103 -0.005025532 -0.018337557 -0.026108287 -0.050795063 -0.61349195
-0.55551493 -0.069675945 0.09520681 0.06923985 0.35329857 0.1088261 0.10018318 -0.36814627
-0.045844592 0.2140115 0.15036552 -0.16146988 -0.11083904 0.12906346 -1.2048055 0.16334547
0.07102038 0.070650205 0.025070377 0.24791364 -0.3213137 0.1160876 -0.34320503 0.14759552
0.26451978 0.10104916 0.15109284 0.13342452 -0.19359937 0.106347896 0.008517537 0.31049928
0.19138773 -0.15633196 -0.23123607 0.17878343 1.2454327 -0.2628589 -0.11922014 -0.12166093
0.068548925 0.033276103 -0.055252653 -0.2581405 0.09504067 -0.2188046 -0.06600673 -0.032507904
0.12693837 -0.16695124 0.26361236 -0.0255424 -0.3138345 0.050676882 0.20505981 0.22010845
-0.1441035 0.49093017 0.2726946 0.60058254 0.19223037 0.37033182 -0.023369487 -0.2108285
0.12646051 -0.10023354 -0.17023353 -0.6893594 0.013296495 -1.1866546 0.076536 0.47104836
0.060175363 0.5723854 -0.15575336 -1.5006741 -0.10719521 -0.16363686 -0.0956241 0.05895703
-0.049986817 0.07594683 -0.15393512 -0.46093205 -0.24523246 0.093537726 -0.32010144 -0.14731924
0.054192703 -0.370639 -0.32628313 0.012563899 -0.030616544 -0.3433141 -0.22725384 -0.0092420075
0.09716125 -0.54286844 -0.0058887834 0.3868613 -0.051944014 -0.29475075 -0.17748171 0.06845239
00000000: ebc3 483e 9d16 523e e532 d6bf bec1 abbe
00000010: 929c 7d3d 3dfd 733e 80e9 833e 59a8 1b3d
00000020: 10de ed3e c8b6 8dbe bd25 19bf b894 5d3f
00000030: e30c 34bf 6428 33bf 9ea5 84be 2abd 9d3d
00000040: 78be 673e ef37 023e 817f 543d 8750 4f3d
00000050: 80ad 063e 0ea6 943d c5e9 af3e baf9 9abf
00000060: 5020 2e3d ed20 6fbe d203 883c 02ec 47be
00000070: a2c4 953d 7f3b 293e acb4 db3d a764 5fbb
00000080: 1179 9c3e f74e 473e cd64 cdbe 2cf6 dcbf
00000090: a850 ee3e 4c12 603e d4f8 a83d 5890 84be
000000a0: ab6d 243e 6c17 29be b3a2 173e 1777 3a3e
000000b0: 61c6 52c0 83b0 f33d d5ac 653d 95a3 9b3d
000000c0: 4d13 cfbc 046e 953e 8898 6abe 1130 7d3f
000000d0: a45f b43c d1de 66bd ea39 373e 0a27 3d3e
000000e0: e3fe 133e e0b0 d53d 3f59 ee3d 1542 6a3e
000000f0: 88ff 993b 5c57 083e 0f5b d03d 36ec 92be
00000100: 4af3 b2be 03f5 1e3e 7326 19be 2856 de3c
00000110: ad02 cf3d 68f8 a23e ea84 973e 6bfa 47bd
00000120: fbb2 993c 960a 053d dd8d 813d eaf5 083d
00000130: 7497 4ebe ff52 813e 46b3 573e 17e2 08bd
00000140: 840a 9f3e cb0d 9b3d ea95 9fbf 6568 943c
00000150: ae2a d73d 98f8 6f3e 3e11 9abf cb4e 42bd
00000160: a77d 933e 6da4 c1be d9c8 d23d f94e 6f3e
00000170: d423 a73d 2f73 e03d 7ea3 393d 6597 74bc
00000180: 41a9 fb3b 5faf a03b 5d15 43bd 9bdd 87be
00000190: 3500 4b3c 205c c13d 7b4e 80be 320f 223c
000001a0: 7b02 0b3e 7e0a ddbc 69e4 853d d04a e3bd
000001b0: dad5 8d3f cd3b acbe 7c35 19be 6be2 1e3f
000001c0: 7046 86bc 84e4 f6be 4665 69be 5acf e43d
000001d0: 02e7 02be ff77 2b3d e0de ac3d 506f 583d
000001e0: 9909 8dbd 4168 003e c710 98bd f02d 9ebf
000001f0: adbb 0dbf eb9a 7ebd 53ae 73bc 3024 513e
00000200: 34da 6e3e eeda e8bb fef5 263d c7b4 17bd
00000210: 20d9 35be 50c4 29bb c3d8 fdbc ca42 bcbe
00000220: 2561 3b3e 825d e4bd 443f 2d3e 58f0 f43d
00000230: 08c1 ad3e d3a6 5e3e 3faa 5c3d ead0 a3bd
00000240: e17b 59be a81b c93e fc77 d53e 38ad a4bb
00000250: a538 96bc 0ce1 d5bc 7c0e 50bd cf0d 1dbf
00000260: 3a36 0ebf 43b2 8ebd cafb c23d 9fcd 8d3d
00000270: 8de3 b43e 38e0 de3d d72c cd3d ab7d bcbe
00000280: 8ac7 3bbd d525 5b3e 6bf9 193e 5c58 25be
00000290: 94ff e2bd 3629 043e 1137 9abf 0944 273e
000002a0: 2273 913d 0eb1 903d 6460 cd3c 13dd 7d3e
000002b0: 3b83 a4be 56bf ed3d 92b8 afbe 4823 173e
000002c0: 236f 873e ddf2 ce3d 15b8 1a3e 70a0 083e
000002d0: ea3e 46be edcc d93d 248d 0b3c c3f9 9e3e
000002e0: 25fb 433e 7c15 20be 26c9 6cbe 0113 373e
000002f0: 576a 9f3f 7195 86be b029 f4bd 5e29 f9bd
00000300: 6163 8c3d 864c 083d 9b50 62bd fe2a 84be
00000310: afa4 c23d 500e 60be 892e 87bd 0227 05bd
00000320: 22fc 013e 44f5 2abe 33f8 863e 4c3e d1bc
00000330: eaae a0be 9092 4f3d 33fb 513e 1c64 613e
00000340: de8f 13be 335b fb3e a09e 8b3e c7bf 193f
00000350: 0ad8 443e 229c bd3e 5e71 bfbc 6de3 57be
00000360: dd7e 013e 3e47 cdbd b351 2ebe dc79 30bf
00000370: 8bd9 593c 4ce4 97bf e8be 9c3d 402d f13e
00000380: 717a 763d d987 123f cf7d 1fbe 1716 c0bf
00000390: 2a89 dbbd 6c90 27be 91d6 c3bd ed7c 713d
000003a0: fabe 4cbd 038a 9b3d 2ba1 1dbe 49ff ebbe
000003b0: 381e 7bbe b590 bf3d 56e4 a3be dbda 16be
000003c0: 2bf9 5d3d 65c4 bdbe 950e a7be d0d8 4d3c
000003d0: 8ccf fabc dec6 afbe 3bb5 68be ca6b 17bc
000003e0: 7afc c63d 6df9 0abf b2f6 c0bb af12 c63e
000003f0: 3fc3 54bd 92e9 96be c4bd 35be c430 8c3d

decoder.fc2.bias f4 [100]
0.08224491 0.15076464 -0.30126303 0.19884852 -0.08867143 0.0285034 0.14416932 0.08707863
0.03419772 0.024765389 0.103910506 0.16489367 0.122924335 0.004638391 -0.03132553 -0.015775712
0.15315485 0.2528087 0.1785522 0.18218882 -0.049993325 0.068882994 0.042266488 0.022456687
0.1679324 -0.01787472 0.02150951 -0.0453404 -0.15515287 0.0657756 0.040475525 0.24994422
0.10729766 0.07329025 -0.20350921 0.10857823 -0.029519016 0.081193775 0.119327016 -0.097050875
-0.06475921 0.003123615 0.0991831 0.18508513 0.2215896 0.038976748 0.11322327 -0.035002552
0.094522595 0.13811496 -0.0021620807 0.0860603 0.048395466 0.0790513 -0.045167193 0.0014801873
0.019004466 -0.110628776 0.04210059 0.17390268 0.24173127 -0.035185844 0.24510895 0.07057466
0.25138012 -0.017410424 0.13100931 0.19684654 -0.06635965 0.02793254 0.0060276864 0.05378358
0.07878787 -0.0010477545 0.16093564 0.19198947 -0.37542364 0.026633536 -0.2556429 0.053904805
0.18666743 0.15510236 0.26019645 0.08148673 -0.0204767 -0.14506958 -0.17412907 0.053654566
0.023287797 -0.084632 0.12827025 0.2587807 0.2048229 0.18902911 -0.14216673 0.30410692
0.21471319 0.10643285 0.08439932 -0.2769916
00000000: 0570 a83d 0c62 1a3e 263f 9abe f29e 4b3e
00000010: 5e99 b5bd f67f e93c 1fa1 133e 4856 b23d
00000020: e912 0c3d c9e0 ca3c 08cf d43d e3d9 283e
00000030: c1bf fb3d a5fd 973b 334f 00bd 113c 81bc
00000040: a0d4 1c3e 2470 813e 63d6 363e b58f 3a3e
00000050: cdc5 4cbd 8712 8d3d a01f 2d3d 16f7 b73c
00000060: 79f6 2b3e 016e 92bc b634 b03c dbb6 39bd
00000070: 65e0 1ebe 5cb5 863d aac9 253d 61f1 7f3e
00000080: e0be db3d 3319 963d b864 50be 435e de3d
00000090: ddd1 f1bc ec48 a63d b961 f43d 9cc2 c6bd
000000a0: 7aa0 84bd 90b5 4c3b 8220 cb3d f586 3d3e
000000b0: 62e8 623e 15a6 1f3d 9ae1 e73d d65e 0fbd
000000c0: 1095 c13d 026e 0d3e b2b1 0dbb 6240 b03d
000000d0: 533a 463d a6e5 a13d 3c01 39bd d802 c23a
000000e0: 41af 9b3c 5791 e2bd ab71 2c3d 8b13 323e
000000f0: 6788 773e 081f 10bd d7fd 7a3e 7389 903d
00000100: e5b4 803e 4ea0 8ebc 4e27 063e 2492 493e
00000110: 91e7 87bd c8d2 e43c e683 c53b 2c4c 5c3d
00000120: 895b a13d cf54 89ba 50cc 243e e398 443e
00000130: 8737 c0be 932e da3c a0e3 82be 49cb 5c3d
00000140: bf25 3f3e 27d3 1e3e 7838 853e 84e2 a63d
00000150: c1be a7bc 1f8d 14be e44e 32be e4c4 5b3d
00000160: 0dc6 be3c 8b53 adbd 4759 033e e77e 843e
00000170: 18bd 513e d990 413e 2894 11be e7b3 9b3e
00000180: c6dd 5b3e 77f9 d93d 8dd9 ac3d d8d1 8dbe

decoder.fc3.weight f4 [784, 100]
-0.10950038 0.027624149 0.08616196 -0.13209015 0.08201514 -0.055981062 -0.09409287 -0.1798844
-0.08216173 -0.10390808 -0.12745765 -0.0566562 -0.055056322 -0.04057933 -0.0915234 -0.06715887
-0.090370364 -0.10520004 -0.057926428 -0.029482147 0.10230606 -0.12563628 -0.084172376 -0.62486935
-0.050461274 -0.027585251 0.016244216 -0.16002913 0.032926694 -0.070753075 -0.017040798 -0.14458182
-0.37928885 -0.11128724 -0.15072212 -0.12654701 0.14917214 -0.050209977 -0.47986943 0.13512081
-0.09796701 0.04743576 -0.10999263 -0.69701284 -0.4592393 -0.09771356 -0.061110917 -0.14419945
-0.70753163 -0.13428316 0.031285055 -0.073802926 -0.52797544 0.118686445 -0.035745792 -0.10323622
-0.13237919 -0.09107411 -0.11587713 -0.08956493 0.042207804 -0.13873227 -0.14472775 -0.09594398
-1.0378572 0.040733796 -0.14830363 -0.3846574 -0.09869789 -0.11551474 -0.32035017 0.030874876
-0.03568959 -0.093915656 -0.051895265 -0.11662058 0.11657988 -0.016963132 0.050025817 -0.14094284
-0.15145196 -0.011470249 0.038496997 -0.027740808 0.03150538 -0.07180494 -0.049369756 -0.124758594
0.014279141 0.07792712 0.04479137 -0.1064669 -0.346903 -0.16508758 0.09407686 -0.41841662
-0.97909254 -0.105325565 -0.21928906 0.16614299 0.028888505 0.031960562 -0.002367821 -0.13721031
0.053834096 0.0023826119 -0.0392645 -0.024888841 -0.09318452 -0.12643069 -0.033203 -0.068584286
0.008003688 -0.06583737 0.013734069 -0.169884 -0.09324723 -0.016949493 0.019277258 -0.13790901
0.13162206 -0.1185933 -0.064103685 -0.70819783 -0.15542264 -0.113572024 -0.16344707 -0.15027277
-0.07916384 -0.07427851 -0.024145635 -0.14426401 -0.27694547 -0.11447318 -0.08899117 0.036355585
0.10118999 -0.070104346 -0.54933995 0.122464314 -0.15694344 -0.085757844 -0.030945567 -0.786467
-0.43693694 0.013385482 0.029953172 0.02503239 -0.8640176 -0.116387874 0.0029377823 0.00012629891
-0.4680863 0.0317802 -0.026569758 -0.09324737 -0.09044056 -0.07471575 -0.04763361 -0.034444973
-0.07865818 -0.070733346 -0.06290213 -0.07714994 -0.8302151 -0.013807006 -0.14068642 -0.42083687
-0.013328176 -0.07668622 -0.4095342 -0.025401985 -0.01424791 -0.093136765 -0.12066224 -0.07520856
0.042232968 -0.096369624 -0.02238967 -0.028459199 -0.09388969 -0.078228384 -0.093346596 -0.08016306
0.0905333 -0.11290888 0.0015392471 -0.092008404 -0.17012228 0.029982084 -0.063460395 -0.100325495
-0.49701837 -0.010319679 -0.031964887 -0.40943033 -0.8672244 -0.11774324 -0.20950113 0.15001184
-0.14908817 -0.11891875 0.14919348 -0.10130349 0.097239666 -0.068753496 0.013135288 -0.009149457
0.0010658446 -0.029952098 0.014061808 -0.045245998 0.15652099 -0.09611209 -0.08481974 -0.030259801
-0.069976084 -0.004971829 0.029175863 -0.15397194 0.0012407905 -0.08789109 -0.092028745 -0.7239173
-0.07153974 0.026329752 -0.040428687 -0.118203774 -0.019435756 -0.14819701 -0.06913818 -0.07225135
-0.16680646 -0.09147558 -0.14870943 -0.14321996 0.13374068 -0.07446931 -0.41191876 0.11492196
0.014447023 -0.038698565 -0.060743228 -0.8825745 -0.4216355 0.025357315 -0.066968255 -0.048500735
-0.94451016 -0.17318062 0.0074957986 -0.04394563 -0.51971126 0.17650124 -0.118071035 0.018795274
00000000: bc41 e0bd 0a4c e23c af75 b03d a442 07be
00000010: 8ef7 a73d 664c 65bd c3b3 c0bd 9e33 38be
00000020: 6944 a8bd c2cd d4bd 4284 02be 5510 68bd
00000030: bd82 61bd 8336 26bd 9f70 bbbd 978a 89bd
00000040: 1914 b9bd 1e73 d7bd 4344 6dbd 8b84 f1bc
00000050: d785 d13d cca6 00be 9162 acbd 70f7 1fbf
00000060: 7bb0 4ebd 77fa e1bc 9712 853c adde 23be
00000070: 24de 063d fde6 90bd 2599 8bbc 420d 14be
00000080: 2632 c2be 91ea e3bd e656 1abe 8a95 01be
00000090: 95c0 183e faa8 4dbd 72b1 f5be 1c5d 0a3e
000000a0: eea2 c8bd 004c 423d d143 e1bd 6f6f 32bf
000000b0: 6a21 ebbe 0c1e c8bd 714f 7abd 05a9 13be
000000c0: cb20 35bf 8681 09be c224 003d fd25 97bd
000000d0: 6629 07bf e111 f33d 2e6a 12bd 836d d3bd
000000e0: 698e 07be 1085 babd fd50 edbd d16d b7bd
000000f0: 17e2 2c3d d50f 0ebe 8333 14be 477e c4bd
00000100: 81d8 84bf 7bd8 263d e8dc 17be d1f1 c4be
00000110: 1f22 cabd fe92 ecbd f004 a4be 4fed fc3c
00000120: 3f2f 12bd da56 c0bd 2190 54bd c5d6 eebd
00000130: 6fc1 ee3d 44f6 8abc dfe7 4c3d 5253 10be
00000140: 3916 1bbe b6ed 3bbc 07af 1d3d b140 e3bc
00000150: c90b 013d 780e 93bd f137 4abd 6f81 ffbd
00000160: 0ff3 693c 4198 9f3d 2877 373d 510b dabd
00000170: 459d b1be b80c 29be 5eab c03d b43a d6be
00000180: cfa5 7abf eeb4 d7bd 508d 60be 6321 2a3e
00000190: 96a7 ec3c 14e9 023d 722d 1bbb dc80 0cbe
000001a0: 2481 5c3d 9825 1c3b d0d3 20bd afe3 cbbc
000001b0: 87d7 bebd 0c77 01be deff 07bd eb75 8cbd
000001c0: e721 033c bed5 86bd dc04 613c 12f6 2dbe
000001d0: 67f8 bebd aad9 8abc 57eb 9d3c 0538 0dbe
000001e0: efc7 063e 0be1 f2bd cb48 83bd 744c 35bf
000001f0: 1d27 1fbe 7398 e8bd ab5e 27be 1be1 19be
00000200: a720 a2bd 551f 98bd 11cd c5bc f2b9 13be
00000210: cccb 8dbe ea70 eabd 0141 b6bd 98e9 143d
00000220: b33c cf3d de92 8fbd 8ba1 0cbf 92ce fa3d
00000230: c8b5 20be cfa1 afbd 8f81 fdbc e755 49bf
00000240: 33b6 dfbe c84e 5b3c 5b60 f53c ba10 cd3c
00000250: 4230 5dbf c45c eebd cf87 403b 1b6f 0439
00000260: 02a9 efbe f42b 023d d2a8 d9bc 7af8 bebd
00000270: e638 b9bd 9204 99bd 761b 43bd 2c16 0dbd
00000280: 8a17 a1bd a5dc 90bd d5d2 80bd ca00 9ebd
00000290: fa88 54bf c836 62bc 1a10 10be ee77 d7be
000002a0: 6c5e 5abc aa0d 9dbd 77ae d1be d317 d0bc
000002b0: 1170 69bc 7dbe bebd c41d f7bd f206 9abd
000002c0: 7afc 2c3d 705d c5bd 8b6a b7bc 4423 e9bc
000002d0: 3d49 c0bd 3436 a0bd 802c bfbd 882c a4bd
000002e0: 8669 b93d c53c e7bd 90c0 c93a e76e bcbd
000002f0: 8934 2ebe fd9c f53c 86f7 81bd 7477 cdbd
00000300: 3179 febe df13 29bc 9ded 02bd daa0 d1be
00000310: 6b02 5ebf 5e23 f1bd 7787 56be b49c 193e
00000320: 92aa 18be ac8b f3bd 2dc6 183e 3478 cfbd
00000330: 9725 c73d a2ce 8cbd 6435 573c 9be7 15bc
00000340: cfb3 8b3a 1a5e f5bc 7f63 663c de53 39bd
00000350: 0a47 203e 6ad6 c4bd f9b5 adbd 67e3 f7bc
00000360: 9f4f 8fbd b9ea a2bb 3802 ef3c d2aa 1dbe
00000370: 05a2 a23a 3e00 b4bd 9179 bcbd a552 39bf
00000380: 6d83 92bd 7eb1 d73c 8d98 25bd d214 f2bd
00000390: bc37 9fbc f5c0 17be 5198 8dbd 84f8 93bd
000003a0: 50cf 2abe 8d57 bbbd 4947 18be 41a8 12be
000003b0: 51f3 083e 5e83 98bd 04e7 d2be 345c eb3d
000003c0: 35b3 6c3c 6382 1ebd e4cd 78bd 67f0 61bf
000003d0: 9ce0 d7be 25ba cf3c a726 89bd b5a8 46bd
000003e0: 6bcb 71bf 4356 31be 519f f53b 5500 34bd
000003f0: cc0b 05bf bebc 343e 3acf f1bd 8cf8 993c
