toSubmit/VAE/vae_mnist_weights_16.pth (torch, 736470 bytes, 14 tensors)

encoder.fc1.weight f4 [100, 784]
0.022480275 -0.0051358556 -0.007991574 0.019933978 -0.017461607 -0.020587496 0.024958195 0.0043042945
-0.008265104 0.0091487 -0.02300028 0.02551474 -0.11319133 -0.07593651 -0.10364781 -0.121523
-0.024432797 0.0012746368 -0.0042628436 -0.011015522 -0.01758954 0.02686989 0.021507384 -0.032821365
-0.008953376 0.03133905 0.01751243 0.021695781 -0.026632143 0.0014656144 -0.015884936 -0.031676374
0.752383 0.53228545 -0.32595497 -0.07042164 -0.03619909 0.027085742 -0.27773455 -0.13626218
-0.13567315 -0.15588914 -0.11249464 0.045020174 0.01821926 -0.0073607364 -0.05991197 0.17667508
0.063338265 -0.06701885 0.25190148 -0.122752845 -0.015869176 0.024201322 -0.018879674 -0.018007884
-0.014797361 0.0032523104 0.08016092 -0.9483785 0.20643307 -0.3592924 0.14676702 0.15100822
0.1805044 0.028762527 0.06727062 0.04004958 0.026264891 0.016753083 0.03343825 0.014514307
-0.06550684 -0.06442215 -0.09028588 -0.029643936 0.047519907 0.061067484 0.16246635 0.07234497
-0.20500094 0.055410996 0.020922849 0.005569177 0.013540758 -0.009597834 0.2663271 -0.14208233
0.1053803 0.1300498 -0.07170415 -0.030352093 0.0144222975 0.025597833 0.040464528 -0.07365101
-0.02989357 -0.007250013 -0.08546335 -0.010823176 -0.0508955 -0.062140603 -0.020308891 0.021278782
-0.03592407 0.062685475 -0.006522549 0.03046121 0.04532922 -0.15261054 -0.037544835 0.017871955
-0.0034873488 0.8250091 0.43947136 0.20702487 -0.02475254 -0.02159233 0.06882975 0.011621475
-0.020283682 0.028119033 -0.07286878 -0.004324779 -0.046398353 -0.017855227 -0.033209484 -0.038994916
0.012685178 -0.015861344 -0.022869643 -0.0021790813 0.014591799 0.06828179 0.008962822 0.023347799
-0.015203766 0.019764362 -0.045206856 -0.22223657 -0.030543657 -0.011626104 0.2360369 -0.07456665
-0.047035433 0.03765402 0.0020089555 0.030146698 0.06027825 0.0026998736 0.014922303 -0.010008941
-0.03644536 -0.0041730423 -0.0009999359 -0.0026696327 0.02581099 0.014730185 0.008521494 0.052665323
0.062114425 0.072990924 0.064181075 0.051882323 -0.017954113 0.035561815 -0.13296144 0.15611136
-0.02673787 -0.3159352 0.17580584 0.0466422 0.0823632 -0.009331226 0.033580747 0.014201663
-0.01935378 0.024708245 -0.017845433 -0.051917475 0.018801397 -0.003392759 0.038012054 0.014692059
0.0237393 0.021551425 0.042590745 0.030884964 0.045476273 0.03871832 0.0060955994 0.040850807
0.046032555 -0.08605805 0.10298982 -0.11696115 0.3558858 -0.009105833 0.0596923 -0.05335105
0.077453285 0.06280491 0.06997296 0.009946158 0.019046878 -0.0065891608 -0.021509908 -0.012951713
0.021416565 0.050869267 0.046266306 0.030084068 0.006121923 0.013713915 0.007714864 0.014518309
0.016824674 0.032829907 0.017372036 0.004729939 -0.019701233 0.022437487 0.2734388 0.10713276
0.18786934 -0.20619373 0.040650103 0.08100946 0.045020577 0.028779412 0.07470391 0.014284873
0.014938487 -0.029177556 -0.054327272 -0.004367228 0.0021302814 0.03149778 0.025516784 -0.0024779004
0.017852714 0.011727125 0.018835187 0.015599182 0.0014482257 -0.01206733 -0.012226242 0.05083996
-0.050234757 -0.07176322 -0.081483714 -0.07471514 0.26343212 -0.12568043 0.03710924 0.12036943
00000000: 8e28 b83c ae4a a8bb 17ef 02bc 954c a33c
00000010: a50b 8fbc 1ca7 a8bc 2175 cc3c 0a0b 8d3b
00000020: 5c6a 07bc 6ee4 153c 156b bcbc 4a04 d13c
00000030: dbd0 e7bd 9a84 9bbd 4e45 d4bd 0de1 f8bd
00000040: 4a27 c8bc b711 a73a 53af 8bbb 737a 34bc
00000050: f017 90bc 3e1e dc3c 4130 b03c b26f 06bd
00000060: 2eb1 12bc 605d 003d 3a76 8f3c 5abb b13c
00000070: a72b dabc dc19 c03a 2021 82bc 16bf 01bd
00000080: 2c9c 403f dc43 083f 92e3 a6be 3939 90bd
00000090: 7f45 14bd ebe2 dd3c 3933 8ebe 5088 0bbe
000000a0: e7ed 0abe 67a1 1fbe 9763 e6bd 1367 383d
000000b0: 8f40 953c 5532 f1bb 4166 75bd 50ea 343e
000000c0: 7eb7 813d 2e41 89bd 3bf9 803e d865 fbbd
000000d0: 1300 82bc da41 c63c 8ca9 9abc 4585 93bc
000000e0: a170 72bc b724 553b 692b a43d efc8 72bf
000000f0: 3163 533e 2cf5 b7be 184a 163e e6a1 1a3e
00000100: 25d6 383e 649f eb3c 2ec5 893d 070b 243d
00000110: 7829 d73c c33d 893c 8cf6 083d 6acd 6d3c
00000120: 7328 86bd c3ef 83bd cee7 b8bd d7d7 f2bc
00000130: 3ca4 423d e621 7a3d 945d 263e 9a29 943d
00000140: c4eb 51be a4f6 623d 6566 ab3c a57d b63b
00000150: 0eda 5d3c 3c40 1dbc 075c 883e 087e 11be
00000160: a0d1 d73d c62b 053e a0d9 92bd f4a4 f8bc
00000170: 804b 6c3c 8cb2 d13c 22be 253d 57d6 96bd
00000180: 5ce3 f4bc 8491 edbb 6907 afbd b153 31bc
00000190: cd77 50bd 2587 7ebd d55e a6bc d750 ae3c
000001a0: 1e25 13bd 3e61 803d 1bbb d5bb ca89 f93c
000001b0: 22ab 393d f045 1cbe 9dc8 19bd 3568 923c
000001c0: 018c 64bb cc33 533f 6402 e13e 54fe 533e
000001d0: d7c5 cabc 66e2 b0bc 9df6 8c3d 0068 3e3c
000001e0: f729 a6bc e359 e63c 3a3c 95bd e0b6 8dbb
000001f0: 330c 3ebd 2045 92bc ab06 08bd 22b9 1fbd
00000200: 7ed5 4f3c a6ef 81bc 1e59 bbbc ebce 0ebb
00000210: 7112 6f3c 53d7 8b3d cdd8 123c e243 bf3c
00000220: 3719 79bc dfe8 a13c d32a 39bd fc91 63be
00000230: b136 fabc 6a7b 3ebc a8b3 713e 66b6 98bd
00000240: 3aa8 40bd 1a3b 1a3d aea8 033b 35f6 f63c
00000250: 54e6 763d 5df0 303b ad7c 743c 8bfc 23bc
00000260: bb47 15bd 04be 88bb 4810 83ba 01f5 2ebb
00000270: 9271 d33c e056 713c bd9d 0b3c 98b7 573d
00000280: b26b 7e3d 447c 953d 5e71 833d 8f82 543d
00000290: 8114 93bc 44a9 113d 0b27 08be a8db 1f3e
000002a0: 6109 dbbc 42c2 a1be 7206 343e e40b 3f3d
000002b0: 0aae a83d 00e2 18bc f78b 093d 18ae 683c
000002c0: d28b 9ebc f268 ca3c 9630 92bc 6ba7 54bd
000002d0: 6305 9a3c 0d59 5ebb 87b2 1b3d f6b6 703c
000002e0: ec78 c23c 9d8c b03c a273 2e3d 7702 fd3c
000002f0: 5445 3a3d 1a97 1e3d 98bd c73b 2d53 273d
00000300: a28c 3c3d 343f b0bd 54ec d23d 5489 efbd
00000310: aa36 b63e a230 15bc ea7f 743d a186 5abd
00000320: d49f 9e3d dc9f 803d fc4d 8f3d 36f5 223c
00000330: 3308 9c3c e3e9 d7bb 8c35 b0bc 6c33 54bc
00000340: cb71 af3c 4b5c 503d bd81 3d3d dd72 f63c
00000350: 6a9a c83b 54b0 603c f8cc fc3b 34de 6d3c
00000360: e6d3 893c a778 063d cd4f 8e3c 9bfd 9a3b
00000370: 7b64 a1bc d2ce b73c 2c00 8c3e 6c68 db3d
00000380: d260 403e 7324 53be b980 263d 4ae8 a53d
00000390: 7f67 383d cdc2 eb3c 5dfe 983d 1a0b 6a3c
000003a0: 8ec0 743c c505 efbc 4686 5ebd f71a 8fbb
000003b0: 319c 0b3b d103 013d 9308 d13c 4564 22bb
000003c0: db3f 923c 2123 403c 404c 9a3c b693 7f3c
000003d0: 64d2 bd3a 0db6 45bc 9350 48bc 903d 503d
000003e0: f6c2 4dbd 98f8 92bd efe0 a6bd 4004 99bd
000003f0: 93e0 863e 5fb2 00be dcff 173d 3f84 f63d

encoder.fc1.bias f4 [100]
0.09682879 0.554842 0.4284319 0.44008043 0.91185635 0.40951338 -0.19018303 0.37974662
0.64760876 0.1906058 0.32333177 0.5242695 0.060182534 0.8454599 0.0782441 0.08317632
-0.10803574 -0.044924214 0.2003293 -0.062175736 0.19684775 0.30974108 0.23879035 0.56636095
0.07038071 0.23420167 0.18072495 0.46583295 0.073008865 -0.0359817 0.3853554 0.1353918
0.029471066 0.044524617 0.14646295 0.22542831 0.42206806 -0.06498219 0.2792137 0.11026146
0.110674225 0.37575138 0.047161102 0.39896363 0.53771377 0.23033261 -0.032180145 0.46344084
0.59332466 0.27935323 0.40257308 0.026114816 0.2723137 0.6282804 -0.026937908 0.67994475
0.11952349 0.40120664 0.044317547 0.42417264 0.11645129 0.3744042 0.62326294 0.35364258
0.45369884 0.03641742 0.41996923 -0.209171 0.30475232 0.035715204 0.11921971 -0.020433148
0.040256515 -0.12361664 0.30249572 0.018320424 0.21128376 0.715233 0.28639898 0.26283345
0.25501066 0.33726805 0.32080516 0.59773415 -0.007442215 0.07006093 0.09972184 0.25904498
0.5422838 0.54486793 0.077508286 0.27188048 0.81331605 0.3602805 0.40428868 0.01963914
0.30468702 0.20940739 0.6727907 0.5861621
00000000: 2c4e c63d 200a 0e3f 6d5b db3e 3952 e13e
00000010: 6b6f 693f bdab d13e 57bf 42be 266e c23e
00000020: b0c9 253f 2b2e 433e be8b a53e 8736 063f
00000030: f681 763d 0f70 583f 713e a03d 5958 aa3d
00000040: d841 ddbd 7402 38bd 2023 4d3e fcab 7ebd
00000050: 7592 493e 6296 9e3e 7585 743e 08fd 103f
00000060: c323 903d 90d2 6f3e f60f 393e a881 ee3e
00000070: ac85 953d 8c61 13bd 4e4d c53e 26a4 0a3e
00000080: 4e6d f13c 725f 363d 62fa 153e aed6 663e
00000090: 4e19 d83e 6215 85bd 19f5 8e3e c3d0 e13d
000000a0: 2ba9 e23d 7c62 c03e 002c 413d f644 cc3e
000000b0: 9ca7 093f 50dc 6b3e 54cf 03bd 1e48 ed3e
000000c0: 20e4 173f 6307 8f3e 0f1e ce3e bdee d53c
000000d0: b46c 8b3e fcd6 203f e3ac dcbc dc10 2e3f
000000e0: bbc8 f43d f56a cd3e 5186 353d 282d d93e
000000f0: 047e ee3d e8b1 bf3e 298e 1f3f a410 b53e
00000100: 374b e83e 6f2a 153d 3506 d73e ec30 56be
00000110: 7f08 9c3e 1b4a 123d 7729 f43d 6b63 a7bc
00000120: 04e4 243d b92a fdbd b8e0 9a3e b714 963c
00000130: c55a 583e 8319 373f e3a2 923e 1b92 863e
00000140: c290 823e 66ae ac3e 9340 a43e 1b05 193f
00000150: d3dd f3bb 1b7c 8f3d f73a cc3d 8ba1 843e
00000160: 1cd3 0a3f 777c 0b3f aabc 9e3d eb33 8b3e
00000170: 7b35 503f b076 b83e edfe ce3e 43e2 a03c
00000180: f0ff 9b3e e46e 563e 033c 2c3f b80e 163f

encoder.fc2.weight f4 [100, 100]
0.02088629 -0.03522569 -0.04204293 0.0082387095 -0.05018849 0.04097227 -0.14825518 -0.009441399
0.07101705 0.066365674 -0.00024764627 -0.067902334 -0.028211048 -0.05869807 -0.011582525 0.16032884
-0.1677171 -0.14526197 0.09564402 -0.26622915 0.04469763 -0.03875592 -0.009201597 0.11532341
0.062240873 -0.016030911 -0.027893804 0.024003616 0.14926213 -0.015031464 0.024803974 -0.2015826
-0.13300417 0.021104744 -0.0554235 0.042281892 0.06700381 0.0141716115 0.018098526 0.053041898
-0.048083887 0.27479848 -0.01718047 0.018741911 0.007874499 0.029030694 -0.08651192 0.14001283
0.048014205 -0.06147175 -0.043999325 -0.082476236 0.0020269717 0.049715135 0.012514224 0.07505111
-0.0496017 0.015976666 -0.019072391 -0.013311972 0.015755598 0.10594507 -0.13900031 0.074162886
0.029273365 -0.072845876 0.035179637 0.1894922 -0.043266483 -0.003113903 0.11691359 -0.010817402
-0.0011221044 -0.08655905 0.031519376 -0.014519413 -0.011364852 0.015384936 -0.040342998 -0.086423025
-0.017150577 0.03919651 0.0020736738 0.023090232 -0.036077566 -0.21266323 -0.12778533 0.12667574
0.063874304 0.027380822 0.07395068 0.15659955 0.048723176 -0.10859269 0.014983358 -0.0157337
0.010215391 -0.054789353 0.041752674 0.026176948 -0.103111304 0.08746703 0.08122303 -0.3561611
0.09622746 -0.14445281 -0.011521522 -0.18945847 -0.21080503 -0.13106233 0.060458906 -0.15790044
0.004294341 -0.08040462 -0.24251525 -0.005124496 -0.060584463 0.11658521 -0.35579264 -0.100718796
0.05052085 0.03467864 -0.08228798 -0.11146233 -0.119334735 -0.04392321 -0.056496408 -0.03040466
-0.09040766 0.08285378 0.03759039 -0.07367497 0.07880335 -0.066409625 0.08617605 -0.04686777
-0.33551198 -0.03229922 -0.054180473 -0.03359882 -0.012135126 -0.29801998 -0.09496283 -0.19710849
-0.47278443 -0.100076854 -0.08861167 -0.06733068 -0.25269154 -0.028004605 -0.055661663 -0.11752634
-0.024507375 -0.004031649 -0.20201407 -0.098725006 0.008071673 0.008007724 -0.030377548 -0.09810894
-0.06602051 -0.399937 0.02612977 -0.069903776 -0.07984747 -0.17140882 0.09851774 -0.14465027
-0.09476459 -0.03764784 -0.10339679 -0.04796023 0.010515331 -0.041384943 -0.20920394 -0.08769835
-0.17033145 -0.19237112 -0.15841627 -0.046694875 -0.03734623 0.07359668 0.05023677 0.11380458
-0.14186 0.031826634 0.14371777 -0.22595775 -0.29032183 0.07564684 -0.049104832 -0.15527098
-0.084553935 -0.05525967 -0.17438528 0.07606362 0.18326873 -0.066247225 -0.096081495 -0.07516363
0.11356466 0.1311704 -0.025266523 0.109837174 0.13402884 0.14775798 0.052802708 -0.07387838
0.052667204 -0.17274158 -0.07311648 0.027494822 0.006118221 -0.08623211 -0.00086797925 0.036320914
0.16294414 0.024589758 -0.18719281 -0.1558256 -0.14177378 -0.043285582 -0.025950402 -0.10015612
-0.096914686 -0.060152292 0.026720036 0.08070139 -0.059161946 0.034391828 0.06197357 -0.019271495
-0.0053600725 0.054637585 -0.132297 0.025572568 -0.04166606 -0.18788798 -0.038781114 -0.12225495
-0.043533117 -0.18199864 -0.03763155 0.013683865 -0.023558475 0.036358375 0.04110674 -0.08972057
0.07468822 0.055577748 0.022011625 0.038089585 -0.008429172 -0.055700645 -0.11617574 -0.08130144
00000000: ba19 ab3c d048 10bd 3535 2cbd a7fb 063c
00000010: 7292 4dbd 8ad2 273d 35d0 17be 19b0 1abc
00000020: 6371 913d baea 873d 85d6 81b9 6110 8bbd
00000030: db1a e7bc 636d 70bd a2c4 3dbc 3e2d 243e
00000040: 08be 2bbe 8ebf 14be 03e1 c33d 304f 88be
00000050: dd14 373d 87be 1ebd 4cc2 16bc ae2e ec3d
00000060: 49f0 7e3d 4253 83bc 8c81 e4bc 3ba3 c43c
00000070: 2cd8 183e 8846 76bc b431 cb3c ab6b 4ebe
00000080: 3f32 08be dbe3 ac3c c003 63bd c72f 2d3d
00000090: 4b39 893d 0c30 683c 5c43 943c 7642 593d
000000a0: 9cf3 44bd 63b2 8c3e 0fbe 8cbc a388 993c
000000b0: 0b04 013c c7d1 ed3c 292d b1bd 865f 0f3e
000000c0: 8baa 443d cdc9 7bbd a338 34bd 4de9 a8bd
000000d0: f1d6 043b 19a2 4b3d 7608 4d3c 65b4 993d
000000e0: 272b 4bbd 7fe1 823c b43d 9cbc 751a 5abc
000000f0: e211 813c bbf9 d83d 1956 0ebe b6e2 973d
00000100: b2ce ef3c 3830 95bd 8618 103d 3e0a 423e
00000110: 3238 31bd a012 4cbb 6470 ef3d 793b 31bc
00000120: 9313 93ba df45 b1bd 761a 013d d5e2 6dbc
00000130: a533 3abc 1911 7c3c b33e 25bd 8efe b0bd
00000140: 5e7f 8cbc 858c 203d 79e6 073b ba27 bd3c
00000150: 12c6 13bd 64c4 59be 28da 02be 49b7 013e
00000160: 88d0 823d bf4d e03c 7473 973d a25b 203e
00000170: f491 473d d865 debd c27c 753c f6e3 80bc
00000180: 755e 273c cd6a 60bd da04 2b3d 0a71 d63c
00000190: 052c d3bd ea21 b33d 4358 a63d bf5a b6be
000001a0: e712 c53d 70eb 13be c4c4 3cbc 6701 42be
000001b0: 46dd 57be 3435 06be c2a3 773d a7b0 21be
000001c0: 8bb7 8c3b 2dab a4bd eb55 78be 63eb a7bb
000001d0: 6a27 78bd 3ac4 ee3d 742a b6be a845 cebd
000001e0: f3ee 4e3d 310b 0e3d 9a86 a8bd 5d46 e4bd
000001f0: c565 f4bd d3e8 33bd c768 67bd 3213 f9bc
00000200: a727 b9bd 3eaf a93d 61f8 193d e7e2 96bd
00000210: a763 a13d c501 88bd 127d b03d 6bf8 3fbd
00000220: 3ac8 abbe 304c 04bd 58ec 5dbd eb9e 09bd
00000230: 68d2 46bc 1396 98be df7b c2bd cfd6 49be
00000240: cd10 f2be 18f5 ccbd 097a b5bd abe4 89bd
00000250: c960 81be ea69 e5bc 7cfd 63bd a6b1 f0bd
00000260: b1c3 c8bc ec1b 84bb c7dc 4ebe 5630 cabd
00000270: 0d3f 043c d432 033c 56da f8bc 57ed c8bd
00000280: c335 87bd 8bc4 ccbe 190e d63c b629 8fbd
00000290: 1287 a3bd cb85 2fbe abc3 c93d 331f 14be
000002a0: f013 c2bd 9f34 1abd b2c1 d3bd f271 44bd
000002b0: 7f48 2c3c 4283 29bd 8f39 56be 319b b3bd
000002c0: 5e6b 2ebe effc 44be e037 22be 2043 3fbd
000002d0: 5cf8 18bd dbb9 963d 12c5 4d3d 6012 e93d
000002e0: bf43 11be a55c 023d c02a 133e 7861 67be
000002f0: 10a5 94be bbec 9a3d 2622 49bd 5bff 1ebe
00000300: 9d2a adbd f757 62bd 0e92 32be 3ec7 9b3d
00000310: ccaa 3b3e a0ac 87bd 60c6 c4bd 64ef 99bd
00000320: 9794 e83d 8951 063e bdfb cebc 50f2 e03d
00000330: db3e 093e de4d 173e a747 583d 8c4d 97bd
00000340: 91b9 573d 2be3 30be 18be 95bd d23c e13c
00000350: 5c7b c83b 769a b0bd 1a89 63ba 3dc5 143d
00000360: d4da 263e 7670 c93c 79af 3fbe bf90 1fbe
00000370: 252d 11be 394c 31bd f095 d4bc a71e cdbd
00000380: 357b c6bd 4062 76bd fae3 da3c c546 a53d
00000390: cc53 72bd 72de 0c3d 00d8 7d3d 41df 9dbc
000003a0: 8ca3 afbb a9cb 5f3d dd78 07be 907d d13c
000003b0: 08aa 2abd b565 40be f2d8 1ebd ce60 fabd
000003c0: c84f 32bd da5d 3abe 8a23 1abd 4a32 603c
000003d0: b4fd c0bc 85ec 143d 8a5f 283d 6bbf b7bd
000003e0: 23f6 983d 7ea5 633d b951 b43c d303 1c3d
000003f0: 831a 0abc 5c26 64bd 8ced edbd 5f81 a6bd

encoder.fc2.bias f4 [100]
0.055156354 0.026029995 -0.12265175 0.10906396 -0.12992996 0.12018375 0.009800025 0.2484361
0.08261014 -0.08139942 0.041964035 -0.08937143 0.0031667002 0.31384182 0.20540127 -0.13711621
0.30249426 0.15899496 -0.05584911 0.20732954 0.061371826 -0.045302883 0.14041173 0.08337889
0.102679044 0.014117895 -0.041427534 0.11179033 -0.07795605 0.1548506 -0.016283937 0.24857768
-0.02979625 0.14459844 -0.056747027 0.16540428 -0.0055828034 -0.08398024 4.6232162e-06 0.05771962
0.031606503 -0.017820757 -0.060051724 0.0007690519 -0.05815276 0.2051953 0.1189846 -0.089996226
0.1620877 0.24138278 -0.087408796 0.072135195 0.036625877 0.061863855 0.032351784 0.058077306
0.04899428 -0.15304236 0.13042158 -0.118277006 -0.11800079 0.042541333 0.011545564 -0.02017664
0.32258934 0.101362556 -0.012483184 0.04592503 0.038328532 0.08788025 0.06860783 0.09936742
0.18849523 0.09827389 0.09090187 -0.08373929 -0.11894662 0.04886713 0.09707345 0.17010893
0.18548326 -0.0062571457 0.21042733 0.16870755 0.116686955 -0.014842998 0.05762985 -0.013244025
-0.18122476 0.14685024 0.017032458 -0.0010089896 -0.046113987 0.084934756 0.1376631 0.17586054
0.014191947 -0.027585883 0.015801005 -0.052451693
00000000: a1eb 613d db3c d53c d730 fbbd ed5c df3d
00000010: 5c0c 05be e622 f63d 4990 203c 0866 7e3e
00000020: 812f a93d bdb4 a6bd 7be2 2b3d 5e08 b7bd
00000030: 6a88 4f3b e0af a03e b654 523e 3168 0cbe
00000040: 87e0 9a3e 93cf 223e 09c2 64bd 324e 543e
00000050: 0661 7b3d 848f 39bd 18c8 0f3e 8dc2 aa3d
00000060: 6449 d23d be4e 673c ebaf 29bd 54f2 e43d
00000070: 6ca7 9fbd 2891 1e3e e465 85bc 268b 7e3e
00000080: 4417 f4bc 9d11 143e 926f 68bd bd5f 293e
00000090: f3ef b6bb d5fd abbd 2021 9b36 696b 6c3d
000000a0: d275 013d d6fc 91bc ccf8 75bd 339a 493a
000000b0: 9731 6ebd b71e 523e 33ae f33d f14f b8bd
000000c0: 51fa 253e 0c2d 773e 6203 b3bd 9ebb 933d
000000d0: 0405 163d f464 7d3d 4e83 043d 78e2 6d3d
000000e0: 3aae 483d 23b7 1cbe 3c8d 053e 373b f2bd
000000f0: 66aa f1bd d23f 2e3d 9b29 3d3c 7b49 a5bc
00000100: 6e2a a53e 2c97 cf3d 4586 4cbc e21b 3c3d
00000110: 61fe 1c3d 8ffa b33d 4382 8c3d 2581 cb3d
00000120: e504 413e d243 c93d c22a ba3d 817f abbd
00000130: 499a f3bd e628 483d 72ce c63d 0931 2e3e
00000140: 53ef 3d3e be08 cdbb 437a 573e acc1 2c3e
00000150: 92f9 ee3d 0c30 73bc 470d 6c3d 78fd 58bc
00000160: fc92 39be e95f 163e a787 8b3c 1340 84ba
00000170: 05e2 3cbd 46f2 ad3d 8ef7 0c3e c914 343e
00000180: 5785 683c cafb e1bc 1c71 813c 96d7 56bd

encoder.fc_mean.weight f4 [16, 100]
-0.11819064 0.004925714 0.058053166 0.10356443 0.07528785 0.14079133 0.03481352 -0.06442417
-0.04864971 -0.04098537 -0.07279557 -0.10889461 0.010458081 0.15439449 0.0150025375 0.026915696
0.06027873 0.07691436 0.0065481137 -0.060838558 -0.06684094 -0.086920515 0.110303886 0.048163403
0.17107853 0.008877648 -0.00052666577 0.010307442 -0.04600221 0.07126161 0.005577197 0.100302026
-0.044164464 -0.013219178 0.010546679 -0.020791491 -0.084224075 -0.038043432 -0.09563847 -0.020338215
-0.00056775054 -0.0208129 0.013525416 -0.06560753 0.013100696 0.04043424 0.018371625 -0.08268915
-0.06823942 -0.14369908 -0.089554764 -0.05082024 -0.032866172 -0.08715254 -0.035330776 -0.010332435
-0.03027252 -0.045395 0.038472753 -0.011901934 -0.06755745 -0.058376107 -0.06920568 0.037490103
0.10379905 0.042149916 0.06584409 -0.10927903 0.11146475 0.047503058 -0.023704082 0.06020702
0.014334713 0.027849233 -0.089497 -0.05996911 -0.02893296 0.073771685 -0.025068274 0.1319227
-0.027600659 0.047304038 0.106336206 0.10494452 0.10489636 0.0692217 -0.062299132 0.036343805
-0.022250801 -0.07682605 0.048647325 -0.08807328 0.032576527 -0.04110922 0.07032578 0.016744101
0.01283271 0.036945514 -0.10752282 -0.021371704 0.008418913 -0.006540192 0.0355405 0.08611226
-0.14944117 -0.0037044277 -0.045987107 0.054067917 0.08324058 0.10967728 -0.04247889 0.021126222
-0.0013129154 -0.13095458 0.038152043 0.12678052 -0.043277305 -0.07677237 0.021159215 0.06850537
0.0581508 -0.0019647388 -0.0039549135 0.114512436 -0.04920524 -0.15488052 0.09001836 -0.06492517
-0.0030837574 0.12108625 0.08953137 -0.11517023 -0.045051955 0.073567264 -0.027969081 0.015138854
0.03325789 -0.045449536 -0.017634142 -0.097173795 0.056466665 0.040494677 0.046553623 0.054663762
0.007779601 -0.012711595 0.12803672 0.019516947 -0.037257586 -0.05915931 -0.06739929 -0.116178766
-0.02981109 0.00932776 0.065652 0.08488517 -0.0024747897 -0.034653634 0.13130619 0.09429824
-0.0763031 -0.032918286 -0.074110284 -0.064074755 -0.043581024 0.07607359 0.052508656 -0.1098615
-0.006486792 -0.026176913 -0.014317301 -0.014714014 -0.066941194 0.027552072 0.013691951 0.038934175
-0.03687124 0.04865641 -0.007239164 -0.08406658 0.07108397 -0.06816683 0.09604103 0.060054876
0.03792291 0.0331771 -0.082374655 -0.09041807 0.002374529 -0.037802815 -0.005697553 -0.02191355
0.1350069 0.14499958 0.09805921 0.03573565 0.010907139 -0.0035349615 0.06479902 -0.059947688
0.11500891 -0.091254786 -0.102889426 -0.011530161 -0.00324335 -0.028308116 -0.053069193 -0.02875386
-0.0987315 0.041118935 0.032265037 0.02729741 0.010172794 -0.011548659 0.020191526 0.0015785373
0.028806064 -0.14961617 -0.0008064894 -0.06767193 -0.11572902 0.0066983816 -0.1001802 -0.007931415
-0.1662799 -0.035762917 -0.03104211 -0.0496975 -0.0502445 0.0823806 0.122609615 0.047903087
0.026666364 0.052852858 -0.07940931 -0.011637771 -0.091631964 -0.034902506 -0.08422786 -0.02656576
-0.08618104 0.06746738 -0.04776651 -0.117823064 0.025506753 0.06674043 -0.16283143 0.021250544
-0.07734369 -0.001853701 0.08081372 0.088023834 0.04682727 -0.04290404 -0.0045696404 -0.027898684
00000000: ef0d f2bd e267 a13b 28c9 6d3d 9619 d43d
00000010: 8430 9a3d 9a2b 103e 9f98 0e3d d2f0 83bd
00000020: eb44 47bd 46e0 27bd d815 95bd 2304 dfbd
00000030: 5f58 2b3c 9719 1e3e 34cd 753c 4e7e dc3c
00000040: d4e6 763d 4785 9d3d 8f91 d63b da31 79bd
00000050: e7e3 88bd 6203 b2bd 01e7 e13d fd46 453d
00000060: 362f 2f3e 8e73 113c f10f 0aba 8ce0 283c
00000070: d06c 3cbd 9bf1 913d ebc0 b63b 266b cd3d
00000080: cce5 34bd 4095 58bc facb 2c3c eb52 aabc
00000090: ac7d acbd 6ed3 1bbd 1ade c3bd 549c a6bc
000000a0: 18d5 14ba d17f aabc b599 5d3c 3e5d 86bd
000000b0: 4da4 563c 609e 253d 1780 963c ee58 a9bd
000000c0: 1cc1 8bbd da25 13be 7d68 b7bd e228 50bd
000000d0: ae9e 06bd 087d b2bd 01b7 10bd 6049 29bc
000000e0: 13fe f7bc 1cf0 39bd 9b95 1d3d 5400 43bc
000000f0: 8f5b 8abd c91b 6fbd b5bb 8dbd 398f 193d
00000100: 9994 d43d 64a5 2c3d 44d9 863d afcd dfbd
00000110: a147 e43d 9192 423d 102f c2bc a39b 763d
00000120: 25dc 6a3c 1324 e43c 344a b7bd 2ba2 75bd
00000130: d104 edbc 9c15 973d fb5b cdbc bf16 073e
00000140: c71a e2bc e1c1 413d ccc6 d93d 27ed d63d
00000150: e7d3 d63d 1bc4 8d3d 602d 7fbd 3edd 143d
00000160: 5047 b6bc fa56 9dbd 6b42 473d c45f b4bd
00000170: f76e 053d 2462 28bd f606 903d ed2a 893c
00000180: 4940 523c 2e54 173d ed34 dcbd b613 afbc
00000190: 7bef 093c 1b4f d6bb ea92 113d a05b b03d
000001a0: 1b07 19be fcc5 72bb fa5c 3cbd 5276 5d3d
000001b0: 0a7a aa3d 7b9e e03d 58fe 2dbd e610 ad3c
000001c0: 2116 acba f518 06be 5145 1c3d c1d2 013e
000001d0: 8b43 31bd d53a 9dbd 1756 ad3c 8b4c 8c3d
000001e0: 892f 6e3d d9c2 00bb 3898 81bb 7f85 ea3d
000001f0: 6f8b 49bd 0099 1ebe 8c5b b83d 7df7 84bd
00000200: dd18 4abb 11fc f73d 395c b73d 5fde ebbd
00000210: 6688 38bd 6faa 963d 6a1f e5bc f508 783c
00000220: 6d39 083d 4b29 3abd 7a75 90bc 0e03 c7bd
00000230: 9749 673d bfdd 253d 03af 3e3d 1ce7 5f3d
00000240: 06ec fe3b 4b44 50bc 0f1c 033e 01e2 9f3c
00000250: 699b 18bd 0851 72bd a408 8abd 22ef edbd
00000260: 6336 f4bc 76d3 183c 8e74 863d 47d8 ad3d
00000270: 1530 22bb f8f0 0dbd 2175 063e 701f c13d
00000280: cd44 9cbd 53d5 06bd 22c7 97bd a039 83bd
00000290: 0482 32bd 78cc 9b3d 5113 573d 11ff e0bd
000002a0: 288f d4bb f770 d6bc 1d93 6abc 0c13 71bc
000002b0: 7718 89bd e2b4 e13c 3454 603c 7179 1f3d
000002c0: 4c06 17bd f24b 473d 8236 edbb 192b acbd
000002d0: 7994 913d 0d9b 8bbd 29b1 c43d 1afc 753d
000002e0: 0e55 1b3d b6e4 073d 0bb4 a8bd 1c2d b9bd
000002f0: fc9d 1b3b 20d7 1abd 8ab2 babb 0c84 b3bc
00000300: 403f 0a3e c57a 143e 44d3 c83d 8c5f 123d
00000310: dbb3 323c d0aa 67bb 59b5 843d b58b 75bd
00000320: cb89 eb3d cae3 babd b1b7 d2bd 00e9 3cbc
00000330: 628e 54bb 6ce6 e7bc 155f 59bd 378d ebbc
00000340: be33 cabd 546c 283d 5828 043d d19e df3c
00000350: caab 263c 9636 3dbc b368 a53c ece6 ce3a
00000360: b2fa eb3c fb34 19be 966a 53ba 9597 8abd
00000370: 5603 edbd 197e db3b 472b cdbd c4f2 01bc
00000380: 4745 2abe 237c 12bd 064c febc 9b8f 4bbd
00000390: 2dcd 4dbd 29b7 a83d c01a fb3d 0736 443d
000003a0: 6b73 da3c 3d7c 583d 59a1 a2bd 59ac 3ebc
000003b0: 8aa9 bbbd eef5 0ebd a87f acbd 70a0 d9bc
000003c0: af7f b0bd 562c 8a3d d1a6 43bd 384d f1bd
000003d0: 8af3 d03c 35af 883d 48bd 26be 9f15 ae3c
000003e0: 5e66 9ebd e2f7 f2ba aa81 a53d d745 b43d
000003f0: f4cd 3f3d 26bc 2fbd ecbc 95bb c88b e4bc

encoder.fc_mean.bias f4 [16]
0.101212285 0.03802309 -0.09692942 0.060875848 -0.07415255 0.106070496 0.08290356 0.024708126
0.013751208 0.035046365 -0.049898695 0.08926834 -0.11600296 0.041189037 0.11122856 -0.026232023
00000000: 6348 cf3d 1abe 1b3d ef82 c6bd f458 793d
00000010: 4bdd 97bd 7d3b d93d 57c9 a93d b268 ca3c
00000020: bf4c 613c c78c 0f3d 9362 4cbd 52d2 b63d
00000030: f692 edbd d6b5 283d cdcb e33d 8ae4 d6bc

encoder.fc_var.weight f4 [16, 100]
0.0013525042 -0.0054903203 0.057474714 0.0030965419 -0.0011195729 -0.0055567427 -0.0060560796 -0.0019909388
0.0017003868 0.0021052735 -0.0063057984 0.0030531206 0.0044262847 0.0015718499 -0.0020601158 0.0009482987
0.0018942683 -0.0015439994 0.0010475775 0.0015459707 -0.003955405 0.003062555 -0.0030227844 0.0021557696
-0.00031099585 0.002962483 0.00012769795 0.0030082485 0.0007367542 -0.00015655278 0.00012569659 0.002779983
-0.000111993184 0.0015769941 -0.0002883135 -0.002783925 0.00029411598 -0.0014660326 0.004185721 -0.0013236094
-0.000736488 -0.0030300086 -0.0014617025 0.0019300124 -0.0029122466 -0.0006868936 -0.0009189453 0.0006285324
-0.0011057782 0.0019465452 -0.0030119542 -6.7187866e-05 0.00068112544 0.004410215 0.0020168284 0.0012372008
-0.00047436528 0.048617803 0.0027716241 0.0022726245 0.001936298 0.0024750433 0.00321334 -0.0009241101
0.0026545518 0.004139925 0.0013737021 0.0043972475 -0.000714253 -0.0051158275 -0.0005593477 -0.0016030035
0.002634757 7.799975e-05 0.0026969803 -0.0022689768 -0.0025201277 -0.0004686222 -0.0031841062 -0.003501977
-0.0014344223 0.0041834796 -0.004298156 0.0012979779 -0.0020517206 0.007924287 0.00204454 0.0011367367
0.0013422844 0.006976802 -0.00019150026 0.0005458306 -4.344681e-05 -9.276542e-05 0.0011748665 -0.00075879006
-0.0022863264 0.00057383743 0.00028192092 0.0009618083 -0.0026424723 -0.01781754 -0.043364666 -0.0021175228
0.0022002996 -0.0015876797 -0.009614628 -0.0017274402 0.0019181892 -0.00037343602 0.00083677244 0.000672521
-0.0033944373 -0.002078827 0.0030138125 -0.008057213 0.0020740314 0.00021745941 -0.00019659328 0.001406587
0.0031615123 -0.0009893555 -0.001052544 0.00034136447 0.0010018055 -0.0028009082 0.00012410709 0.0010307567
-0.0004481722 -0.0030862049 -0.00029465216 -0.0019886172 0.0038358818 0.0012096233 -0.0018118408 0.00011875511
-0.0008350482 -0.0005341013 -0.0070012724 -0.0023055188 0.0019564764 8.8209905e-05 -0.0009413323 0.0029721535
-0.00035567768 -0.002840325 -0.0014028441 -0.0013091149 -0.00058777945 0.00011022785 -0.00028406226 0.0004567762
-0.0013126276 -0.0018644709 -0.0025248297 -0.004771755 -0.002021374 0.05840562 0.0016451153 0.00022552368
0.00018338274 -0.0009442348 0.000117531556 0.0029242404 0.0011716321 -0.0014649407 0.00180503 0.0022494313
0.00084782974 0.0007043013 0.005203518 -0.0009867483 -0.00047377704 0.0025915164 0.003437209 0.0032604812
0.004139508 0.00015897224 0.0019797436 -0.0054920916 -0.0018908164 -0.0002846695 -0.0049344357 0.00079873507
0.0005964262 0.00197956 0.0004129201 -0.001219971 0.0013874305 -0.007925518 -0.00029042113 0.0025722894
-0.001431819 -0.002747785 -0.00065001403 -0.0038233565 0.0015090338 0.0017857299 0.0011783816 0.00026322174
0.0061814548 0.0004978132 0.07696387 0.0005250181 0.0019442972 0.0055172876 -0.001535044 0.0014446867
-0.0009811751 -0.00014865572 -0.0020718894 -4.1278967e-05 0.0009167461 0.0018489689 -0.001352334 0.005243251
-0.0006337393 -9.4448464e-05 0.0020630658 -0.0012941955 0.0008115817 0.0021664153 -0.0028122691 0.00026270113
0.00088772504 0.0012496761 -0.0009626278 -0.0013420125 0.0025921222 0.0006188185 0.00032538164 0.00024812392
-0.001593521 -0.00010437134 -0.003755059 0.0003005228 -1.424794e-05 0.0016400302 -0.0014014706 0.0018689594
0.0012850681 -0.0031318113 -0.002136831 -0.00014931255 -0.000697662 0.0019600673 0.0023925768 -0.00028409244
0.0028189395 -0.0029992447 0.0014904764 0.0034814843 0.0024964276 -0.0011749505 8.559371e-06 0.0034385293
00000000: 8346 b13a 25e8 b3bb 9b6a 6b3d 5aef 4a3b
00000010: a2be 92ba 5615 b6bb 1472 c6bb 697a 02bb
00000020: 83df de3a a1f8 093b dfa0 cebb dd16 483b
00000030: 5e0a 913b 8806 ce3a 0203 07bb 4097 783a
00000040: 1949 f83a 0660 caba de4e 893a 2ba2 ca3a
00000050: 589c 81bb 26b5 483b e819 46bb d047 0d3b
00000060: 280d a3b9 3826 423b a8e6 0539 0926 453b
00000070: bd22 413a 5128 24b9 6ccd 0339 6030 363b
00000080: e2dd eab8 24b3 ce3a c828 97b9 8372 36bb
00000090: 9433 9a39 e427 c0ba 5f28 893b f67c adba
000000a0: df10 41ba 1c93 46bb 9996 bfba 78f8 fc3a
000000b0: 64db 3ebb a610 34ba 60e5 70ba 18c4 243a
000000c0: c2ef 90ba 3823 ff3a 3564 45bb 36e7 8cb8
000000d0: 8e8d 323a 9183 903b c42c 043b 9229 a23a
000000e0: 3bb4 f8b9 7623 473d 23a4 353b 50f0 143b
000000f0: 61cb fd3a 5634 223b e696 523b fb3f 72ba
00000100: fdf7 2d3b 35a8 873b cb0d b43a c916 903b
00000110: b53c 3bba aca2 a7bb 30a1 12ba df1b d2ba
00000120: e3ab 2c3b cc93 a338 d2bf 303b 1db3 14bb
00000130: ba28 25bb 68b1 f5b9 70ac 50bb 6d81 65bb
00000140: 3a03 bcba 9215 893b 8cd7 8cbb e920 aa3a
00000150: 2976 06bb ded4 013c b0fd 053b 8efe 943a
00000160: 97ef af3a a89d e43b 76cd 48b9 1216 0f3a
00000170: a83a 36b8 0e8b c2b8 fafd 993a 8ae9 46ba
00000180: 31d6 15bb 946d 163a c9ce 9339 dd21 7c3a
00000190: 542d 2dbb 17f6 91bc 269f 31bd 23c6 0abb
000001a0: e732 103b b119 d0ba ac86 1dbc 466b e2ba
000001b0: c06b fb3a bcc9 c3b9 d95a 5b3a 1f4c 303a
000001c0: 3575 5ebb ee3c 08bb 6283 453b 6702 04bc
000001d0: 79ec 073b d105 6439 9b24 4eb9 3a5d b83a
000001e0: 6031 4f3b 43ad 81ba 84f5 89ba 2af9 b239
000001f0: 044f 833a 718f 37bb be22 0239 751a 873a
00000200: a8f8 eab9 ed41 4abb 8b7b 9ab9 7653 02bb
00000210: 6b63 7b3b 398c 9e3a 4a7b edba 2a0c f938
00000220: 23e7 5aba ee02 0cba ee6a e5bb 3018 17bb
00000230: 3a38 003b 55fd b838 bec3 76ba 76c8 423b
00000240: 407a bab9 bf24 3abb a3df b7ba 9b96 abba
00000250: 3615 1aba 202a e738 31ee 94b9 777b ef39
00000260: 790c acba 4361 f4ba 9d77 25bb 625c 9cbb
00000270: 0779 04bb bb3a 6f3d e9a0 d73a 8d7a 6c39
00000280: 6e4a 4039 8686 77ba 467b f638 9da4 3f3b
00000290: 7391 993a 4103 c0ba c296 ec3a 326b 133b
000002a0: e440 5e3a dca0 383a 4682 aa3b c755 81ba
000002b0: 4765 f8b9 6ed6 293b cc42 613b ccad 553b
000002c0: b6a4 873b c9b1 2639 96be 013b 01f7 b3bb
000002d0: 45d5 f7ba b23f 95b9 0cb1 a1bb 3462 513a
000002e0: 7c59 1c3a 81bb 013b 337d d839 6fe7 9fba
000002f0: 71da b53a 08da 01bc aa43 98b9 db93 283b
00000300: e0ab bbba 2f14 34bb b465 2aba 4791 7abb
00000310: c6ca c53a 270f ea3a ed73 9a3a 0601 8a39
00000320: cd8d ca3b ae7f 023a 3c9f 9d3d 5ea1 093a
00000330: cad7 fe3a 5dca b43b 8833 c9ba a45b bd3a
00000340: c69a 80ba 77e0 1bb9 89c8 07bb f422 2db8
00000350: ca51 703a 1a59 f23a cd40 b1ba 94cf ab3b
00000360: 8621 26ba a212 c6b8 8034 073b ffa1 a9ba
00000370: 53c0 543a 6bfa 0d3b 0c4e 38bb 26bb 8939
00000380: 38b6 683a 2ccc a33a dc58 7cba 78e6 afba
00000390: 98e0 293b 3538 223a fc97 aa39 a116 8239
000003a0: b1dd d0ba f0e1 dab8 7017 76bb 7d8f 9d39
000003b0: 700a 6fb7 48f6 d63a 8db1 b7ba dff7 f43a
000003c0: bb6f a83a 133f 4dbb 130a 0cbb c890 1cb9
000003d0: 4ee3 36ba 7974 003b c7cc 1c3b 3ef2 94b9
000003e0: f5bd 383b fa8e 44bb 175c c33a 9d29 643b
000003f0: 1b9b 233b cc00 9aba 389a 0f37 f358 613b

encoder.fc_var.bias f4 [16]
-0.0024139425 0.0027033116 0.0013258206 0.0048895176 -0.0058928807 0.0024194838 0.002616027 0.0014474101
0.0025828427 -0.0063179648 -0.005174424 0.003626304 0.007817954 0.0013787455 0.0042767427 0.003751061
00000000: 3c33 1ebb 0b2a 313b 28c7 ad3a 3f38 a03b
00000010: 1119 c1bb 3490 1e3b a671 2b3b 06b7 bd3a
00000020: e944 293b ee06 cfbb 378e a9bb 49a7 6d3b
00000030: e016 003c 06b7 b43a eb23 8c3b 5cd4 753b

decoder.fc1.weight f4 [100, 16]
-0.2109745 -0.06936546 0.7426521 1.4894675 -0.083446376 1.0810356 0.18326665 -0.048473198
0.25008094 0.24123758 -0.7193977 -0.12409468 -1.0834986 0.7920987 -0.37233144 -0.6598258
-0.6215021 -0.6745203 -0.4023745 0.9463231 -0.32134274 0.029311458 0.32592633 0.88032496
-0.058328044 -0.36768198 -0.33338183 -0.7353151 0.12906037 0.5864108 1.0138059 -0.21800113
-0.7967857 0.30708978 0.2768219 -0.659441 0.44525692 1.2830122 -0.10736567 -1.0948061
0.5017875 0.16080531 0.9614584 0.33282554 0.5819609 -0.057235394 -0.91432893 -0.77598596
-0.56148607 -0.19829798 0.27083623 -0.3046332 0.04367682 0.1778392 0.51867145 -0.9600994
-0.5512188 0.055724815 1.4848428 -1.0464083 0.8756073 0.6575934 0.6004804 -0.45248926
0.49287876 0.4947954 -0.5595947 0.10982199 0.056512028 0.58269453 -0.47143224 0.13859755
1.0807067 0.6751902 0.7793832 0.087416165 0.22244348 -1.4161304 -0.40945157 0.29838237
-0.27855724 -1.1669362 -0.58152914 0.23911804 0.65171117 1.0629203 -0.34820634 -0.5822691
-0.6359249 -0.96060497 1.1153185 0.24521296 0.4847829 -0.1679543 0.18403268 -0.5871122
0.28415018 0.4092581 -0.38634625 0.15677017 -1.4936264 0.21657379 -0.9827025 -0.296038
-0.28747308 -0.98733556 0.14977765 0.6352063 0.872193 -1.0978112 -0.7009105 -2.168475
-0.48260102 0.37402934 -0.16097112 1.0717001 -0.23782578 0.56931883 -0.8405277 -0.28913188
-0.7188328 0.40880063 -0.09983369 0.016929338 -0.9379103 -0.61001503 -1.6123732 -0.41786802
-0.61636555 0.6099702 -0.24529538 0.111803696 -0.40668905 0.24386789 -0.047719784 -0.73021644
-0.103582725 0.554682 -0.072418585 -0.5441846 -0.48750198 0.46714044 0.60920966 -0.35486132
-0.34504348 -0.35274762 0.20438446 0.5142121 -0.9258094 0.37678948 -0.9260762 -0.81201506
0.53213614 1.1551225 0.7324138 0.6810322 0.57391876 0.71860266 -0.2887579 -1.0647138
-0.8686214 0.30520585 0.7341974 0.93748504 -0.1241113 0.7296237 0.049460374 0.30540365
-0.39399025 0.062133092 -0.40588722 -0.3037748 -0.1994394 0.25745276 0.27979836 -0.2551465
0.43826553 0.21036188 0.18395926 -0.27564043 -1.4660053 0.61803836 -0.9626382 -0.0899602
0.008409326 0.60743344 0.7815705 -0.28769416 -1.223161 0.8440042 0.6023649 0.44931597
1.210117 -0.6649099 -0.24670467 -0.49425033 0.2523067 1.0444913 0.71208733 -0.7569196
-0.8177737 0.20926215 -0.64540535 -0.8986068 0.6039306 0.92977154 0.50661343 0.16502567
-0.0412689 -0.08496968 -0.38090125 -0.5833931 -1.8982354 -0.28699297 -1.3435346 -0.2522087
0.3245941 1.0915573 0.054748233 -0.42155698 -0.7954439 0.017960897 1.3920351 1.266474
-0.0040694936 -0.1046702 -0.2861862 0.68745005 0.85701984 0.44247884 -0.3008197 -1.2316577
0.062463723 0.34827182 0.3999713 -0.9752164 -0.20979322 -0.3340549 0.74458575 -1.0367732
-0.040320348 0.8542269 -0.7489295 -0.3111759 -0.78059566 0.19761604 0.3052284 -0.7808201
0.31255996 -0.77254456 -0.42931968 -0.5475186 -0.07035914 -0.12757878 0.1552218 -0.5581764
00000000: b309 58be 7a0f 8ebd 731e 3e3f dfa6 be3f
00000010: efe5 aabd 605f 8a3f 41aa 3b3e d58b 46bd
00000020: 9c0a 803e fc06 773e 732a 38bf 5a25 febd
00000030: 15b0 8abf fbc6 4a3f 3aa2 bebe 58ea 28bf
00000040: c31a 1fbf 5dad 2cbf 0804 cebe 3b42 723f
00000050: 0987 a4be 951e f03c d1df a63e fa5c 613f
00000060: 63e9 6ebd d040 bcbe 06b1 aabe 9c3d 3cbf
00000070: 6728 043e 051f 163f 64c4 813f b03b 5fbe
00000080: 26fa 4bbf df3a 9d3e 9abb 8d3e 20d1 28bf
00000090: b7f8 e33e be39 a43f 88e2 dbbd 9b22 8cbf
000000a0: 2575 003f 26aa 243e 2322 763f 1c68 aa3e
000000b0: 64fb 143f a96f 6abd 7611 6abf 04a7 46bf
000000c0: 8dbd 0fbf a00e 4bbe 0cab 8a3e e2f8 9bbe
000000d0: 77e6 323d 7b1b 363e a7c7 043f 13c9 75bf
000000e0: ad1c 0dbf b43f 643d 540f be3f b5f0 85bf
000000f0: cd27 603f 0b58 283f 15b9 193f acac e7be
00000100: 9b5a fc3e d355 fd3e 9941 0fbf 5aea e03d
00000110: 2879 673d 782b 153f 915f f1be 84ec 0d3e
00000120: 9954 8a3f 44d9 2c3f a885 473f 3f07 b33d
00000130: 39c8 633e c343 b5bf a3a3 d1be 93c5 983e
00000140: 0e9f 8ebe 2a5e 95bf 18df 14bf 5cdb 743e
00000150: 8bd6 263f c60d 883f 1a48 b2be 960f 15bf
00000160: f9cb 22bf 35ea 75bf c2c2 8e3f 1b19 7b3e
00000170: 7735 f83e 36fc 2bbe 1073 3c3e fc4c 16bf
00000180: 227c 913e 478a d13e 2dcf c5be 5c88 203e
00000190: 262f bfbf 85c5 5d3e 6492 7bbf 4b92 97be
000001a0: ac2f 93be 06c2 7cbf 505f 193e e19c 223f
000001b0: 0a48 5f3f 1485 8cbf df6e 33bf 4bc8 0ac0
000001c0: 7b17 f7be c680 bf3e 9dd5 24be 782d 893f
000001d0: 9a88 73be e1be 113f d32c 57bf 1809 94be
000001e0: 6d05 38bf 514e d13e 9b75 ccbd 65af 8a3c
000001f0: e41a 70bf f229 1cbf 3f62 cebf ccf2 d5be
00000200: 22ca 1dbf 0227 1c3f b62e 7bbe 56f9 e43d
00000210: 8c39 d0be 81b8 793e d275 43bd 77ef 3abf
00000220: 2e23 d4bd a4ff 0d3f 3250 94bd af4f 0bbf
00000230: dc99 f9be 082d ef3e 2af5 1b3f 62b0 b5be
00000240: 8aa9 b0be 569b b4be 294a 513e 67a3 033f
00000250: d801 6dbf 8dea c03e 5413 6dbf 38e0 4fbf
00000260: 133a 083f 0edb 933f 797f 3b3f 2058 2e3f
00000270: 57ec 123f 58f6 373f 13d8 93be 8b48 88bf
00000280: f95d 5ebf f143 9c3e 5cf4 3b3f 05ff 6f3f
00000290: 112e febd 9ec8 3a3f f696 4a3d de5d 9c3e
000002a0: 17b9 c9be 457f 7e3d 73d0 cfbe 5f88 9bbe
000002b0: d839 4cbe d9d0 833e bb41 8f3e 90a2 82be
000002c0: 5764 e03e 1b69 573e d15f 3c3e be20 8dbe
000002d0: 10a6 bbbf c337 1e3f 756f 76bf 0e3d b8bd
000002e0: 45c7 093c c280 1b3f 0115 483f a64c 93be
000002f0: 8a90 9cbf a910 583f 9634 1a3f be0c e63e
00000300: 1de5 9a3f 8937 2abf 26a0 7cbe 610e fdbe
00000310: 582e 813e e4b1 853f 5b4b 363f 7cc5 41bf
00000320: 9e59 51bf d148 563e 4939 25bf 180b 66bf
00000330: 329b 1a3f 8205 6e3f 6bb1 013f 7dfc 283e
00000340: 9409 29bd 9504 aebd 7d05 c3be 4059 15bf
00000350: 61f9 f2bf bef0 92be f1f8 abbf 8021 81be
00000360: 3331 a63e 26b8 8b3f af3f 603d 51d6 d7be
00000370: 36a2 4bbf bb22 933c 352e b23f d21b a23f
00000380: 6359 85bb 545d d6bd ff86 92be bafc 2f3f
00000390: a765 5b3f 968c e23e 0a05 9abe f6a6 9dbf
000003a0: f6d9 7f3d af50 b23e 0ac9 cc3e c8a7 79bf
000003b0: 09d4 56be 3e09 abbe 2c9d 3e3f fcb4 84bf
000003c0: f326 25bd 9dae 5a3f d8b9 3fbf 7352 9fbe
000003d0: 1ed5 47bf dc5b 4a3e e646 9c3e d3e3 47bf
000003e0: dc07 a03e 7bc5 45bf cacf dbbe 2e2a 0cbf
000003f0: 7418 90bd 03a4 02be 77f2 1e3e a6e4 0ebf

decoder.fc1.bias f4 [100]
0.14791079 0.1125426 0.7661868 0.117935486 -0.08930894 0.82674557 -0.09007044 0.31359988
0.4052818 -0.0013984127 0.7154942 0.3584373 0.67474425 -0.09433281 0.78829247 0.6030192
0.17756997 0.5516161 0.0061689033 -0.021586338 0.46757948 0.45770296 0.113807596 0.8052888
0.13630462 0.93725675 0.540666 0.56115884 0.50211823 -0.23818427 0.39966983 0.81175774
0.2818478 0.83424306 0.3045546 0.5625255 0.18704864 0.09151956 0.271125 0.30498004
0.63930184 0.71178025 0.2547072 0.64775807 0.8195343 0.73177284 0.12529477 0.30277905
0.30365053 0.19039293 0.80558795 0.63995576 0.43999988 0.6815903 0.43743002 -0.22218932
0.37307903 0.11063828 0.5496817 0.7215367 0.41852623 0.20480692 0.55285317 0.77606064
0.0006371173 0.6372533 0.5915591 0.31119704 0.67296255 0.66944796 0.014454933 0.5803181
0.6276172 0.6462587 0.21320315 0.19175744 0.68569016 0.7937635 0.23821492 0.7679932
0.2732048 0.84322613 -0.059009794 0.3108078 0.44717982 0.28362846 0.19137965 0.43367708
0.59474486 0.73260564 0.37505728 -0.26835942 -0.26773328 0.08822773 0.42282113 0.9509779
0.7307607 0.27542192 0.16811088 0.5262415
00000000: ed75 173e bc7c e63d d124 443f 2988 f13d
00000010: 9be7 b6bd 99a5 533f da76 b8bd 2a90 a03e
00000020: 1981 cf3e f24a b7ba a12a 373f 1885 b73e
00000030: 0abc 2c3f 8f31 c1bd 89cd 493f 775f 1a3f
00000040: e7d4 353e b636 0d3f 8324 ca3b d5d5 b0bc
00000050: 9466 ef3e 0b58 ea3e f513 e93d 6827 4e3f
00000060: 7093 0b3e 0ff0 6f3f 1669 0a3f 1ba8 0f3f
00000070: d28a 003f 94e6 73be 86a1 cc3e 5bcf 4f3f
00000080: 5b4e 903e f490 553f 95ee 9b3e ac01 103f
00000090: ae89 3f3e 9b6e bb3d e5d0 8a3e 5826 9c3e
000000a0: 49a9 233f 3b37 363f fb68 823e 79d3 253f
000000b0: 00cd 513f 7755 3b3f 464d 003e db05 9b3e
000000c0: 1578 9b3e 5df6 423e 033b 4e3f 24d4 233f
000000d0: aa47 e13e b47c 2e3f d4f6 df3e 9985 63be
000000e0: 3704 bf3e 5396 e23d f1b7 0c3f a1b6 383f
000000f0: 1249 d63e e8b8 513e c987 0d3f e9ab 463f
00000100: 3804 273a 0823 233f 6b70 173f 3855 9f3e
00000110: 4647 2c3f f160 2b3f 62d4 6c3c ba8f 143f
00000120: 85ab 203f 3671 253f ed51 5a3e 105c 443e
00000130: 6489 2f3f 1634 4b3f 9dee 733e 349b 443f
00000140: 80e1 8b3e abdd 573f 41b4 71bd 3322 9f3e
00000150: c1f4 e43e c037 913e 07f9 433e ec0a de3e
00000160: 3341 183f 0b8c 3b3f 8207 c03e 6866 89be
00000170: 5614 89be bdb0 b43d 037c d83e 4a73 733f
00000180: 2213 3b3f 1a04 8d3e 4225 2c3e c3b7 063f

decoder.fc2.weight f4 [100, 100]
-0.24083623 0.115324736 -0.32216462 -0.39332974 -0.8370463 -0.02125308 -0.07609393 -0.2345246
-0.10990251 -0.7452096 0.13485225 0.2812515 -0.062393382 0.15756209 -0.41903433 0.43729725
0.25664428 0.031576786 0.9346152 -0.16896626 -0.13293521 0.14898711 0.44721317 0.18123962
0.53378963 -0.13820021 0.0036507898 -0.47023323 0.37532458 -0.34357205 -0.11468243 0.10242148
-0.21290068 -0.04018626 -0.0376771 -0.47991148 -0.21429296 0.7170634 0.7576616 0.048785165
0.2154762 -0.8854071 0.21243194 0.40779167 0.23196743 -0.04137073 -0.20533703 -0.10359663
-0.4372953 -0.3650798 0.248258 0.0003211655 -0.45290774 -0.18758991 0.36853206 0.33816263
-0.094808064 -0.7353917 0.16541256 -0.06240806 0.60324585 -0.11313781 0.5386309 -0.41519374
-0.0023530836 -0.0036868667 -0.4785 -0.43653783 -0.024738984 -0.5535671 0.043962196 0.45437738
-0.34311908 0.28142166 0.08791402 -0.7633587 0.2842054 -0.28848222 0.69645673 0.41460598
0.37169242 0.59536064 -0.34401605 -0.25506967 0.093113005 -0.025306383 0.39020458 -0.9605399
-0.25268403 0.13462064 0.17373979 0.1337648 0.16900031 0.4638874 0.1511286 0.40482438
0.102200165 0.35196072 -0.26959965 0.17085114 -0.05528496 0.41906005 0.35175705 -0.37760413
-0.043632932 0.19272308 -0.23040499 0.09432048 0.3206333 -0.13243476 -0.115778975 0.051642187
0.31134036 0.11812431 0.3913756 0.17173898 0.25555903 0.22812769 -0.17818964 -0.09409361
-0.1957038 0.26120698 0.10731907 0.29536533 -0.24097137 0.5519504 0.5406813 0.019649042
-0.22534038 -0.418194 -0.21132931 -0.15534605 -0.10555757 0.09911194 0.046572436 0.1486751
0.68604386 0.4326059 0.10345692 -0.07011044 -0.06856979 0.42867896 -0.12153611 -0.52634746
-0.047181 -0.05241396 -0.30408815 -0.31288913 -0.20551609 0.1737979 0.10725172 -0.044809174
-0.24430743 0.1655125 0.3799643 -0.056015827 0.17140673 -0.083989196 0.011225001 -0.087094136
-0.10980658 0.053587403 0.063550904 -0.2659856 -0.606836 -0.082912736 0.47089896 0.3193263
0.30154577 0.03553029 -0.07500358 -0.24020554 0.14621407 0.20574182 0.4204702 0.029198622
0.27508783 -0.51751465 -0.029863857 0.38883275 -0.071855344 0.12943974 -0.10133778 -0.19219327
-0.008009186 0.131589 0.41138282 -0.016697941 0.26401037 -0.2729266 -0.07177836 -0.077117205
-0.23428586 0.32024094 -0.4392922 -0.028307289 0.10553446 0.21261254 0.1103396 -0.39448255
0.41452134 0.046994157 -0.35641566 0.41959968 -0.50496674 -0.124327295 -0.09757038 0.059440747
0.3729896 0.7399806 0.012302133 0.050973244 -0.09340976 0.26238957 -0.3786608 0.09354134
0.27446532 0.22252092 -0.3042954 0.00824812 -0.47822225 -0.30417225 0.080180354 0.32338688
0.03727699 0.20462352 0.13001081 -0.44342926 -0.13788305 1.4357688 0.096973 -0.46709347
-0.043885052 -0.43909234 -0.033640414 0.1402251 0.14396612 0.1591833 0.6794797 0.41979456
0.08942485 0.06595395 -0.07791913 0.074199066 -0.27711278 -0.36374018 -1.7090465 -0.2036646
0.24402358 -0.24806608 0.019290932 0.13070741 -0.20631117 -0.14943202 0.09432658 1.6193714
00000000: c69d 76be 602f ec3d c3f2 a4be 8462 c9be
00000010: ab48 56bf f01a aebc 22d7 9bbd 3727 70be
00000020: 9114 e1bd 0ec6 3ebf b516 0a3e 3200 903e
00000030: 3490 7fbd f557 213e ab8b d6be 6de5 df3e
00000040: e166 833e a956 013d f142 6f3f 7e05 2dbe
00000050: 2b20 08be 1490 183e 20f9 e43e e196 393e
00000060: 70a6 083f 5b84 0dbe 1742 6f3b 69c2 f0be
00000070: 8b2a c03e ade8 afbe 9fde eabd 5ac2 d13d
00000080: a302 5abe 599a 24bd 4e53 1abd f5b6 f5be
00000090: 9d6f 5bbe 7891 373f 1cf6 413f f4d2 473d
000000a0: cba5 5c3e 0aaa 62bf c287 593e 12ca d03e
000000b0: df88 6d3e 5b74 29bd df43 52be 782a d4bd
000000c0: 2be5 dfbe bdeb babe 5837 7e3e 1b62 a839
000000d0: 86e3 e7be 9217 40be 3cb0 bc3e a723 ad3e
000000e0: bb2a c2bd a142 3cbf e961 293e 989f 7fbd
000000f0: 526e 1a3f ccb4 e7bd b7e3 093f 4694 d4be
00000100: 3136 1abb 5c9f 71bb f4fd f4be e381 dfbe
00000110: 69a9 cabc 93b6 0dbf b411 343d 27a4 e83e
00000120: 4ead afbe 8016 903e 440c b43d 7a6b 43bf
00000130: 5f83 913e f1b3 93be fd4a 323f 3c47 d43e
00000140: 784e be3e 8e69 183f df22 b0be 7e98 82be
00000150: 08b2 be3d 554f cfbc e5c8 c73e f1e5 75bf
00000160: cd5f 81be fed9 093e d8e8 313e a4f9 083e
00000170: 6b0e 2d3e a682 ed3e 75c1 1a3e 2445 cf3e
00000180: 524e d13d 3234 b43e f708 8abe 9af3 2e3e
00000190: 7b72 62bd 0a8f d63e 8019 b43e 5455 c1be
000001a0: 72b8 32bd 3359 453e 49ef 6bbe 192b c13d
000001b0: 0c2a a43e fa9c 07be 871d edbd c286 533d
000001c0: 0168 9f3e 29eb f13d 6262 c83e 58dc 2f3e
000001d0: a2d8 823e 4e9a 693e 5877 36be 27b4 c0bd
000001e0: 9466 48be ecbc 853e 1aca db3d 203a 973e
000001f0: 33c1 76be 9f4c 0d3f 176a 0a3f 07f7 a03c
00000200: a1bf 66be 861d d6be b666 58be 0913 1fbe
00000210: 912e d8bd 33fb ca3d bdc2 3e3d 493e 183e
00000220: 92a0 2f3f 857e dd3e 39e1 d33d 1096 8fbd
00000230: 516e 8cbd cf7b db3e ede7 f8bd b5be 06bf
00000240: dd40 41bd 05b0 56bd 71b1 9bbe 0133 a0be
00000250: cf72 52be 14f8 313e caa6 db3d d389 37bd
00000260: ba2b 7abe 1c7c 293e ae8a c23e da70 65bd
00000270: 3f85 2f3e 8702 acbd 11e9 373c 695e b2bd
00000280: 46e2 e0bd 777e 5b3d fa26 823d 442f 88be
00000290: 9b59 1bbf 27ce a9bd ab19 f13e bd7e a33e
000002a0: 3564 9a3e 3688 113d 7a9b 99bd 71f8 75be
000002b0: 24b9 153e fcad 523e df47 d73e f331 ef3c
000002c0: 50d8 8c3e d77b 04bf 0ca5 f4bc 1615 c73e
000002d0: e528 93bd da8b 043e 2f8a cfbd 50ce 44be
000002e0: f638 03bc 44bf 063e c5a0 d23e 1fca 88bc
000002f0: 5e2c 873e 09bd 8bbe 8800 93bd a0ef 9dbd
00000300: a2e8 6fbe 9ff6 a33e e8ea e0be b0e4 e7bc
00000310: 7322 d83d 1ab7 593e baf9 e13d 9ef9 c9be
00000320: 243c d43e f27c 403d 1d7c b6be c5d5 d63e
00000330: 8045 01bf 4f9f febd fbd2 c7bd 2478 733d
00000340: 7ef8 be3e 5e6f 3d3f e38e 493c 52c9 503d
00000350: 9e4d bfbd ed57 863e d4df c1be 9a92 bf3d
00000360: b886 8c3e 86dc 633e 9bcc 9bbe 1f23 073c
00000370: 8cd9 f4be 77bc 9bbe 9935 a43d f792 a53e
00000380: c2af 183d d488 513e 8e21 053e 2909 e3be
00000390: 3731 0dbe 46c7 b73f c899 c63d e026 efbe
000003a0: d0c0 33bd b6d0 e0be 88ca 09bd 2b97 0f3e
000003b0: db6b 133e f200 233e 62f2 2d3f 50ef d63e
000003c0: 6024 b73d dd12 873d 1194 9fbd aef5 973d
000003d0: bae1 8dbe 273c babe 09c2 dabf 748d 50be
000003e0: 51e1 793e 0905 7ebe 0408 9e3c 2ad8 053e
000003f0: 3c43 53be b504 19be 4b2e c13d 9047 cf3f

decoder.fc2.bias f4 [100]
0.09452337 0.19947496 -0.0054258173 0.38999256 0.19955222 0.21047726 0.12073212 0.07993152
0.015747104 0.2223824 0.15466428 0.045624927 -0.28325084 0.016605526 0.21315476 0.1430563
-0.064289115 0.11226372 0.0846169 0.10523148 0.17354052 0.105107754 -0.008158097 0.16692379
0.12087872 0.0833952 -0.011741754 0.1564564 -0.18697444 0.11001727 0.033099867 -0.0034925258
0.22837247 0.037689198 0.0883698 0.18626283 -0.16796558 -0.1781361 0.051556755 -0.018649701
0.1271121 -0.1496409 -0.076551355 -0.017497381 0.057165455 0.018133488 -0.15961933 0.044157654
-0.062536865 -0.08135295 -0.10059774 -0.091261625 0.17718825 -0.27437356 0.28502402 0.0250812
0.06256041 -0.15352009 0.29871774 0.18681476 0.045452334 -0.13712583 -0.011727688 0.03305532
-0.05645857 0.104524605 0.10540717 0.18891072 0.077569984 -0.16685688 -0.042470567 0.049374975
0.13793768 -0.17149247 0.16785865 -0.0201414 0.31430203 -0.17841913 0.01933086 0.3815177
-0.018574666 0.22978066 0.36406636 0.17211805 0.34961465 0.54773545 -0.046160154 -0.017512262
0.3679353 0.25929374 0.036842447 0.15670094 0.19563137 0.16596706 0.055768333 -0.16301544
-0.14238647 0.07371578 0.1183041 0.26610023
00000000: 7895 c13d 2a43 4c3e 0ecb b1bb 1bad c73e
00000010: 6b57 4c3e 5a87 573e 6742 f73d 23b3 a33d
00000020: 1200 813c 36b8 633e 5060 1e3e 34e1 3a3d
00000030: 4106 91be 5008 883c 3e45 5a3e 5a7d 123e
00000040: 03aa 83bd 85ea e53d a04b ad3d 9a83 d73d
00000050: 9bb4 313e bc42 d73d 8aa9 05bc 12ee 2a3e
00000060: 438f f73d 1acb aa3d 7c60 40bc 1b36 203e
00000070: 3a76 3fbe bc50 e13d ba93 073d dce2 64bb
00000080: 79da 693e fd5f 1a3d 3afb b43d afbb 3e3e
00000090: 2bff 2bbe 4f69 36be 2d2d 533d 42c7 98bc
000000a0: ad29 023e 773b 19be f5c6 9cbd ab56 8fbc
000000b0: 5326 6a3d ae8c 943c 4073 23be a8de 343d
000000c0: 5413 80bd 609c a6bd 3006 cebd 60e7 babd
000000d0: d670 353e b17a 8cbe abee 913e 1777 cd3c
000000e0: ac1f 803d 5f34 1dbe 88f1 983e 5e4c 3f3e
000000f0: 3a2c 3a3d b76a 0cbe 7d25 40bc 0465 073d
00000100: 1a41 67bd ff10 d63d b7df d73d d071 413e
00000110: 03dd 9e3d 88dc 2abe 9ef5 2dbd 6a3d 4a3d
00000120: 893f 0d3e b99b 2fbe 23e3 2b3e 94ff a4bc
00000130: 32ec a03e 81b3 36be c05b 9e3c 4a56 c33e
00000140: e629 98bc 9f4b 6b3e e866 ba3e b73f 303e
00000150: b100 b33e 6438 0c3f 6e12 3dbd e075 8fbc
00000160: 0462 bc3e 26c2 843e 1be8 163d 3676 203e
00000170: 9753 483e 45f3 293e 566d 643d 85ed 26be
00000180: c2cd 11be 4df8 963d 6c49 f23d 4a3e 883e
