toSubmit/VAE/vae_mnist_weights_32.pth (torch, 755798 bytes, 14 tensors)

encoder.fc1.weight f4 [100, 784]
-0.022732621 -0.003934047 -0.026663061 0.0096588945 -0.02927415 0.033548206 0.012067238 0.033612337
0.03568351 -0.008550393 -0.033410653 0.027711172 0.024503807 0.04563453 0.09597645 0.11975932
-0.0074548 0.024878802 -0.004095725 0.021400027 -0.00843909 0.026893945 -0.026498754 -0.020945814
-0.0056565576 0.033747934 -0.031901207 0.034614455 -0.02393488 0.009738663 -0.028311606 -0.019858962
0.07798986 0.20785959 -0.09873699 -0.09790727 0.038843475 -0.15222007 -0.06273924 -0.07552711
0.015353725 -0.037438896 -0.17524928 -0.013126522 -0.030943016 -0.08167215 -0.009993904 0.0126435775
0.06340945 -0.07860372 -0.12240291 -0.2655445 -0.032903273 0.013893639 -0.009246051 -0.03507593
-0.007110136 -0.012246988 0.074211545 -0.09137985 -0.04863585 0.061054394 -0.08630595 0.08550832
-0.053905245 -0.04740913 0.0112634925 0.0051376293 -0.023368308 0.004705808 0.009309941 -0.05108976
-0.026164375 0.008127706 0.009941282 0.008087266 -0.0441011 0.027674753 0.016580276 -0.0033313443
0.005274784 0.051280513 -0.0028013631 0.017458282 0.02592236 -0.028216848 -0.0074721216 0.067698635
0.019435596 -0.015381995 0.07239515 -0.07130611 0.07715076 -0.0041331653 -0.0025939331 0.02037646
-0.011771712 0.00023495225 0.025927456 -0.013792815 -0.01604908 -0.009075198 -0.021380683 -0.017322138
-0.017148897 -0.05004224 0.0039468235 0.033337675 0.0072438247 -0.15007313 0.2526157 0.024244126
-0.019685742 0.35007426 -0.012169401 0.034599893 0.0581884 -0.008938625 -0.07445631 -0.00018223457
-0.013718883 0.032764085 0.024153283 0.02448474 0.034465443 0.025227226 0.017417677 0.0052527636
-0.009464539 -0.012180425 -0.040867735 -0.039449584 -0.020084284 -0.016951388 0.044129968 0.026835594
0.042065118 0.0077811987 0.058544833 0.20149983 -0.021594735 -0.013434024 0.14060459 0.011715316
0.050434053 -0.0030874559 -0.0057612583 0.029714901 0.057667788 0.04039195 0.020945277 0.024112364
0.017449817 0.0055088187 -0.005228313 -0.008233436 -0.019371998 -0.023697227 -0.039931677 -0.048964385
-0.032240864 -0.04610933 -0.010545603 0.000399825 0.0040644067 0.011279792 0.025799474 -0.41030866
-0.011954508 -0.12636514 0.027227037 0.013601881 -0.019990973 -0.02505596 -0.010146424 0.008840492
0.061822586 0.023585701 0.029324979 0.011554863 -0.0052715903 -0.016063645 0.00071044755 -0.010991312
0.018884994 -0.015593463 -0.01408226 -0.018554581 -0.014306682 -0.02838891 -0.034386292 -0.017013486
-0.0049528214 -0.015637998 -0.0087673105 -0.03272543 0.018165084 -0.14294362 0.0852629 0.02278219
-0.0035007058 0.022120709 -0.010883066 0.008407769 0.04417251 0.023193173 0.0071577374 0.0054069385
-0.02432723 -0.0057063918 -0.005749168 0.013529352 0.026737891 0.035504915 0.008799104 0.00287461
-0.019585123 -0.031089649 -0.046459325 -0.0066060186 -0.016404066 -0.009217549 -0.03250148 -0.11364215
0.21045995 -0.05988381 0.036872912 0.009685976 -0.014809517 -0.028059589 0.024164619 0.031097079
0.026545087 0.041337762 0.011082988 -0.026196748 -0.017736718 -0.017325908 0.009841213 0.0397475
0.036191974 0.035771456 0.02334953 0.013663477 0.011422518 -0.017728077 -0.010381484 0.0051105227
0.014395543 0.033019546 0.05405214 -0.08222047 0.020514095 -0.16774945 -0.061696775 0.024114154
00000000: c339 babc 2ee9 80bb 7e6c dabc 5740 1e3c
00000010: 58d0 efbc d869 093d aab5 453c 17ad 093d
00000020: df28 123d f316 0cbc 9cd9 08bd 8a02 e33c
00000030: 35bc c83c 46eb 3a3d 4d8f c43d 6044 f53d
00000040: 6547 f4bb a1ce cb3c 6e35 86bb 1c4f af3c
00000050: 1c44 0abc b150 dc3c ea13 d9bc 8e96 abbc
00000060: a55a b9bb 463b 0a3d d7aa 02bd e3c7 0d3d
00000070: 1513 c4bc ea8e 1f3c beed e7bc 43af a2bc
00000080: 26b9 9f3d 25d9 543e 9e36 cabd 9b83 c8bd
00000090: 561a 1f3d 94df 1bbe 6e7d 80bd f5ad 9abd
000000a0: 318e 7b3c 8759 19bd 8c74 33be a010 57bc
000000b0: 357c fdbc ba43 a7bd 79bd 23bc 0227 4f3c
000000c0: d0dc 813d fdfa a0bd 60ae fabd 73f5 87be
000000d0: 95c5 06bd 25a2 633c c07c 17bc c7ab 0fbd
000000e0: 25fc e8bb 97a7 48bc 39fc 973d 5c25 bbbd
000000f0: 6336 47bd 2c14 7a3d 2dc1 b0bd fc1e af3d
00000100: bfcb 5cbd 1330 42bd 838a 383c 8f59 a83b
00000110: e56e bfbc 2e33 9a3b b988 183c 7f43 51bd
00000120: ac56 d6bc 122a 053c c2e0 223c 7480 043c
00000130: 5ba3 34bd 2ab6 e23c 5cd3 873c af52 5abb
00000140: 18d8 ac3b 840b 523d 1397 37bb ac04 8f3c
00000150: 215b d43c 0527 e7bc b3d8 f4bb 95a5 8a3d
00000160: 6637 9f3c c304 7cbc e943 943d f008 92bd
00000170: 3801 9e3d 816f 87bb fafe 29bb 89ec a63c
00000180: 24de 40bc 845d 7639 d165 d43c 42fb 61bc
00000190: 5c79 83bc 24b0 14bc 8b26 afbc 28e7 8dbc
000001a0: d87b 8cbc 18f9 4cbd 5b54 813b 168d 083d
000001b0: 9b5d ed3b c5ac 19be d856 813e 9e9b c63c
000001c0: fe43 a1bc ef3c b33e 2b62 47bc 9eb8 0d3d
000001d0: f656 6e3d 5073 12bc 8d7c 98bd 3816 3fb9
000001e0: 2ac5 60bc a233 063d 1bdd c53c 3994 c83c
000001f0: a32b 0d3d 54a9 ce3c 84af 8e3c 601f ac3b
00000200: 2711 1bbc 6890 47bc ed64 27bd e395 21bd
00000210: cc87 a4bc a3dd 8abc a0c1 343d 52d6 db3c
00000220: 794c 2c3d 6df9 fe3b b5cc 6f3d f955 4e3e
00000230: 71e7 b0bc 611a 5cbc a6fa 0f3e 99f1 3f3c
00000240: f093 4e3d ea56 4abb f0c8 bcbb aa6c f33c
00000250: 0f35 6c3d 0872 253d 6e95 ab3c 4b87 c53c
00000260: ebf2 8e3c 5283 b43b 4552 abbb 89e5 06bc
00000270: 06b2 9ebc b020 c2bc 668f 23bd e18e 48bd
00000280: ff0e 04bd 23dd 3cbd 77c7 2cbc 9a9f d139
00000290: b72e 853b e0ce 383c 6b59 d33c fa13 d2be
000002a0: d7dc 43bc dd65 01be 3c0b df3c 6dda 5e3c
000002b0: 1cc4 a3bc 2842 cdbc 303d 26bc b6d7 103c
000002c0: ae39 7d3d cd36 c13c f03a f03c 9c50 3d3c
000002d0: 4ebd acbb e897 83bc 543d 3a3a e714 34bc
000002e0: b4b4 9a3c b97b 7fbc 48b9 66bc c7ff 97bc
000002f0: 9366 6abc dc8f e8bc a4d8 0cbd de5f 8bbc
00000300: 474b a2bb 421b 80bc c4a4 0fbc 1a0b 06bd
00000310: f1ce 943c d05f 12be 519e ae3d b7a1 ba3c
00000320: 196c 65bb 7d36 b53c e34e 32bc bdc0 093c
00000330: 3cee 343d 9cff bd3c 748b ea3b b02c b13b
00000340: e649 c7bc affc babb 8463 bcbb 37aa 5d3c
00000350: 6c09 db3c 9a6d 113d 1e2a 103c f463 3c3b
00000360: fb70 a0bc b8af febc 224c 3ebd 4d77 d8bb
00000370: d261 86bc 3405 17bc 4620 05bd 37bd e8bd
00000380: d082 573e ba48 75bd 0d08 173d eeb1 1e3c
00000390: 9ea3 72bc 39dd e5bc e1f4 c53c 4dbf fe3c
000003a0: 1575 d93c c951 293d 6c95 353c 909a d6bc
000003b0: 984c 91bc 10ef 8dbc 0a3d 213c 46ce 223d
000003c0: 093e 143d 1785 123d 8347 bf3c c7dc 5f3c
000003d0: 8325 3b3c 793a 91bc 1a17 2abc 2c76 a73b
000003e0: 49db 6b3c 813f 073d c765 5d3d 3563 a8bd
000003f0: 2d0d a83c 83c6 2bbe c2b5 7cbd 0c8b c53c

encoder.fc1.bias f4 [100]
0.006179484 0.08609454 -0.21629538 0.0756362 0.6173241 0.17449112 0.4933213 0.64640653
0.6231313 0.088621005 0.16504967 0.0223226 0.07758671 0.5376145 0.37952232 0.60571986
0.6810267 0.11410902 0.5109389 0.43128902 0.34411544 0.21982221 0.34433085 0.19406539
0.019099228 0.6988118 0.5079669 0.32080865 0.11309179 0.4360591 0.2572854 -0.122642934
0.4246238 0.14971709 -0.18332933 0.4752811 -0.29973203 0.4574251 0.20443855 0.26995432
0.090964265 0.4802677 0.5430146 0.77045107 0.595141 0.34365648 0.182102 0.41477913
0.142452 0.69721705 0.2514922 0.0791341 0.40254325 0.5345464 -0.25115794 0.13800865
0.3013096 0.35066795 0.70639235 -0.26773456 0.17115754 0.338841 0.48956877 0.096062765
0.4351191 0.8403471 0.08976203 -0.013515523 0.46652716 0.7279121 -0.032506257 0.17180945
-0.0728534 0.48043355 0.76954937 0.6187525 0.1844268 0.12976266 0.2615724 -0.26104903
0.20559399 0.51756376 0.118759006 0.7538322 0.50878817 0.32514235 0.023521025 0.51640946
0.43983927 0.68593335 0.6469038 0.42383328 0.54982257 0.00489316 0.0891362 0.33536768
0.83306926 0.49025908 -0.017770678 0.42521152
00000000: 457d ca3b 5652 b03d 897c 5dbe 27e7 9a3d
00000010: f408 1e3f cdad 323e 9c94 fc3e e67a 253f
00000020: 8885 1f3f ee7e b53d c802 293e e3dd b63c
00000030: c8e5 9e3d 1ba1 093f c050 c23e 7510 1b3f
00000040: c457 2e3f fdb1 e93d e4cc 023f ead1 dc3e
00000050: e62f b03e 1319 613e 224c b03e 14b9 463e
00000060: fc75 9c3c 55e5 323f 1e0a 023f 0841 a43e
00000070: ab9c e73d 2343 df3e e9ba 833e 382c fbbd
00000080: 4a68 d93e 704f 193e afba 3bbe 0b58 f33e
00000090: 7a76 99be 9f33 ea3e 5758 513e 7437 8a3e
000000a0: 794b ba3d a6e5 f53e 0103 0b3f 483c 453f
000000b0: 295b 183f bef3 af3e f278 3a3e ee5d d43e
000000c0: f0de 113e d17c 323f 96c3 803e 0f11 a23d
000000d0: 261a ce3e 08d8 083f c697 80be 2452 0d3e
000000e0: 4045 9a3e c08a b33e 21d6 343f 8114 89be
000000f0: ec43 2f3e 917c ad3e c2a8 fa3e 8ebc c43d
00000100: eec7 de3e fd20 573f 28d5 b73d 3670 5dbc
00000110: a6dc ee3e 7358 3a3f 4825 05bd d1ee 2f3e
00000120: 2a34 95bd 63fb f53e 3001 453f 9066 1e3f
00000130: 61da 3c3e 81e0 043e d1ec 853e 38a8 85be
00000140: 3b87 523e 0f7f 043f ec37 f33d 26fb 403f
00000150: f13f 023f 0f79 a63e 2aaf c03c 6933 043f
00000160: 9d32 e13e 5499 2f3f 7d9b 253f ad00 d93e
00000170: 2cc1 0c3f cd56 a03b 0a8d b63d 50b5 ab3e
00000180: 0744 553f 3d03 fb3e d093 91bc 53b5 d93e

encoder.fc2.weight f4 [100, 100]
0.07318426 -0.14117701 0.265295 -0.065550126 0.016120162 0.23983198 0.088463366 0.028400475
0.077412575 0.06422692 0.042986512 -0.021139182 0.042083558 0.006024767 0.0810898 -0.00036147336
-0.065782964 0.0055448413 0.0057069114 0.016023327 0.01813054 -0.047118906 0.059906077 -0.024372805
0.022139572 -0.14795354 0.03492864 -0.0017440311 -0.00046746177 -0.0026566938 0.016051473 -0.18962319
-0.013822978 0.1346077 0.15367246 -0.033742547 -0.3843325 -0.09989658 -0.0153025 -0.049646307
0.091820255 0.03209731 0.002731889 -0.316124 0.15762359 0.08465276 -0.05363707 0.07552711
-0.018983863 -0.050951507 0.07502405 0.0220031 -0.054208174 -0.030114964 0.16549477 -0.028736388
0.035757538 -0.028946446 -0.05232089 0.17143226 -0.10024089 0.040728897 0.07423891 0.0017132573
0.042223822 0.011938733 0.027153376 -0.0315815 0.031376723 -0.08231593 0.01898408 -0.04792194
-0.02453591 0.07837227 -0.021321738 0.06357532 -0.06845991 -0.020261867 -0.36228582 0.3735295
-0.025291396 -0.04729734 -0.27408007 0.039941285 0.06780766 -0.07621529 0.035466276 0.01626549
0.03164478 -0.0018328249 0.053271428 -0.034060195 -0.0039348085 -0.029781424 0.09552211 0.10250143
-0.005813542 -0.044930995 0.020545483 0.04148342 -0.020267354 0.17576432 0.0102919005 -0.06595071
0.020053362 0.007998289 0.0067375223 -0.022027252 0.06522964 0.019015847 0.053384602 -0.010040395
-0.02384568 0.054778382 0.01837584 -0.021425297 0.04516859 0.018337734 -0.017847663 0.011554769
0.014142571 0.08523634 0.069289416 0.021551525 0.013358684 -0.0128056 -0.045266625 -0.021136979
0.024911648 -0.018841794 0.08357989 -0.041039675 0.021874746 -0.02524142 0.28796756 -0.009534641
-0.11482031 -0.012899528 0.032724194 0.08309792 -0.077702604 0.040979866 0.07581419 0.13409984
0.029440643 0.06391977 -0.0038822223 -0.056477703 0.06735033 0.0020855975 -0.012906532 0.0135189295
0.045747973 0.051153593 -0.11252805 0.07191595 0.04767744 -0.01269465 0.045316298 0.12785383
-0.034089733 0.0772347 -0.0034608627 0.0036644507 0.0118009895 0.06775451 0.04209291 0.06295685
-0.047646474 -0.014232014 0.004079522 0.04649969 0.06589254 0.07948143 0.011775833 0.12664862
-0.0053003035 0.004397501 -0.11887983 0.1267449 0.083627015 0.014781672 -0.0119776325 0.0050619394
-0.039214592 -0.06596005 -0.018466 0.0044265976 0.046814106 0.032041337 -0.008608914 -0.05160776
0.08476112 0.07207652 -0.0099305585 -0.013714025 -0.009627934 0.10374939 -0.051671963 0.0023134025
0.03908456 0.14147887 -0.01980378 -0.10831445 0.037553784 -0.18544275 0.013124249 0.010160773
-0.04911121 0.052303772 0.039380185 0.074370645 -0.09398228 0.040531956 -0.07873446 -0.08995879
-0.029605899 -0.027856106 -0.017709069 -0.0025380664 0.016144449 0.09809753 0.087430075 0.07224176
-0.0320163 -0.014631991 0.055197105 0.0756864 0.10345811 0.012964991 0.15288173 0.17544231
0.029599126 0.044394214 -0.30641046 0.085954025 0.09954022 0.007336652 -0.0009624408 -0.17651856
-0.08782961 0.0121896565 0.018935546 0.033752017 0.0656552 0.035126813 -0.026827978 -0.013886513
-0.069901004 0.050642915 -0.011780656 -0.076591074 -0.060153835 -0.15174192 0.08433107 -0.087367475
00000000: a1e1 953d b590 10be bfd4 873e 253f 86bd
00000010: 6e0e 843c 8496 753e 482c b53d 1da8 e83c
00000020: 7c8a 9e3d 6789 833d a012 303d 142c adbc
00000030: cf5f 2c3d 696b c53b 6912 a63d 2284 bdb9
00000040: 38b9 86bd 80b1 b53b 0b01 bb3b 5a43 833c
00000050: 8086 943c c1ff 40bd 1360 753d 7aa9 c7bc
00000060: 0c5e b53c 2281 17be 5511 0f3d f997 e4ba
00000070: a815 f5b9 ed1b 2ebb 617e 833c 952c 42be
00000080: c679 62bc 9ad6 093e 505c 1d3e a035 0abd
00000090: 3bc7 c4be 9496 ccbd 56b7 7abc ed59 4bbd
000000a0: 420c bc3d 7878 033d 7e09 333b 01db a1be
000000b0: 1468 213e 6d5e ad3d 8bb2 5bbd f5ad 9a3d
000000c0: 0c84 9bbc 87b2 50bd 36a6 993d d83f b43c
000000d0: 6409 5ebd a8b3 f6bc 7677 293e 9368 ebbc
000000e0: 7f76 123d 1921 edbc 6e4e 56bd f08b 2f3e
000000f0: 194b cdbd 58d3 263d 920a 983d 608f e03a
00000100: e3f2 2c3d ad9a 433c c270 de3c 9a5b 01bd
00000110: e184 003d 4195 a8bd 8084 9b3c cc49 44bd
00000120: 88ff c8bc a481 a03d edaa aebc c733 823d
00000130: b634 8cbd 37fc a5bc 877d b9be 423f bf3e
00000140: e72f cfbc dbba 41bd 3954 8cbe 7999 233d
00000150: bede 8a3d c316 9cbd 1645 113d 343f 853c
00000160: f59d 013d 663b f0ba 2433 5a3d b482 0bbd
00000170: 91ef 80bb 2cf8 f3bc 19a1 c33d 45ec d13d
00000180: 867f bebb 9009 38bd 004f a83c 85ea 293d
00000190: b907 a6bc 90fb 333e 5c9f 283c 2a11 87bd
000001a0: f346 a43c 410b 033c 6fc6 dc3b 7f72 b4bc
000001b0: 1e97 853d 1fc7 9b3c d0a9 5a3d 7880 24bc
000001c0: 0458 c3bc 4c5f 603d ee88 963c 1b84 afbc
000001d0: b302 393d 0439 963c 4335 92bc 3750 3d3c
000001e0: 3eb6 673c 6490 ae3d 9ce7 8d3d d38c b03c
000001f0: 62de 5a3c 94ce 51bc 7f69 39bd 7527 adbc
00000200: 8313 cc3c 1b5a 9abc ef2b ab3d 3819 28bd
00000210: ab32 b33c 18c7 cebc 7c70 933e 2f37 1cbc
00000220: e926 ebbd 8b58 53bc ce09 063d 3e2f aa3d
00000230: 8b22 9fbd 81da 273d 7844 9b3d 7851 093e
00000240: 812d f13c 5ee8 823d e26c 7ebb 2a55 67bd
00000250: f8ee 893d 85ae 083b eb75 53bc 807e 5d3c
00000260: 3a62 3b3d 6e86 513d 1b75 e6bd ab48 933d
00000270: 6b49 433d 39fd 4fbc 959d 393d 1dec 023e
00000280: ada1 0bbd 3a2d 9e3d a4cf 62bb 4827 703b
00000290: f058 413c e0c2 8a3d 9d69 2c3d 85ef 803d
000002a0: f328 43bd 652d 69bc 83ad 853b 7576 3e3d
000002b0: abf2 863d 29c7 a23d 6cef 403c 2db0 013e
000002c0: 2bae adbb e918 903b 4577 f3bd 6ac9 013e
000002d0: a444 ab3d d32e 723c d53d 44bc a0de a53b
000002e0: 7b9f 20bd 1016 87bd 0246 97bc fe0c 913b
000002f0: 26c0 3f3d c73d 033d 670c 0dbc a962 53bd
00000300: 3d97 ad3d db9c 933d c8b3 22bc cab0 60bc
00000310: 7bbe 1dbc 8f7a d43d fba5 53bd 749c 173b
00000320: 2217 203d d6df 103e 893b a2bc f7d3 ddbd
00000330: ffd1 193d b4e4 3dbe 1707 573c 5f79 263c
00000340: d628 49bd 7b3c 563d 1e4d 213d a34f 983d
00000350: c879 c0bd d604 263d 883f a1bd 503c b8bd
00000360: 1288 f2bc 7d32 e4bc 9c12 91bc b055 26bb
00000370: 5d41 843c 5ce7 c83d 8a0e b33d 7df3 933d
00000380: 8623 03bd 05bb 6fbc 5c16 623d 7901 9b3d
00000390: d8e1 d33d 1d6b 543c 078d 1c3e 26a7 333e
000003a0: de79 f23c b5d6 353d d5e1 9cbe aa08 b03d
000003b0: bedb cb3d 4c68 f03b 4f4c 7cba 48c1 34be
000003c0: 03e0 b3bd 20b7 473c b81e 9b3c 8e3f 0a3d
000003d0: 3c76 863d 22e1 0f3d 59c6 dbbc 4284 63bc
000003e0: 4228 8fbd f26e 4f3d a703 41bc c8db 9cbd
000003f0: de63 76bd 3c62 1bbe c5b5 ac3d b8ed b2bd

encoder.fc2.bias f4 [100]
-0.028502677 0.06494745 0.034365337 0.06278937 0.5187015 -0.037004497 -0.03917724 -0.043787654
0.06059106 0.10984662 0.17875987 0.007468326 -0.024762526 0.09612989 0.07834823 0.06660384
0.17987417 0.09587076 0.09423919 0.14581363 0.06473526 -0.09382147 0.06536798 -0.0105072195
-0.033176232 0.14216168 0.03372597 -0.041860495 0.07030164 0.19831969 -0.12997651 0.05969886
-0.029253896 -0.07706231 0.020690136 0.03727104 0.0285315 -0.10474299 -0.044370517 -0.027505549
-0.036992095 0.088634685 0.18510844 -0.06648759 0.06016292 -0.0011948295 0.12044363 -0.12649749
-0.17344666 -0.07791871 0.06141136 -0.00039787262 0.07450034 0.05735964 0.014387987 0.115714125
0.10646585 -0.009018079 0.087471984 0.024131062 -0.11747227 -0.07205891 -0.08870481 0.04228383
0.06824215 0.07062838 -0.109886 0.1923937 0.12633443 -0.017559865 0.019630063 0.045104798
0.02776117 0.04847403 0.06468654 0.16579118 0.09883758 -0.0040051565 0.064841524 0.23404814
-0.029834142 -0.076678805 0.039883498 0.10713553 -0.03675202 0.015320449 0.033828974 0.013368417
0.038724553 0.0054560145 -0.070689216 0.04138184 0.12161044 -0.0008087569 -0.016887004 -0.013417018
-0.040440157 -0.040258024 0.043191776 -0.07591521
00000000: 727e e9bc 2b03 853d abc2 0c3d b797 803d
00000010: 9fc9 043f 0792 17bd 5078 20bd af5a 33bd
00000020: 552e 783d 44f7 e03d d40c 373e dcb8 f43b
00000030: c8da cabc bfdf c43d 0975 a03d 9867 883d
00000040: ef30 383e e457 c43d 7a00 c13d 2b50 153e
00000050: ec93 843d 7925 c0bd a6df 853d 7926 2cbc
00000060: cde3 07bd d592 113e 3e24 0a3d e975 2bbd
00000070: 4efa 8f3d 5114 4b3e 9018 05be cb86 743d
00000080: dea5 efbc d8d2 9dbd 5c7e a93c 85a9 183d
00000090: e4ba e93c 7e83 d6bd dcbd 35bd 5153 e1bc
000000a0: 0685 17bd 1a86 b53d 118d 3d3e a52a 88bd
000000b0: 656d 763d d39b 9cba 26ab f63d 8f88 01be
000000c0: 009c 31be d893 9fbd 7a8a 7b3d 8f99 d0b9
000000d0: a293 983d f1f1 6a3d 97bb 6b3c 87fb ec3d
000000e0: c40a da3d 91c0 13bc 8324 b33d 81ae c53c
000000f0: 4d95 f0bd 9f93 93bd deaa b5bd cf31 2d3d
00000100: 8ac2 8b3d 9da5 903d e90b e1bd db02 453e
00000110: d05d 013e b5d9 8fbc 3acf a03c cfbf 383d
00000120: 656b e33c b48c 463d 607a 843d 2ac5 293e
00000130: 5b6b ca3d b03d 83bb a2cb 843d 51aa 6f3e
00000140: bb66 f4bc c709 9dbd e15c 233d df69 db3d
00000150: 4989 16bd 9f02 7b3c 4090 0a3d 3407 5b3c
00000160: a39d 1e3d 5ec8 b23b 82c5 90bd 0180 293d
00000170: e50e f93d c202 54ba 9d56 8abc 0dd3 5bbc
00000180: 94a4 25bd 99e5 24bd dce9 303d 6f79 9bbd

encoder.fc_mean.weight f4 [32, 100]
-0.18216422 0.1400192 0.027429955 -0.033485472 -0.108767375 0.08356357 0.045846928 0.21225247
0.082582 -0.04758402 0.07731542 -0.11339763 -0.086243935 -0.06923075 0.017605571 0.099324815
-0.033539493 -0.03334621 -0.1390591 -0.12890926 0.14976023 -0.004079479 0.027712446 -0.026481094
-0.050022557 0.14196172 -0.025489774 0.087044224 0.019304326 -0.18216404 -0.09660625 -0.07903815
-0.05802383 -0.1611453 -0.004670341 0.12182543 0.03901809 0.014322713 -0.0034110358 -0.1148888
0.089169666 -0.02289385 0.07862422 -0.025219664 -0.017794322 0.020787237 0.010665239 0.058570392
0.06716686 -0.021024356 -0.15539204 -0.10616385 -0.16205296 -0.1153519 0.105855316 0.017564164
-0.083717994 0.074288286 0.00070843403 0.02981194 0.09073951 0.034674257 -0.07904556 -0.11821218
-0.04247034 0.10914113 0.035066742 -0.04380837 -0.13392426 -0.17348391 -0.07667812 0.046408102
0.027682278 -0.10434811 -0.10658509 -0.032039627 -0.08553458 0.026631525 -0.094866626 0.030792011
-0.11535273 -0.029717864 -0.00030647524 0.008262925 -0.14422867 -0.025637656 -0.12257868 -0.059131652
-0.11365892 -0.11105491 0.008725565 0.09606346 -0.111240074 0.13263367 0.16921419 0.09701612
-0.23722105 0.037594702 0.057854824 -0.03900593 0.0064929207 -0.016972627 0.057060424 0.040313777
-0.055692527 -0.06602323 -0.041312434 0.13032492 -0.07886122 -0.08285639 0.02952512 0.07718718
0.010059773 0.16372246 -0.005281877 0.060704716 -0.005126733 -0.08990141 0.20749098 -0.001833951
0.1361366 0.045040492 -0.03386068 -0.058269773 -0.038419038 0.034353033 -0.005643721 0.021211585
0.13139418 0.01832537 0.06107688 0.04964254 -0.11446752 -0.05867371 0.07345407 -0.04975233
0.09210923 -0.10907062 -0.01756523 -0.008259276 -0.0376129 -0.055432178 0.043330636 -0.044263728
-0.1111644 0.061612524 0.019895812 0.044219878 0.10121325 0.063551664 -0.04629197 0.016035253
-0.06538705 0.11604349 -0.10482154 0.024555657 0.012845033 -0.034413833 0.14271727 0.031440917
0.12019409 0.090278804 0.06885407 0.03719136 0.09268071 -0.073910095 -0.03251915 -0.00284232
-0.062407766 0.050029144 0.014392727 0.03329577 -0.012736408 -0.05967692 -0.037987016 0.04608954
-0.07210589 -0.01704656 -0.02095556 -0.053463053 0.07923793 0.10591909 -0.032369584 0.04762669
-0.11282921 -0.06437498 0.008708132 0.047836885 0.03229795 0.06970409 -0.042905144 0.08929685
-0.0027142386 0.045105264 -0.07270017 -0.08406145 0.2051175 0.086214855 -0.062222138 0.026530951
0.012574045 -0.002682259 -0.04982059 0.033609517 0.04326565 -0.025068237 0.0007710606 -0.15442076
0.105948575 0.011954583 0.06265252 0.07524663 0.12297192 -0.039274443 -0.24568203 0.06942069
-0.015444649 -0.03767982 0.13403875 -0.15009232 0.03737906 0.06607627 -0.09063484 -0.07855542
0.00173964 0.03208187 -0.063736744 -0.027880022 -0.082617626 0.07207034 0.08886944 -0.089842066
-0.036640354 0.02474459 -0.22090341 0.14009854 -0.23272038 0.07789681 -0.06424587 0.068887234
-0.034326363 -0.118776724 -0.084359236 0.040285803 0.009280805 -0.014769623 -0.05905671 -0.031282436
-0.08611091 -0.17069381 -0.041271467 0.18240182 0.07589328 -0.03345927 -0.04136696 0.004710304
00000000: 4289 3abe 3161 0f3e c9b4 e03c 1028 09bd
00000010: 6ec1 debd 6123 ab3d fdc9 3b3d b658 593e
00000020: c020 a93d 76e7 42bd 8c57 9e3d 043d e8bd
00000030: a9a0 b0bd dac8 8dbd 8f39 903c cf6a cb3d
00000040: b560 09bd 0996 08bd 8265 0ebe ca00 04be
00000050: bf5a 193e 26ad 85bb 3605 e33c e1ee d8bc
00000060: 74e4 4cbd 6a5e 113e eecf d0bc 3e44 b23d
00000070: 1b24 9e3c 3689 3abe 7fd9 c5bd c1de a1bd
00000080: 65aa 6dbd 4603 25be a909 99bb 9c7f f93d
00000090: 6fd1 1f3d d0a9 6a3c af8b 5fbb d24a ebbd
000000a0: 969e b63d e28b bbbc bc05 a13d 7899 cebc
000000b0: 66c5 91bc ff49 aa3c 41bd 2e3c 82e7 6f3d
000000c0: c78e 893d 453b acbc 171f 1fbe 6f6c d9bd
000000d0: 36f1 25be 9e3d ecbd acca d83d b9e2 8f3c
000000e0: 5774 abbd 7524 983d 34b6 393a 2b38 f43c
000000f0: a3d5 b93d 9806 0e3d a3e2 a1bd 3a19 f2bd
00000100: 61f5 2dbd 6285 df3d 25a2 0f3d 6870 33bd
00000110: 7123 09be c4a5 31be 6b09 9dbd 6c16 3e3d
00000120: f2c5 e23c 76b4 d5bd 4949 dabd fc3b 03bd
00000130: c12c afbd 5b2a da3c 6f49 c2bd 873f fc3c
00000140: 0d3e ecbd e172 f3bc 69ae a0b9 3861 073c
00000150: aeb0 13be 1006 d2bc 880a fbbd 0834 72bd
00000160: 02c6 e8bd c270 e3bd acf5 0e3c ebbc c43d
00000170: d6d1 e3bd 1fd1 073e 7c46 2d3e 63b0 c63d
00000180: 13ea 72be e7fc 193d 2ef9 6c3d afc4 1fbd
00000190: 91c2 d43b 2e0a 8bbc 31b8 693d 0f20 253d
000001a0: d91d 64bd 3037 87bd 3a37 29bd e573 053e
000001b0: fe81 a1bd 9cb0 a9bd aade f13c 5014 9e3d
000001c0: bfd1 243c dca6 273e 9813 adbb 82a5 783d
000001d0: 27fe a7bb 3b1e b8bd 8478 543e 2f61 f0ba
000001e0: 6567 0b3e 617c 383d 7fb1 0abd 49ac 6ebd
000001f0: 485d 1dbd c4b5 0c3d f7ee b8bb ebc3 ad3c
00000200: 328c 063e 161f 963c c02b 7a3d fa55 4b3d
00000210: f26d eabd d853 70bd 166f 963d 19c9 4bbd
00000220: c4a3 bc3d 6b60 dfbd f5e4 8fbc ea51 07bc
00000230: fc0f 1abd da0c 63bd 777b 313d e24d 35bd
00000240: 29aa e3bd 6a5d 7c3d 8bfc a23c e71f 353d
00000250: e448 cf3d 6027 823d a69c 3dbd 5d5c 833c
00000260: a5e9 85bd 36a8 ed3d adac d6bd f228 c93c
00000270: f973 523c 85f5 0cbd 7a24 123e 31c8 003d
00000280: 5228 f63d 18e4 b83d 5d03 8d3d f855 183d
00000290: 62cf bd3d 2d5e 97bd cd32 05bd 3746 3abb
000002a0: 499f 7fbd 5ceb 4c3d 79cf 6b3c 2561 083d
000002b0: 5eac 50bc c96f 74bd 4698 1bbd 63c8 3c3d
000002c0: 41ac 93bd 3aa5 8bbc ffaa abbc 13fc 5abd
000002d0: 7f47 a23d 1cec d83d f895 04bd 3414 433d
000002e0: 0013 e7bd 08d7 83bd 8eac 0e3c 9cf0 433d
000002f0: db4a 043d 05c1 8e3d 4ebd 2fbd 44e1 b63d
00000300: 5ee1 31bb 4cc0 383d d4e3 94bd 6928 acbd
00000310: 520a 523e 6a91 b03d a4dc 7ebd 7057 d93c
00000320: 5e03 4e3c d7c8 2fbb ad10 4cbd 22aa 093d
00000330: 5237 313d e75b cdbc 0021 4a3a 7a20 1ebe
00000340: 91fb d83d 28dd 433c f74f 803d e81a 9a3d
00000350: b4d8 fb3d 3dde 20bd 1294 7bbe 6f2c 8e3d
00000360: 8e0b 7dbc 2856 1abd 7441 093e cdb1 19be
00000370: c91a 193d ff52 873d c29e b9bd aae1 a0bd
00000380: a204 e43a 4768 033d 6988 82bd a564 e4bc
00000390: 6e33 a9bd 9d99 933d 2e01 b63d 1eff b7bd
000003a0: 3214 16bd 2bb5 ca3c 8134 62be fe75 0f3e
000003b0: 404e 6ebe 5d88 9f3d 5793 83bd c014 8d3d
000003c0: cd99 0cbd 3641 f3bd 89c4 acbd ba02 253d
000003d0: 840e 183c 4afc 71bc 73e5 71bd 0322 00bd
000003e0: eb5a b0bd 5cca 2ebe 450c 29bd 8bc7 3a3e
000003f0: f06d 9b3d 960c 09bd 6770 29bd e558 9a3b

encoder.fc_mean.bias f4 [32]
0.046804357 -0.009605091 0.033456616 0.015543604 -0.08211776 -0.024546763 -0.0067466344 0.0013344683
0.018784594 -0.014898939 0.06415044 -0.0024317827 0.072963536 -0.012090125 -0.09505587 -0.0068673524
0.0036282477 0.06826968 0.05103034 -0.07925238 0.05617955 0.10413618 -0.019588683 0.036140632
0.009832702 0.004511869 0.05833532 -0.026971145 -0.019237 -0.044536278 0.108042784 0.028391065
00000000: edb5 3f3d ac5e 1dbc ce09 093d 9aaa 7e3c
00000010: 5b2d a8bd 4b16 c9bc df12 ddbb 53e9 ae3a
00000020: 26e2 993c ae1a 74bc 4e61 833d 8b5e 1fbb
00000030: e86d 953d a915 46bc a7ac c2bd 8707 e1bb
00000040: e5c7 6d3b f9d0 8b3d 3105 513d 124f a2bd
00000050: 871c 663d 5945 d53d 7278 a0bc 3308 143d
00000060: 5719 213c 4dd8 933b 04f1 6e3d 97f2 dcbc
00000070: ea96 9dbc ac6b 36bd 8945 dd3d 6194 e83c

encoder.fc_var.weight f4 [32, 100]
0.001157053 0.0013563305 0.001260118 0.002217182 0.0033805135 -0.002030154 -0.0040455656 0.00050169486
0.0013810411 -0.00341339 0.0007834034 -0.0029332333 0.00036911265 -0.00068401813 -0.0019195373 0.0026040191
0.0035755693 0.004841669 -0.00044578646 -0.0020516403 0.0009449352 -0.00573828 -0.0019325553 0.0036294677
0.0010915424 -0.0033483207 -0.002587728 0.0009908929 -0.001305314 0.001254629 -0.00088875566 -0.007834301
0.027908923 -0.021587385 -0.0014072071 0.0008019782 -0.0016078649 -0.005306712 -0.0029780068 -0.002960378
0.011548858 0.004321566 -0.0012328894 -0.0024216403 -0.0118550295 0.0031869286 -0.00407202 0.020637073
0.009797644 -0.029133424 0.010491012 -0.0014166262 -0.00069484074 0.0029280863 -0.0084613655 0.00026088956
0.0073322104 -0.003019631 0.00017508765 -0.0058329944 -0.0018704848 -0.0009197128 -0.001456232 0.010180806
0.0043788557 0.013012608 -0.00013235121 0.0020352716 -0.0039030942 -0.0024295643 0.004170662 -0.000447379
0.0002232477 -0.0015810244 0.0012578026 0.004120362 -0.004024982 4.6148503e-05 0.0010005822 -0.003314402
-0.0029102138 -0.0047544464 -0.011330317 0.0026314247 0.0030045235 0.009755947 0.0026908265 -0.004847304
-0.00051530905 0.0011647759 -0.0002414419 -0.008976614 -0.0013034277 -0.0013864308 0.008669976 0.000806124
-0.0058007366 -0.003014102 0.0021637098 -0.0053085815 -0.0013550663 -8.6666965e-05 0.00092944724 -0.0027811571
-0.0002108212 0.0006751158 0.0018233596 0.0009852719 -0.0021242485 -0.0052736886 0.01337468 0.0006584205
-8.699164e-06 0.00040074013 -0.0033723502 0.00090904196 0.005146928 -0.0017165415 0.006524112 0.004357676
-0.00034506616 -0.0008933224 0.0051577277 -0.00836803 0.0007974475 -0.0010124486 -0.006126876 -0.0068488936
-0.0038603693 0.0034323414 0.00044426846 0.000545675 -0.020202177 0.026378484 0.0027445853 0.00023157187
-0.00026908185 0.0015695214 -0.0037393447 0.0008859622 0.0031213996 -0.00146486 0.0031831034 -0.0025274253
-0.007545416 0.0015757448 -0.005619667 0.06811639 -0.0036656281 0.0025244844 0.0056861434 -0.0052112597
0.00054972107 0.0033284437 -0.0010081744 -0.00080530724 0.017941149 -0.0004966879 0.0028771276 -0.0041697165
-0.0027324397 -0.0013881578 -0.0055091013 0.0068014576 0.0060081654 0.006953278 -0.008390855 0.005169004
0.0012884362 0.0013449576 -0.001474177 0.008393362 0.0012211493 0.006102222 -0.0016308296 -0.0009496543
-0.0016577843 -0.00041864841 0.009345562 -0.0005265395 0.0040039117 -0.0016093813 -0.0062695723 -0.00042798795
-0.0017125792 0.0100973165 0.0018478844 -0.001152144 0.002789295 0.00272357 0.0002349886 -0.0018325285
0.0008593728 -0.00017820184 0.006327174 -0.0021169158 0.0032265265 0.00077112124 -0.0015298661 -0.005504769
0.0015849969 0.0155533245 0.00019833306 0.00135121 0.003158243 -0.008884049 -0.0013628335 0.00033345137
-0.007271203 -0.008479515 0.01154237 0.0010279418 0.0010127575 -0.0052788504 -0.0015973785 0.0013720752
-0.00033333173 0.008717753 -0.0021698007 0.0027440893 -0.0021602132 -0.0050515574 0.0055324887 0.0037498306
0.0011719875 0.0007132191 -0.004400345 0.00020441363 -0.010255753 0.0010703348 -0.00016219672 -0.0016413645
0.009910005 -0.035494767 0.00014124103 -0.0012684846 0.0007101947 -0.0062093562 0.002258782 0.0017443335
0.009856939 -0.0010539502 -0.0013067058 -0.003553273 -0.022063104 -0.0013784807 -0.002001217 0.076723926
-0.027542334 0.04315946 0.010476723 -0.007298558 0.0023080348 -0.002762248 -0.009333824 -0.0013795128
00000000: 42a8 973a e6c6 b13a 8b2a a53a 244e 113b
00000010: 9b8b 5d3b 550c 05bb aa90 84bb 2c84 033a
00000020: 0d04 b53a 2eb3 5fbb 505d 4d3a 7d3b 40bb
00000030: 7685 c139 ae4f 33ba fc98 fbba 31a8 2a3b
00000040: 1954 6a3b dda6 9e3b 72b8 e9b9 d074 06bb
00000050: 87b5 773a 2e08 bcbb cc4d fdba 5ddc 6d3b
00000060: 1612 8f3a 806f 5bbb df96 29bb d9e0 813a
00000070: 1217 abba 5d72 a43a 62fb 68ba 715b 00bc
00000080: 41a1 e43c 07d8 b0bc 0972 b8ba d93b 523a
00000090: febe d2ba ede3 adbb aa2a 43bb e702 42bb
000000a0: 6c37 3d3c ec9b 8d3b e798 a1ba 62b4 1ebb
000000b0: 993b 42bc cadb 503b 946e 85bb 140f a93c
000000c0: 4c86 203c 38a9 eebc 7ee2 2b3c 16ae b9ba
000000d0: f925 36ba 23e5 3f3b 8aa1 0abc 01c8 8839
000000e0: 0a43 f03b 00e5 45bb bc97 3739 b422 bfbb
000000f0: 0e2b f5ba e218 71ba 0adf beba 65cd 263c
00000100: 817c 8f3b d532 553c c2c7 0ab9 3162 053b
00000110: 0ecb 7fbb 5339 1fbb 0caa 883b 318e eab9
00000120: 9917 6a39 603a cfba dadc a43a 1a04 873b
00000130: ffe3 83bb 948f 4138 f825 833a 7036 59bb
00000140: 49b9 3ebb 30cb 9bbb cba2 39bc fb73 2c3b
00000150: 8ae7 443b 68d7 1f3c 9458 303b 22d6 9ebb
00000160: ce15 07ba 65ab 983a 912b 7db9 a612 13bc
00000170: c7d7 aaba e6b8 b5ba 840c 0e3c 1152 533a
00000180: 1b14 bebb 3e88 45bb 07cd 0d3b 9cf3 adbb
00000190: 7b9c b1ba f9c0 b5b8 26a6 733a 1344 36bb
000001a0: e30f 5db9 41fa 303a ccfd ee3a 3d24 813a
000001b0: fa36 0bbb e8ce acbb 7921 5b3c da99 2c3a
000001c0: a0f2 11b7 6e1a d239 a602 5dbb c64c 6e3a
000001d0: 90a7 a83b 93fd e0ba 38c8 d53b d6ca 8e3b
000001e0: ffe9 b4b9 da2d 6aba 2802 a93b 101a 09bc
000001f0: cc0b 513a 23b4 84ba f6c3 c8bb af6c e0bb
00000200: 40fe 7cbb 22f1 603b b4ec e839 a10b 0f3a
00000210: 097f a5bc b117 d83c 80de 333b 1ad2 7239
00000220: 8e13 8db9 66b8 cd3a cb0f 75bb eb3f 683a
00000230: 6590 4c3b 8c00 c0ba 9d9b 503b 29a3 25bb
00000240: 893f f7bb 3989 ce3a 2f25 b8bb 9b80 8b3d
00000250: 093b 70bb d271 253b d452 ba3b 37c3 aabb
00000260: 281b 103a 0522 5a3b b824 84ba 411b 53ba
00000270: 51f9 923c 2934 02ba 318e 3c3b 1ea2 88bb
00000280: bb12 33bb d9f2 b5ba b185 b4bb c3de de3b
00000290: 25e0 c43b 53d8 e33b cc79 09bc c060 a93b
000002a0: bfe0 a83a 4a49 b03a 2c39 c1ba 5084 093c
000002b0: f90e a03a 26f5 c73b 90c1 d5ba 39f2 78ba
000002c0: 034a d9ba 0a7e dbb9 211e 193c 7807 0aba
000002d0: 3f33 833b e0f1 d2ba fc70 cdbb 9263 e0b9
000002e0: 9f78 e0ba 376f 253c b634 f23a 8a03 97ba
000002f0: 9bcc 363b ec7d 323b 4667 7639 7431 f0ba
00000300: 8847 613a b1db 3ab9 2f54 cf3b f4bb 0abb
00000310: 2274 533b 1225 4a3a ca85 c8ba 5961 b4bb
00000320: acbf cf3a 5fd3 7e3c a0f7 4f39 161b b13a
00000330: 86fa 4e3b 678e 11bc 1ba1 b2ba 16d3 ae39
00000340: 4643 eebb aaed 0abc 351c 3d3c 01bc 863a
00000350: 81be 843a 35fa acbb 215f d1ba 34d7 b33a
00000360: 07c3 aeb9 e8d4 0e3c 3733 0ebb 2ed6 333b
00000370: 5d92 0dbb 8987 a5bb e149 b53b b8bf 753b
00000380: 609d 993a 53f7 3a3a c530 90bb de57 5639
00000390: bf07 28bc 7a4a 8c3a 5a13 2ab9 0e23 d7ba
000003a0: 935d 223c f662 11bd 1a1a 1439 4843 a6ba
000003b0: 5c2c 3a3a db77 cbbb 1308 143b 1fa2 e43a
000003c0: 007f 213c b324 8aba c545 abba 07de 68bb
000003d0: afbd b4bc 23ae b4ba da26 03bb 6f21 9d3d
000003e0: 76a0 e1bc f9c7 303d 90a6 2b3c be28 efbb
000003f0: 6642 173b d506 35bb e5ec 18bc c5d0 b4ba

encoder.fc_var.bias f4 [32]
-0.0014496952 -0.007052941 -0.0052739773 0.011302096 -0.009171064 -0.015360341 -0.004939854 -0.000764661
0.0012899322 -0.0026096667 0.004829009 -0.0067673917 -0.009970158 0.0014420596 0.006681185 0.0029263992
0.0057618036 -0.008687351 0.004930888 0.007339766 0.012045538 0.0036984815 0.00059178943 -0.0024439604
-0.004617237 0.009657127 -0.0040996615 -0.0056203343 -3.53641e-05 0.0071392814 0.005319295 -0.0043109786
00000000: b303 beba 5b1c e7bb 54d1 acbb 6d2c 393c
00000010: 3b42 16bc f1a9 7bbc 80de a1bb 8873 48ba
00000020: f112 a93a f106 2bbb aa3c 9e3b ffc0 ddbb
00000030: e059 23bc 7e03 bd3a d8ed da3b d5c8 3f3b
00000040: 83cd bc3b 6455 0ebc 4993 a13b 6b82 f03b
00000050: a65a 453c 3962 723b 5122 1b3a da2a 20bb
00000060: 314c 97bb ed38 1e3c 7456 86bb c82a b8bb
00000070: ea53 14b8 a2f0 e93b 7b4d ae3b 1c43 8dbb

decoder.fc1.weight f4 [100, 32]
0.31034023 0.48634782 1.2666436 1.0210884 -0.7622779 -0.66154397 1.3522402 -1.3542676
-0.68115515 0.94497114 0.8128592 -0.5898309 -0.020739032 0.22655462 -0.43267962 -0.54570985
-0.28146827 -0.76037204 -0.14911348 1.0069188 0.04158241 -0.26555192 0.31633657 1.7769622
-0.1470098 0.39680368 1.1748699 -0.71856785 -0.46341157 0.15601483 -0.026712582 -1.2572174
0.4510824 0.57763714 -0.47051984 -0.848141 1.4629086 -0.5032693 -0.7953478 0.76281464
0.5605656 0.23254718 0.9227626 -0.57626015 0.7289999 0.8357154 0.8070717 -0.31611705
0.064569674 0.910231 1.1668655 -1.2550093 -0.31584698 -0.7634698 -0.20491861 -0.40708783
-0.67612964 0.62728226 -0.013042142 -0.7441058 -0.12175502 -0.92893624 0.883767 0.548125
0.4706511 0.77231777 1.2149992 -0.32787293 -0.29009965 -0.030559128 0.13650434 0.2198149
0.6755518 0.087432854 0.1723716 -0.48267955 0.46977672 0.7249892 -0.71535856 -0.21592976
0.17840043 1.0863096 -0.372803 0.3430368 -0.06139915 0.17650035 0.680391 0.21469045
-1.3822956 0.47471574 -0.07614374 -0.53869826 0.12654722 1.2074925 0.38589096 0.03133048
-0.14642832 -1.1113731 0.5062373 0.23633625 0.040904645 0.088877894 -0.2557749 -0.34756905
0.83726966 1.2991017 -0.075524956 -0.0042874687 2.1793923 0.24972424 0.78488827 -0.1829029
0.062903345 0.6723013 -0.3629982 -1.022627 0.703105 -0.34477857 -0.41433322 -0.8308943
-0.48224875 -1.3942757 -0.95737416 0.09386435 0.3859057 0.97446424 0.4732035 -1.45902
0.6482202 -0.43320534 0.5786761 -0.7840577 0.8556226 -0.31002405 -0.37004077 -0.15687872
0.04116637 -1.0214959 0.52810174 0.16359207 0.059872467 1.23003 0.028829847 0.34732932
0.15254599 0.55239296 -0.093005836 1.0592595 0.5952642 0.05789917 -0.2297508 1.2675444
-0.7817278 0.39874104 -0.8289248 -0.3291687 -0.47980216 0.1873934 0.56004053 0.136332
0.63086236 1.1732224 0.33271486 0.28730366 0.2113212 -0.05009322 -0.4562365 -0.32670125
0.18901524 0.18398282 -0.39186886 -0.73592883 0.4303605 0.020966604 -0.7476374 -0.34760082
0.58754 0.083640754 -0.22576036 -0.32561633 -0.030637488 -0.6041467 -0.8151003 0.2867818
-0.56508833 -0.41502145 -0.15643202 0.0723865 -0.1789405 0.81882507 0.2407845 1.0427024
-0.23175585 0.3781466 0.36733633 0.03243399 -0.6990913 -0.070015885 -0.058842514 -0.0017092865
-0.008425851 -0.20095463 0.37478215 0.16445157 -0.3393799 0.7441692 -0.3139219 0.0760044
0.46507555 0.902897 0.11005541 -0.07339722 -1.214445 -0.83387005 0.12016028 0.4698517
0.610527 -0.88344175 0.59556985 -0.7768175 -0.17980286 -0.0268493 0.09170638 -0.036806725
-0.6590472 1.1673379 -0.76136744 0.98286355 -0.44500634 0.14589696 -0.82946724 -0.20023352
-0.01628939 -0.43644774 0.24721359 0.04537382 -1.6076741 -0.103690796 0.81445986 -1.2837714
0.19955754 -0.3957503 0.3833786 -0.82424724 0.9072199 -0.12682104 -0.30244246 -0.12722862
-0.94937634 -0.42766535 -1.0099674 -1.1280746 -0.30737147 -0.29513463 0.726504 0.17456433
00000000: eae4 9e3e 9502 f93e 6121 a23f 06b3 823f
00000010: a524 43bf f25a 29bf 3516 ad3f a458 adbf
00000020: 2f60 2ebf a1e9 713f 8a17 503f 28ff 16bf
00000030: e7e4 a9bc effd 673e 2f88 ddbe a4b3 0bbf
00000040: 9c1c 90be bea7 42bf 34b1 18be b7e2 803f
00000050: 5152 2a3d 6cf6 87be def6 a13e 7f73 e33f
00000060: bd89 16be da29 cb3e 2362 963f 10f4 37bf
00000070: 4844 edbe 5ac2 1f3e 58d4 dabc 80ec a0bf
00000080: 46f4 e63e 07e0 133f fae7 f0be c51f 59bf
00000090: 9740 bb3f 42d6 00bf ea9b 4bbf d247 433f
000000a0: 3a81 0f3f d920 6e3e 2b3a 6c3f c985 13bf
000000b0: bd9f 3a3f 72f1 553f 409c 4e3f 18da a1be
000000c0: 1b3d 843d e604 693f d95b 953f 25a4 a0bf
000000d0: b2b6 a1be c272 43bf 2fd6 51be d16d d0be
000000e0: d516 2dbf 9295 203f b5ae 55bc b87d 3ebf
000000f0: b25a f9bd c4ce 6dbf 8e3e 623f ec51 0c3f
00000100: 2ef9 f03e 9eb6 453f 1885 9b3f f6de a7be
00000110: f187 94be 2357 fabc cbc7 0b3e 2817 613e
00000120: f6f0 2c3f ff0f b33d 2e82 303e c621 f7be
00000130: 9386 f03e e498 393f bd21 37bf b11c 5dbe
00000140: 9aae 363e 310c 8b3f 09e0 bebe 85a2 af3e
00000150: ad7d 7bbd 82bc 343e 1b2e 2e3f d0d7 5b3e
00000160: 10ef b0bf f10d f33e 40f1 9bbd 21e8 09bf
00000170: 9895 013e 1d8f 9a3f 8093 c53e 6454 003d
00000180: 4ef1 15be 7941 8ebf c598 013f 2102 723e
00000190: a18b 273d 9d05 b63d edf4 82be 92f4 b1be
000001a0: 4e57 563f f748 a63f d4ac 9abd e57d 8cbb
000001b0: 2a7b 0b40 b6b7 7f3e 70ee 483f e64a 3bbe
000001c0: 78d3 803d f01b 2c3f e6da b9be 71e5 82bf
000001d0: b0fe 333f d186 b0be 7c23 d4be 7db5 54bf
000001e0: 4fe9 f6be a077 b2bf 7916 75bf f43b c03d
000001f0: 6f95 c53e 7d76 793f bb47 f23e 2bc1 babf
00000200: c2f1 253f 17cd ddbe 1e24 143f 01b8 48bf
00000210: 150a 5b3f 79bb 9ebe fc75 bdbe d1a4 20be
00000220: 119e 283d 61c0 82bf ad31 073f ae84 273e
00000230: d53c 753d 9f71 9d3f 922c ec3c 26d5 b13e
00000240: 0435 1c3e a069 0d3f d879 bebd d195 873f
00000250: 3c63 183f ae27 6d3d cb43 6bbe e53e a23f
00000260: 501f 48bf c927 cc3e 6a34 54bf cd88 a8be
00000270: a1a8 f5be 0ee4 3f3e d15e 0f3f 9e9a 0b3e
00000280: 3280 213f 272c 963f 9a59 aa3e 7719 933e
00000290: 9664 583e 8c2e 4dbd d597 e9be 6345 a7be
000002a0: 368d 413e fe65 3c3e 09a3 c8be d565 3cbf
000002b0: 3658 dc3e 28c2 ab3c 2a65 3fbf bcf8 b1be
000002c0: 0569 163f d84b ab3d b92d 67be 2fb7 a6be
000002d0: 78fb fabc 5ca9 1abf 6aaa 50bf 10d5 923e
000002e0: a1a9 10bf b17d d4be b72f 20be 603f 943d
000002f0: 2e3c 37be 859e 513f 3690 763e 4677 853f
00000300: 6851 6dbe 6e9c c13e 8213 bc3e 81d9 043d
00000310: a6f7 32bf 7d64 8fbd d904 71bd 230a e0ba
00000320: 950c 0abc 0dc7 4dbe 72e3 bf3e fe65 283e
00000330: 34c3 adbe df81 3e3f 5fba a0be 32a8 9b3d
00000340: 621e ee3e 4224 673f bb64 e13d 4851 96bd
00000350: ef72 9bbf 8278 55bf 9816 f63d 6790 f03e
00000360: 7f4b 1c3f 3d29 62bf 4477 183f 83dd 46bf
00000370: 3e1e 38be 10f3 dbbc 8ed0 bb3d a6c2 16bd
00000380: 51b7 28bf 546b 953f fae8 42bf f29c 7b3f
00000390: dfd7 e3be 0366 153e f757 54bf 040a 4dbe
000003a0: 5471 85bc 1476 dfbe 8f25 7d3e e6d9 393d
000003b0: 44c8 cdbf d75b d4bd 7180 503f 9f52 a4bf
000003c0: d058 4c3e c99f cabe 334a c43e de01 53bf
000003d0: 903f 683f 60dd 01be bdd9 9abe 3848 02be
000003e0: 540a 73bf f4f6 dabe 9d46 81bf c064 90bf
000003f0: cb5f 9dbe e31b 97be 2bfc 393f fec0 323e

decoder.fc1.bias f4 [100]
0.2662609 0.5802677 0.33078697 -0.0759375 0.3527176 0.4247495 0.69320613 0.44371858
-0.20781057 0.4926572 0.059764177 0.5051018 -0.23556979 0.34272572 0.12526244 0.43350133
0.27167362 0.57472825 0.15550116 0.2731057 0.3590894 0.54512936 0.620248 0.6529014
0.3927751 0.5239804 0.37227067 0.48185918 0.59449446 0.66300744 0.4869857 0.011869567
0.64161766 0.5118137 0.39894155 0.42108205 0.19915667 0.46775523 0.5503178 0.38507023
0.26641402 0.085758135 0.38398618 0.17197208 0.23846431 0.5024605 0.36893997 0.35556677
0.4850748 0.27115303 0.3761233 0.50430244 0.36501986 0.41184747 0.21109448 0.47072935
0.57951045 0.33007437 0.52926624 0.5451286 0.42308423 0.5156589 0.49091285 0.68555814
-0.23683155 0.6462936 0.32503486 0.506301 0.46360457 0.500119 0.43270615 0.4329474
0.13997659 0.7464505 0.37576726 0.32657465 0.46135736 0.44329324 0.5518308 0.32644343
0.61458987 0.47074404 -0.0016520288 0.6388105 0.52570504 0.53963894 0.5136585 0.40964836
0.21689989 0.16639149 0.5346077 0.61733073 0.54530615 0.14956878 0.6880049 0.48575878
0.60892755 0.35672382 0.71319246 0.54162025
00000000: 5953 883e 6d8c 143f e95c a93e 1f85 9bbd
00000010: 6797 b43e c478 d93e f575 313f 152f e33e
00000020: 4bcc 54be 913d fc3e 48cb 743d 5a4e 013f
00000030: 3539 71be bf79 af3e cc44 003e e3f3 dd3e
00000040: ce18 8b3e 6421 133f b23b 1f3e 83d4 8b3e
00000050: 91da b73e 998d 0b3f 93c8 1e3f 8c24 273f
00000060: d119 c93e 9423 063f 439a be3e 3fb6 f63e
00000070: ca30 183f dbba 293f 3156 f93e 9378 423c
00000080: 0e41 243f 3906 033f 1142 cc3e 1198 d73e
00000090: baef 4b3e 9d7d ef3e a1e1 0c3f ed27 c53e
000000a0: 6b67 883e f6a1 af3d d699 c43e 7319 303e
000000b0: fd2f 743e 40a1 003f b3e5 bc3e d90c b63e
000000c0: b95b f83e 92d4 8a3e 3c93 c03e f719 013f
000000d0: e2e3 ba3e acdd d23e 2729 583e 7003 f13e
000000e0: cc5a 143f 82ff a83e fe7d 073f 8c8d 0b3f
000000f0: 7f9e d83e 3902 043f ee58 fb3e bd80 2f3f
00000100: f883 72be 7f73 253f f86a a63e f19c 013f
00000110: 945d ed3e cc07 003f a98b dd3e 48ab dd3e
00000120: 0656 0f3e 6117 3f3f 9164 c03e cb34 a73e
00000130: 0837 ec3e 55f7 e23e c944 0d3f 9823 a73e
00000140: c355 1d3f 5d05 f13e e388 d8ba 1689 233f
00000150: 9b94 063f c725 0a3f 207f 033f 6ebd d13e
00000160: 011b 5e3e 8862 2a3e 0ddc 083f 6309 1e3f
00000170: 2f99 0b3f 8f28 193e 1721 303f 60b5 f83e
00000180: ade2 1b3f 81a4 b63e c893 363f a0a7 0a3f

decoder.fc2.weight f4 [100, 100]
-0.3550786 -0.25548404 0.24932075 0.2543054 -0.087655775 0.17790541 -0.19494861 -0.45771608
0.008863805 0.5025911 -0.15817635 0.062417638 0.09390192 0.75894505 0.11423904 -0.114208065
-0.50536907 0.20770566 -0.31498727 0.2788557 -0.52527124 -0.36937207 0.06784188 -0.30357453
-0.32652318 -0.16793697 0.096703 -0.07679964 -0.035100754 0.17715053 -0.22846195 1.0270957
0.09228104 0.29584798 -0.23956542 0.3978732 -0.04217411 0.08752079 -0.17351753 -0.17592485
0.71301425 0.454863 0.3686901 -0.36913726 0.13574585 -0.13324456 0.9171156 0.09854465
-0.29603395 -0.40347752 -0.086966336 -0.16356915 0.084912956 0.18833718 -0.49463344 -0.19484873
-0.3581895 0.08881972 -0.0013627228 0.24270982 -0.45025548 0.48476404 -0.20695715 0.036640644
0.0016148486 0.20120467 0.285627 0.032725133 0.18983822 -0.43445638 0.029692082 -0.13456805
0.9272202 0.32650715 -0.21409999 -0.25896496 -0.19184764 -0.3538386 -0.4740303 0.2796523
-0.24193555 0.041862316 0.045879103 -0.71640104 -0.013701461 0.12572405 -0.14860986 -0.26326504
0.18693784 0.48299608 0.2761093 0.30632368 -0.27959803 -0.041297622 -0.30335343 0.6118205
-0.13494664 0.10649931 -0.23923303 0.1507955 -0.8104651 0.54357016 0.28540492 0.49657482
0.3825078 0.3082167 -0.6185291 0.04387411 -0.14992793 0.195371 0.11340401 -0.030785037
0.3223728 0.13543566 -0.0069553526 0.6488947 0.16160107 0.639563 0.5184689 -0.25728154
0.2093338 0.5834446 -0.25010738 0.4508013 0.27751678 0.4750736 0.44963738 0.34473336
0.23853508 0.3559453 0.15411416 0.29714888 0.20641051 -0.066210695 -0.1899258 0.23557554
0.2106893 0.09672608 -0.40944883 0.078534104 0.3037976 -0.26243055 -0.07332372 0.53114426
0.21532439 -0.19001095 0.52754635 -0.53010094 -0.3534974 0.11832762 0.17840642 -0.7659692
0.07264472 -0.22684275 0.76770383 0.51011306 -0.21467364 -0.05453366 -0.07575631 -0.5421465
0.6925018 -0.43018228 -0.33504125 0.59430325 0.27200615 -0.382716 0.05247055 -0.2704895
0.1943054 0.01771209 -0.27419415 -0.07540487 0.07309907 0.045762166 -0.22590412 0.36103168
0.030568518 0.013492814 -0.2091925 -0.373203 -0.10640275 -0.21950673 -0.055799853 -0.048104674
-0.13255861 0.53601044 -0.22015925 0.1930909 0.18840788 0.5183399 -0.46125007 -0.07765322
0.28096828 -0.14135633 -0.05822841 0.54843986 0.2699429 -0.010828117 0.12360158 0.20175232
-0.025145441 0.24373156 -0.84311026 -0.37959275 0.5651689 -0.1391098 0.51338255 -0.13538857
-0.084727496 -0.1017367 -0.28123632 0.14522284 -0.13228199 0.20335658 0.4732734 -0.5341551
-0.14556958 -0.17939892 -0.430715 -0.5218852 0.6552217 -0.17487025 0.010135122 -0.54390585
0.1667409 0.65541404 -0.094913185 0.5024411 0.2008398 0.8921364 0.40318573 0.02729408
-0.16996416 -0.29871833 -0.19022693 0.47195533 0.00036714168 0.4431217 0.10606294 0.5987418
0.12764998 -0.23688367 -0.06865103 -0.22825783 -0.0596243 -0.5347643 -0.1571326 0.26276436
-0.29359543 0.2054952 -0.24515152 0.3879712 -0.38448998 -0.07510322 0.18405339 0.14810652
00000000: ddcc b5be cece 82be f04d 7f3e 5134 823e
00000010: df84 b3bd d62c 363e 9ca0 47be c359 eabe
00000020: 7e39 113c cfa9 003f fbf8 21be a3a9 7f3d
00000030: a64f c03d 394a 423f 28f6 e93d ebe5 e9bd
00000040: de5f 01bf cbb0 543e 0346 a1be 2dc6 8e3e
00000050: 2d78 06bf 561e bdbe aff0 8a3d 1f6e 9bbe
00000060: 0c2e a7be abf7 2bbe 390c c63d 2149 9dbd
00000070: cfc5 0fbd f366 353e eef1 69be df77 833f
00000080: d8fd bc3d 6379 973e a350 75be 09b6 cb3e
00000090: c2be 2cbd 1a3e b33d 94ae 31be a525 34be
000000a0: 1a88 363f cee3 e83e f3c4 bc3e 8fff bcbe
000000b0: f600 0b3e 4371 08be 17c8 6a3f c7d1 c93d
000000c0: c391 97be 9b94 cebe 681b b2bd ac7e 27be
000000d0: d8e6 ad3d 76db 403e 9840 fdbe 6d86 47be
000000e0: 9d64 b7be 1de7 b53d 649d b2ba ec88 783e
000000f0: e387 e6be fe32 f83e 93ec 53be 8014 163d
00000100: 54a9 d33a 9908 4e3e b43d 923e ca0a 063d
00000110: f364 423e 1171 debe cf3c f33c 35cc 09be
00000120: 4e5e 6d3f f22b a73e 073d 5bbe 0e97 84be
00000130: b573 44be 552a b5be 19b4 f2be 962e 8f3e
00000140: f4bd 77be d277 2b3d baeb 3b3d 0f66 37bf
00000150: 187c 60bc cebd 003e 2f2d 18be adca 86be
00000160: a26c 3f3e 434b f73e 335e 8d3e 75d6 9c3e
00000170: 7927 8fbe b227 29bd 2451 9bbe 45a0 1c3f
00000180: 742f 0abe 4f1c da3d 81f9 74be 236a 1a3e
00000190: a47a 4fbf 6a27 0b3f 9820 923e 0e3f fe3e
000001a0: 10d8 c33e 94ce 9d3e ec57 1ebf 57b5 333d
000001b0: b586 19be 560f 483e 5d40 e83d e730 fcbc
000001c0: 0c0e a53e a5af 0a3e bae9 e3bb f71d 263f
000001d0: c07a 253e 67ba 233f 61ba 043f 68ba 83be
000001e0: 9a5b 563e a05c 153f 130e 80be 6ecf e63e
000001f0: ae16 8e3e d93c f33e df36 e63e e480 b03e
00000200: 8a42 743e 763e b63e 1ad0 1d3e e623 983e
00000210: 475d 533e 7999 87bd e97b 42be b73a 713e
00000220: f0be 573e 5318 c63d 47a3 d1be 7dd6 a03d
00000230: 5c8b 9b3e 4c5d 86be bf2a 96bd 12f9 073f
00000240: ff7d 5c3e 3b92 42be 470d 073f b2b4 07bf
00000250: 9cfd b4be c055 f23d 2cb0 363e 8f16 44bf
00000260: c1c6 943d 7749 68be 3d88 443f c596 023f
00000270: 68d3 5bbe b05e 5fbd 2026 9bbd 1dca 0abf
00000280: cc47 313f da40 dcbe 878a abbe 4224 183f
00000290: 6444 8b3e 5af3 c3be 5ceb 563d 9a7d 8abe
000002a0: fff7 463e f218 913c 2d63 8cbe de6d 9abd
000002b0: f7b4 953d 1c71 3b3d 6953 67be 25d9 b83e
000002c0: d46a fa3c f710 5d3c 8f36 56be 7714 bfbe
000002d0: afe9 d9bd 5fc6 60be 638e 64bd 6809 45bd
000002e0: 72bd 07be fb37 093f 6d71 61be 9fb9 453e
000002f0: ffed 403e ecb1 043f f828 ecbe a708 9fbd
00000300: 13db 8f3e b7bf 10be ea80 6ebd 8e66 0c3f
00000310: f535 8a3e 6a68 31bc d322 fd3d 2998 4e3e
00000320: d0fd cdbc c494 793e 13d6 57bf fb59 c2be
00000330: e9ae 103f cd72 0ebe 0a6d 033f 4da3 0abe
00000340: 9c85 adbd 555b d0bd 35fe 8fbe 4cb5 143e
00000350: ee74 07be b53c 503e e450 f23e 63be 08bf
00000360: 3110 15be 5ab4 37be ad86 dcbe 459a 05bf
00000370: 9cbc 273f 3011 33be c80d 263c 6a3d 0bbf
00000380: 20be 2a3e 37c9 273f d861 c2bd fb9f 003f
00000390: f3a8 4d3e 0d63 643f 5c6e ce3e d697 df3c
000003a0: 160b 2ebe 9cf1 98be d9ca 42be 21a4 f13e
000003b0: ec7c c039 d9e0 e23e 8737 d93d 2547 193f
000003c0: adb6 023e a291 72be e998 8cbd 6cbc 69be
000003d0: 9c38 74bd 50e6 08bf 5ee7 20be 0d89 863e
000003e0: 2452 96be 556d 523e 0009 7bbe 29a4 c63e
000003f0: dfdb c4be b8cf 99bd 7e78 3c3e 3ca9 173e

decoder.fc2.bias f4 [100]
-0.2181201 -0.30531454 0.16998357 -0.14403048 0.20809433 0.35359445 0.16909601 0.15407647
-0.16545795 0.17448795 -0.09868893 0.6173242 0.18078534 0.4900727 -0.0943999 -0.23471339
0.44323662 0.36183327 -0.21954478 -0.0032147807 0.2565518 0.10446008 -0.00759522 0.0037990273
0.12590826 0.25937596 0.12220191 0.33080903 0.3711764 0.46028396 0.16764516 0.4083082
0.069032356 0.19291961 -0.03270536 0.084580384 0.14370371 -0.07884716 -0.37929833 0.40391317
0.02285561 -0.16894923 -0.0334441 -0.50212395 0.3501627 0.48710817 0.21970987 0.1086873
-0.29453856 0.43929523 -0.1820956 0.19676909 0.046382006 0.04637905 0.44274622 0.119724214
0.14821343 0.06835334 0.5856095 0.10972712 -0.10919114 0.123928145 0.04937538 0.2763648
0.274655 0.32138944 0.29767162 -0.24235263 0.08808336 0.0082992455 -0.004927416 0.30847162
-0.0832177 -0.270055 -0.09571051 0.13274013 0.18742736 0.5225187 -0.056875315 0.22359243
0.20347828 0.28808272 0.0056735035 0.22076288 -0.07677598 0.31009632 -0.35491085 -0.028905896
-0.06583079 -0.16244023 0.8247804 -0.2464618 -0.091225594 0.05484171 0.05256733 -0.24133371
0.081417024 -0.0023574731 0.13152424 0.2964246
00000000: e05a 5fbe 3052 9cbe 2c10 2e3e ba7c 13be
00000010: ae16 553e 550a b53e 8127 2d3e 39c6 1d3e
00000020: cf6d 29be f8ac 323e 6c1d cabd f508 1e3f
00000030: cb1f 393e cfea fa3e bc54 c1bd b558 70be
00000040: e9ef e23e 3642 b93e 59d0 60be 12af 52bb
00000050: c25a 833e 2bef d53d 53e1 f8bb 1af9 783b
00000060: 18ee 003e edcc 843e ff44 fa3d cd5f a93e
00000070: d50a be3e 57aa eb3e 2cab 2b3e c60d d13e
00000080: d660 8d3d b88c 453e 0ef6 05bd 7b38 ad3d
00000090: 1127 133e 9f7a a1bd 6433 c2be b5cd ce3e
000000a0: b03b bb3c 0701 2dbe aefc 08bd 328b 00bf
000000b0: 8748 b33e 3e66 f93e a0fb 603e 7297 de3d
000000c0: c2cd 96be 4eeb e03e 4577 3abe d67d 493e
000000d0: 0ffb 3d3d f5f7 3d3d a2af e23e f831 f53d
000000e0: 43c5 173e d6fc 8b3d 81ea 153f 9db8 e03d
000000f0: 9b9f dfbd 0ace fd3d d73d 4a3d b07f 8d3e
00000100: 959f 8c3e 288d a43e 6a68 983e 4a2b 78be
00000110: 0c65 b43d 8ff9 073c 2976 a1bb feef 9d3e
00000120: 0b6e aabd a644 8abe df03 c4bd 07ed 073e
00000130: f5ec 3f3e c9c3 053f 17f6 68bd 6af5 643e
00000140: 9c5c 503e 947f 933e cce8 b93b aa0f 623e
00000150: ba3c 9dbd f2c4 9e3e e0b6 b5be 0fcc ecbc
00000160: 4bd2 86bd bb56 26be cf24 533f 7b60 7cbe
00000170: 7cd4 babd b3a1 603d d750 573d 2f20 77be
00000180: f8bd a63d d67f 1abb 4aae 063e f7c4 973e
