VAE/vae_mnist_weights_64.pth (torch, 794454 bytes, 14 tensors)

encoder.fc1.weight f4 [100, 784]
0	0xbc9fffbe	-0.019531127
1	0xbbef9de5	-0.0073125237
2	0x3a1979b7	0.0005854624
3	0xbcb9ec51	-0.022695692
4	0xbc837ca3	-0.016050642
5	0x3d02d20b	0.031938594
6	0x3c5941fc	0.013260361
7	0xbbff3938	-0.0077888034
8	0xbadfab4a	-0.0017064598
9	0xbc80a4b3	-0.015703535
10	0x3ba13d77	0.0049206573
11	0x3c3acd6a	0.011401514
12	0x3d050425	0.032474656
13	0xbe0b0ee8	-0.13579905
14	0xbe3de328	-0.18543684
15	0xbe19e61d	-0.15029188
16	0xbd0fe458	-0.035129875
17	0x3c032d05	0.008006339
18	0xbcddd318	-0.027078196
19	0xbd10d8c7	-0.035362985
20	0x3adc42dc	0.0016804594
21	0x3cea198a	0.028576631
22	0x3ca3f325	0.020013401
23	0xbc877d4c	-0.016539238
24	0xbcb2f5cc	-0.02184572
25	0x3c1e14fc	0.009648558
26	0xbcdacca7	-0.026708914
27	0x3d0caae3	0.034342658
28	0xbc8bed37	-0.017080886
29	0xbd11958e	-0.035543017
30	0x3c591fca	0.013252208
31	0x3cc4c58a	0.024019975
32	0x3cf22ba1	0.02956182
33	0x3e04c812	0.12966946
34	0x3e0bc7b4	0.136504
35	0xbe50eb6a	-0.20402303
36	0xbe89bd20	-0.26902103
37	0xbeb0aeb4	-0.34508288
38	0x3ddcf07f	0.107880585
39	0x3d97f7e3	0.074203275
40	0x3d19a17b	0.037507515
41	0x3d8bab06	0.068197295
42	0x3e943938	0.28949904
43	0x3e765921	0.24057437
44	0xbe6cd7b8	-0.23129165
45	0xbd4469f7	-0.04795262
46	0x3e135b45	0.14390285
47	0x3d395cf6	0.04525467
48	0x3cbca56d	0.0230281
49	0xbd968650	-0.07349837
50	0xbd602191	-0.05471951
51	0x3d0773b5	0.03306933
52	0x3cded253	0.0271999
53	0x3c5e085c	0.013551798
54	0x3c7aa6b3	0.015298533
55	0xbcee5bfa	-0.029096592
56	0x3ce3f1de	0.027825292
57	0x3d0dd55c	0.034627303
58	0xbe62c9fe	-0.22147366
59	0x3c1f7089	0.00973142
60	0xbe78a4c2	-0.242816
61	0xbf855c60	-1.0418816
62	0x3ed8301a	0.422242
63	0x3e3234b0	0.17402911
64	0x3e583f34	0.2111786
65	0x3e56c5c3	0.20973878
66	0xbe9d4bc4	-0.30721867
67	0xbe86cbea	-0.2632745
68	0xbdfe42c3	-0.124150775
69	0x3e002c1a	0.12516823
70	0xbce3c6e2	-0.027804796
71	0xbea48131	-0.32129815
72	0xbd9a4516	-0.07532708
73	0x3d949b0c	0.07256135
74	0x3e004fe5	0.12530477
75	0x3daf08fa	0.08546634
76	0x3cc33e0a	0.023833293
77	0x3c54841b	0.0129709495
78	0x3d87bcb4	0.06627789
79	0xbdcf479f	-0.101210825
80	0x3e2d5347	0.16926299
81	0xbcae0ed9	-0.021247314
82	0x3cfe4e13	0.031043088
83	0x3cac5cb5	0.0210403
84	0x3ca1be4a	0.019744057
85	0xbb51f0dc	-0.0032034433
86	0xbe606d51	-0.21916701
87	0xbf24e368	-0.64409494
88	0x3f1b4b14	0.60661435
89	0xbdea0a22	-0.11427714
90	0xbe385d53	-0.1800435
91	0xbe85d6c0	-0.26140404
92	0x3e1ddd76	0.15416512
93	0x3e775a80	0.24155617
94	0xbe676475	-0.22596915
95	0xbe19c8f7	-0.15018068
96	0xbd9cb1d9	-0.07651109
97	0xbecbfd5e	-0.3984174
98	0xbf35ae0f	-0.7096872
99	0xbe9d803c	-0.30761898
100	0x3cfe446e	0.03103849
101	0x3c7d43bf	0.015458046
102	0x3dc3aa43	0.09553959
103	0x3d533904	0.051568046
104	0xbc15e729	-0.009149351
105	0xbcb2a31d	-0.021806294
106	0x3d8ba2bc	0.068181485
107	0x3cbe079e	0.023196992
108	0x3e1a2899	0.1505455
109	0x3d0a7855	0.033806164
110	0x3e6533e3	0.22383074
111	0x3d0bd27a	0.034136273
112	0xbc5f162e	-0.013616128
113	0x3f45cdaf	0.77266973
114	0xbd16ffd3	-0.036865067
115	0x3ccc7e7b	0.024962654
116	0x3e7a7a3b	0.2446069
117	0xbe3d8a69	-0.1850983
118	0x3e52efcb	0.20599286
119	0xbd947bed	-0.072501995
120	0xbecdf31e	-0.40224546
121	0x3e02ff83	0.12792782
122	0x3e3e904a	0.1860973
123	0xbe826cdf	-0.25473687
124	0xbf47ed65	-0.7809661
125	0xbf306647	-0.6890606
126	0xbe5a8212	-0.2133868
127	0x3c2fe5de	0.010735957
128	0xbd10659d	-0.035253156
129	0x3cf2fb72	0.029660914
130	0x3cd3d837	0.025859935
131	0x3cbc43af	0.022981493
132	0x3d13d19d	0.036088575
133	0x3d894382	0.06702329
134	0x3d64a930	0.055825412
135	0xbe0d2c5a	-0.1378645
136	0xbe861e60	-0.2619505
137	0xbdd1d947	-0.102465205
138	0x3df0c4c1	0.11756278
139	0x3eb5f6f4	0.35539973
140	0x3c267f8a	0.010162244
141	0xbb090b93	-0.002091144
142	0x3c3df403	0.011593821
143	0x3eb49edc	0.3527745
144	0xbbec6a3b	-0.007214812
145	0xbcbc4d47	-0.022986067
146	0xbb4ebb81	-0.0031544867
147	0x3be28df7	0.006913896
148	0xbe935ea9	-0.28783157
149	0xbe91d165	-0.28480068
150	0xbf284b93	-0.6574032
151	0xbf4dee31	-0.80441576
152	0xbf48137a	-0.7815472
153	0xbf26c88c	-0.6514976
154	0xbe894e88	-0.26817727
155	0xbdeb1f59	-0.114805885
156	0xbd8fe6ce	-0.070264444
157	0xbbe8a0a7	-0.0070992294
158	0x3d40983e	0.04702019
159	0x3d2d16dc	0.04225813
160	0x3cc4f7fc	0.02404403
161	0x3cb840f5	0.022491911
162	0xbc807e6b	-0.01568528
163	0x3ccdeadc	0.025136404
164	0xbd295ad1	-0.041346375
165	0xbdb92606	-0.090404555
166	0xbe5832ea	-0.21113172
167	0x3e665f84	0.22497374
168	0x3c9060a0	0.0176242
169	0xbf1be55f	-0.6089687
170	0x3ea02c6e	0.31283897
171	0x3d7b9860	0.061424613
172	0x3e785849	0.24252428
173	0x3c87be53	0.016570246
174	0x3c57f5f2	0.0131811965
175	0xbd0c8972	-0.034310766
176	0xbf39db8e	-0.7260064
177	0xbf06fe7c	-0.5273206
178	0xbf12cba3	-0.57341975
179	0xbf40a535	-0.75252086
180	0xbf43c2e3	-0.7646925
181	0xbe351257	-0.17682777
182	0xbddf3fc0	-0.10900831
183	0xbd29b144	-0.04142882
184	0x3d07b578	0.033132046
185	0x3da6a0fe	0.081361756
186	0x3ce22d69	0.027609544
187	0x3c247caa	0.010039488
188	0xbc9400dd	-0.018066818
189	0xbd0c2fdb	-0.034225326
190	0x3c80b438	0.015710935
191	0xbd0a81e1	-0.03381527
192	0x3bcce196	0.006252478
193	0x3c099218	0.008396648
194	0x3dc12240	0.09430361
195	0xbd796edf	-0.06089675
196	0xbe601e82	-0.21886638
197	0xbe0a15b6	-0.13484845
198	0x3c1d52df	0.009602278
199	0x3d153c5c	0.036434516
200	0xbd81126c	-0.06302342
201	0x3da1f7ee	0.07908617
202	0xbd1c43e5	-0.038150687
203	0xbe4994e5	-0.19685705
204	0xbf43bb5c	-0.7645776
205	0xbf4d8967	-0.80287784
206	0xbf33746d	-0.70099527
207	0xbe8176a6	-0.25285834
208	0xbe03b3db	-0.12861578
209	0xbdd2435c	-0.10266754
210	0x3cceef30	0.025260538
211	0x3da12aed	0.078695156
212	0x3d803698	0.06260413
213	0x3c1c0304	0.009522203
214	0xbc7a3dd2	-0.015273528
215	0xbc5b8294	-0.0133978315
216	0xbd295faf	-0.041351017
217	0xbccb250c	-0.024797939
218	0xbd43345d	-0.04765736
219	0xbc344fa4	-0.011005316
220	0x3d492562	0.049107917
221	0x3d97b01b	0.07406636
222	0x3e4d6cc5	0.20061024
223	0x3ed68bbb	0.4190348
224	0xbea6d74e	-0.3258614
225	0xbdc0e77b	-0.094191514
226	0x3dc32797	0.095290355
227	0x3ce5ef0a	0.028068084
228	0x3bb1884c	0.005417859
229	0x3cae3aaa	0.021268208
230	0xbce594ba	-0.02802502
231	0xbd51af67	-0.051192667
232	0xbdd2ef83	-0.102995895
233	0xbe65408c	-0.22387904
234	0xbd66a332	-0.05630798
235	0xbd645f0b	-0.055754703
236	0xbd8afd6a	-0.06786616
237	0x3c7416c7	0.014898009
238	0x3da527ea	0.08064254
239	0x3d25d500	0.040486336
240	0x3b05fa74	0.002044347
241	0x3c449bfd	0.012000081
242	0xbc88d860	-0.016704738
243	0xbccfb5ef	-0.025355307
244	0xbc881e3e	-0.016615983
245	0x3b306d16	0.002692049
246	0xbb0d55fe	-0.0021566148
247	0xbbc9f59c	-0.006163312
248	0x3d2cf89b	0.042229276
249	0xbc7c669b	-0.015405322
250	0xbc937bc7	-0.018003358
251	0xbdd31ed9	-0.10308618
252	0xbd0db3cc	-0.034595296
253	0xbe474569	-0.19460072
254	0x3be64a0b	0.0070278696
255	0x3d8f50e3	0.0699785

encoder.fc1.bias f4 [100]
0	0x3ef9ca7a	0.4878729
1	0x3debf2d3	0.115209244
2	0x3f3f24e1	0.7466565
3	0x3ddba2dc	0.10724422
4	0x3ed2c121	0.4116297
5	0x3e1efa09	0.15525068
6	0x3f2a5d7c	0.66548896
7	0xbd8bb766	-0.0682209
8	0x3de1a955	0.11018626
9	0x3db676d1	0.08909381
10	0x3f14a21b	0.58059853
11	0x3dbdff64	0.092772275
12	0x3eb1bb58	0.34713244
13	0x3ed8c741	0.4233952
14	0x3e965b38	0.2936647
15	0x3f29450c	0.6612098
16	0xbead2f62	-0.33825213
17	0x3eeb27d7	0.45928833
18	0x3f23f562	0.640463
19	0x3e8e88cb	0.2783874
20	0x3ee3984d	0.44452134
21	0x3efbd660	0.49186993
22	0x3ee6ece7	0.45102617
23	0x3dc92845	0.09822134
24	0x3ec64264	0.38722527
25	0x3d9cb845	0.07652334
26	0x3ed40b56	0.414149
27	0x3d0b3fa8	0.033996254
28	0x3d466b91	0.048442427
29	0x3eff8b9f	0.4991121
30	0x3f2ef714	0.6834576
31	0x3ead8ef6	0.33898133
32	0x3df8f5a6	0.12156229
33	0x3e08321a	0.13300362
34	0x3e1c633d	0.15272231
35	0x3e330c0a	0.17485061
36	0x3e93ffd0	0.28906107
37	0x3ee5397d	0.44770423
38	0x3ea34b22	0.3189326
39	0xbc77168a	-0.015081057
40	0x3c837b0f	0.01604989
41	0x3e63dff2	0.22253397
42	0x3f472573	0.7779152
43	0x3f076dea	0.5290209
44	0x3ecb70fe	0.39734644
45	0x3ef6a82c	0.4817518
46	0x3eee5093	0.46545848
47	0x3eb77487	0.3583109
48	0x3f3453f5	0.7044061
49	0x3f24fc05	0.6444705
50	0x3e1d3580	0.1535244
51	0x3eeee5ff	0.46659848
52	0x3eddacab	0.43295798
53	0x3cb5955d	0.022165949
54	0x3db973dd	0.09055302
55	0x3e6cf858	0.2314161
56	0x3f300723	0.6876089
57	0x3eab88d8	0.3350284
58	0x3ecf5af5	0.40499082
59	0xbe8011c6	-0.2501356
60	0x3f0173be	0.50567234
61	0x3eacc9b0	0.33747625
62	0x3e1bf0b8	0.15228546
63	0x3e2a677d	0.1664104
64	0x3f12c726	0.57335126
65	0x3d819849	0.06327874
66	0x3e5648b7	0.20926176
67	0x3dd7bb9d	0.10533831
68	0x3e694bd8	0.22782838
69	0x3f31cf7a	0.6945721
70	0x3e7b2357	0.245252
71	0x3ed6b530	0.4193511
72	0xbd38f781	-0.045157913
73	0x3dc3487a	0.09535308
74	0x3f048299	0.51761776
75	0x3f10093a	0.5626408
76	0x3ea9f4a5	0.3319446
77	0x3efa8af8	0.4893415
78	0x3eb31316	0.349755
79	0x3e4e4bf9	0.20146169
80	0x3da551c3	0.080722354
81	0x3e340bd9	0.17582645
82	0x3e56469d	0.20925374
83	0x3f3c761b	0.73617715
84	0x3f43046e	0.76178634
85	0x3eb06c83	0.34457788
86	0x3e307697	0.17232738
87	0x3e3368ef	0.17520498
88	0x3ef0cd26	0.47031516
89	0x3e91df94	0.2849089
90	0x3df90f85	0.12161163
91	0x3d19d1ff	0.037553784
92	0x3eb7ce96	0.358998
93	0xbe8df29a	-0.27724153
94	0x3e345046	0.17608747
95	0x3eff9e61	0.4992552
96	0xbe8e6ede	-0.2781896
97	0x3ecd7949	0.40131596
98	0x3e645433	0.22297744
99	0x3e55f487	0.20894061

encoder.fc2.weight f4 [100, 100]
0	0xbb63c534	-0.0034754993
1	0x3c93845b	0.018007448
2	0xbda62d9e	-0.081141695
3	0xbcf1600b	-0.029464742
4	0x3c7b9ebc	0.015357669
5	0xbc1ee7b0	-0.009698793
6	0x3b58348d	0.0032990307
7	0x3d0d053c	0.03442882
8	0xbd417e05	-0.047239322
9	0x3cbf6256	0.02336232
10	0x3d222b2d	0.039591957
11	0x3c90f866	0.01769657
12	0x3d8d3154	0.06894174
13	0xbd2081ca	-0.039186276
14	0x3e0fc624	0.14040428
15	0x3d87d7af	0.06632935
16	0x3e3cfd9e	0.18456122
17	0x3b3cf981	0.002883524
18	0x3da23ab3	0.07921352
19	0xbd2d6530	-0.042332828
20	0x3e7ff6b5	0.24996455
21	0x3d31cc70	0.043407857
22	0xbc8d1866	-0.017223548
23	0xbd5547ac	-0.052070305
24	0xbd05b954	-0.032647446
25	0x3c3decda	0.011592114
26	0x3b116765	0.0022186872
27	0xbaa3e8dd	-0.0012505312
28	0x3c76c84e	0.015062405
29	0x3d00f4a5	0.03148331
30	0x3c4f8b82	0.012667539
31	0xbca0463a	-0.019564737
32	0xbd114c6e	-0.03547328
33	0x3d4e3fd3	0.050353836
34	0xbc917d2e	-0.017759886
35	0xb9adfaf2	-0.000331841
36	0xbd24f889	-0.040276084
37	0x3c48a65c	0.012246694
38	0xbd4922bc	-0.04910539
39	0xbd3f49fc	-0.046701416
40	0x3ca6b32c	0.020349108
41	0xbcf11c0d	-0.029432321
42	0xbdc03e2c	-0.09386858
43	0x3da9c444	0.08289388
44	0x3d282aeb	0.041056555
45	0xbcd8f1ef	-0.02648255
46	0xbe0d57a7	-0.13802968
47	0xbd2b4248	-0.041811258
48	0x3d05e565	0.03268947
49	0x3e060062	0.13086084
50	0xba5cf793	-0.00084292254
51	0xbd29707b	-0.041367035
52	0x3d3f5bdf	0.046718474
53	0xbd95d82c	-0.07316622
54	0x3d1c51d2	0.038163967
55	0x3d062fc5	0.0327604
56	0xbdc5ef18	-0.09664744
57	0xbce04ada	-0.027379442
58	0x3d5c0f5d	0.05372559
59	0x3e532b2a	0.20621935
60	0x3d818bca	0.06325491
61	0x3d54b5cc	0.051931188
62	0x3b8c5149	0.004282151
63	0xbd2fd365	-0.04292621
64	0xbc7869f4	-0.01516198
65	0x3d06b55b	0.032887798
66	0xbd05e574	-0.032689527
67	0xbd9291ad	-0.07156692
68	0x3d8b501e	0.068023905
69	0x3d51c1e6	0.051210307
70	0xbceb278c	-0.02870538
71	0xbd122b46	-0.0356858
72	0xbcb2d56a	-0.02183028
73	0x3d13e0b9	0.036102984
74	0x3d62c53b	0.055363875
75	0x3b511a82	0.003190667
76	0xbd617db6	-0.055051528
77	0x3d03af67	0.0321497
78	0xbd486103	-0.048920643
79	0xbda22f49	-0.07919175
80	0x3d2f2a6c	0.042765066
81	0x3d1a7acd	0.03771477
82	0x3cf57b01	0.02996588
83	0xbd3bed23	-0.045880448
84	0x3da7ca7c	0.08192918
85	0xbdb296f6	-0.087202
86	0x3d914b3c	0.07094428
87	0xbc0153ac	-0.007893484
88	0xbbd9b70b	-0.006644135
89	0x3a39169b	0.00070605584
90	0xb951c64c	-0.00020005665
91	0x3b02484c	0.0019879518
92	0xbc002438	-0.007821135
93	0x3cb94a31	0.022618385
94	0xbcca2e7d	-0.02468037
95	0xbd08e6ac	-0.03342311
96	0x3e9d1f21	0.30687812
97	0xbc9bc609	-0.019015329
98	0x3cb033fe	0.021509167
99	0xbbe90b7b	-0.0071119643
100	0x3c3efc8d	0.0116568925
101	0x3d1e8032	0.038696475
102	0x37f05c80	2.8653303e-05
103	0xbcc89d44	-0.024489053
104	0x3d6e35c9	0.058156762
105	0x3bd041ef	0.006355516
106	0x38ac29c3	8.209378e-05
107	0xbd1cfcfb	-0.0383272
108	0xba45245f	-0.00075203733
109	0x3ce36db1	0.027762266
110	0xbc319918	-0.010839723
111	0xbd869a31	-0.065723784
112	0x3d9e81de	0.07739614
113	0x3bf66915	0.007519851
114	0xbdd4a1e2	-0.10382439
115	0x3da80cef	0.08205592
116	0xbdd96e71	-0.10616768
117	0xbd3c1993	-0.045922827
118	0x3da12cc1	0.07869864
119	0x3b1f4ace	0.0024306062
120	0xbd56c158	-0.05243048
121	0xbac2f3a5	-0.0014873637
122	0x3bbb507e	0.0057163825
123	0x3c84ba2f	0.01620206
124	0x3c87bbcf	0.016569046
125	0xbd4e3f94	-0.0503536
126	0xbc40d175	-0.011768688
127	0xbdbdef99	-0.09274215
128	0xbd3e07f6	-0.04639431
129	0x3ca74529	0.02041872
130	0xbc95120f	-0.018197088
131	0x3b1ab653	0.002360721
132	0xbd0a1b32	-0.03371734
133	0x3cf892f6	0.030343514
134	0x3d2d37bd	0.042289484
135	0xbc9e0f0a	-0.01929428
136	0xbd3cfd43	-0.046139967
137	0x3d426ca0	0.047466874
138	0x3d140fcf	0.03614789
139	0xbcf78d02	-0.030218605
140	0x3d5276b9	0.051382754
141	0x3d41c6df	0.0473088
142	0xbc5ef7ac	-0.013608854
143	0xbcd4187b	-0.02589058
144	0xbc17b2e9	-0.009258964
145	0x39fefbb6	0.00048634195
146	0x3d23485f	0.03986394
147	0x3d7cf57f	0.06175756
148	0x3d022722	0.0317756
149	0x3d918901	0.071062095
150	0xbd312255	-0.043245632
151	0x3cd93667	0.026515199
152	0x3d1a971b	0.03774176
153	0x3d04b4a0	0.03239882
154	0x3d4a7f15	0.0494376
155	0xbccdff0a	-0.025146026
156	0x3dbbcfbb	0.09170481
157	0x3cae54d0	0.021280676
158	0x3c8b8cf6	0.017034989
159	0xbd3ca8e4	-0.046059504
160	0x3d30974c	0.043113038
161	0x3d265b93	0.040614676
162	0xbd6d36c5	-0.05791356
163	0x3d26b4c8	0.04069975
164	0x3d4c58ca	0.049889363
165	0xbdf32e6a	-0.11874087
166	0x3dd364e2	0.10321976
167	0x3c95ba9b	0.018277457
168	0x3cea8863	0.028629487
169	0xbd39f0b7	-0.04539558
170	0x3c1a189b	0.00940528
171	0xbd324b79	-0.043529008
172	0xbd9850a6	-0.074372575
173	0x3d29fd8d	0.04150157
174	0x3c93b381	0.01802993
175	0x3ded1641	0.1157651
176	0x3c9c695c	0.019093208
177	0x3b79b083	0.0038099594
178	0xbcd87ae1	-0.02642578
179	0xbd23b981	-0.039971832
180	0x3d0e4c8e	0.034740977
181	0x3d36a140	0.044587374
182	0xbc6d0cb9	-0.014468365
183	0xbdaa6c54	-0.08321443
184	0x3dfed069	0.12442095
185	0xbc8bcfd3	-0.017066872
186	0xbb04653b	-0.002020194
187	0x3d031247	0.031999853
188	0xbd4a18e7	-0.049340155
189	0x3c398b52	0.01132472
190	0x3cc144b2	0.023592327
191	0xbc29e744	-0.010370079
192	0x3cc9fa61	0.024655523
193	0x3dc417f0	0.09574878
194	0x3cf6126c	0.030038081
195	0x3cd38cc5	0.02582396
196	0xbdb19d44	-0.08672574
197	0x3cbe9790	0.02326563
198	0xbcd3b7df	-0.025844513
199	0x3d034aae	0.032053642
200	0x3d2faa91	0.042887274
201	0x3cf5b463	0.029993242
202	0xbcfc381b	-0.030788472
203	0x3de243df	0.11048102
204	0xbbbbeaa6	-0.0057347594
205	0x3c8c563c	0.017130964
206	0x3be49655	0.006975929
207	0xbcc6b115	-0.024254361
208	0xbc6d1a3e	-0.014471589
209	0x3d8d368a	0.06895168
210	0xbcb70b1e	-0.022344168
211	0xbda5bc66	-0.08092575
212	0x3c81e160	0.015854537
213	0x3d501787	0.050803687
214	0x3c79ae10	0.015239254
215	0x3ca5dc8c	0.020246767
216	0xbe22bddf	-0.15892743
217	0xbc215a36	-0.009848168
218	0xbc068419	-0.0082102055
219	0xbce01310	-0.02735284
220	0xbc470ea3	-0.012149486
221	0x3cc0df82	0.023544077
222	0x3cf8d014	0.030372657
223	0xbc0c6b5a	-0.0085705165
224	0x3d003e88	0.031309634
225	0x3d0bdc14	0.03414543
226	0x3da804b4	0.08204022
227	0xbc44fcea	-0.01202319
228	0x3d9345b2	0.07191028
229	0x3d27fc42	0.041012056
230	0x3d9cbe5c	0.07653496
231	0x3d3e42d4	0.04645045
232	0xbd9548b1	-0.072892554
233	0x3d2336c6	0.039847158
234	0x3bc154a7	0.005899984
235	0xbb9396a7	-0.004504043
236	0xbce93820	-0.028469145
237	0xba84120d	-0.001007618
238	0x3ce3945c	0.027780704
239	0x3d250419	0.04028711
240	0xbd1100a0	-0.035400987
241	0x3c22d8f0	0.009939417
242	0xbd3d830a	-0.046267547
243	0xbda39772	-0.0798787
244	0xbc53870f	-0.012910618
245	0x3c23973b	0.009984787
246	0x3d9114dc	0.07084057
247	0x3c3d166c	0.01154099
248	0xbd62e852	-0.05539734
249	0x3cc8d90d	0.02451756
250	0xbca77492	-0.020441327
251	0x3cb106ab	0.021609625
252	0xbcf5e4f6	-0.030016404
253	0xbd32a543	-0.043614637
254	0x3cba963d	0.022776717
255	0x3cb37da3	0.021910494

encoder.fc2.bias f4 [100]
0	0x3b6e08a9	0.003632108
1	0x3d5c551c	0.053792104
2	0x3d6b5659	0.057455394
3	0xbe00e7e4	-0.12588459
4	0x3d511fd5	0.051055748
5	0x3c3d2908	0.011545427
6	0x3d00af41	0.031417135
7	0xbb7921fb	-0.0038014639
8	0x3dbca02f	0.0921024
9	0x3d9cdbc5	0.07659105
10	0xbcb6abbc	-0.022298686
11	0x3d44b8a6	0.048027657
12	0xbd932ae7	-0.07185917
13	0xbd17b1a7	-0.037034657
14	0xbd3c9b49	-0.04604653
15	0x3caedf25	0.021346638
16	0x3d48dff6	0.04904171
17	0xbe1aeb3a	-0.15128794
18	0x3c17e780	0.0092715025
19	0x3d72d860	0.059288383
20	0xbd976932	-0.07393111
21	0x3cdfb690	0.027308732
22	0x3dc82eec	0.09774575
23	0x3c9c6eb0	0.019095749
24	0xbce539e8	-0.027981713
25	0x3dc80a52	0.097675934
26	0x3d9fc0ea	0.07800467
27	0x3d00a315	0.031405527
28	0xbdc360cd	-0.09539948
29	0x3c8942e0	0.016755521
30	0xbb93727c	-0.0044997316
31	0xbd3ff7c8	-0.046867162
32	0xbd036fde	-0.032089107
33	0xbdbaea8a	-0.09126766
34	0x3e470155	0.19434102
35	0x3dae4321	0.085088976
36	0x3be47e20	0.006973043
37	0x3dbe1d47	0.09282928
38	0x3da69262	0.08133389
39	0x3bb420bc	0.0054970663
40	0xbb3c08a2	-0.002869167
41	0xbde61935	-0.112352766
42	0xbcd80053	-0.026367342
43	0x3ba53321	0.0050414954
44	0xbcd7cc95	-0.02634267
45	0xbdd9a5c1	-0.10627318
46	0xbcf5cbdf	-0.03000444
47	0x3dbd8d40	0.09255457
48	0x3de19b1f	0.11015915
49	0x3e2ae1e4	0.16687733
50	0x3d78f3de	0.060779445
51	0x3d896574	0.06708804
52	0x3d7ed354	0.062213257
53	0x3d0d094d	0.034432698
54	0x3ba88697	0.0051429975
55	0x3c0c140d	0.008549702
56	0x3d51af0d	0.051192332
57	0x3a6cd302	0.0009034128
58	0x3e091013	0.13385038
59	0xbdf57ac0	-0.11986303
60	0x3d96c911	0.07362569
61	0x3d887770	0.06663406
62	0xbdfc355c	-0.12314865
63	0x39e00aea	0.0004273274
64	0x3e02b9b7	0.12766157
65	0x3c031ad5	0.008002003
66	0x3dbc542b	0.09195741
67	0xbd69d7f8	-0.05709073
68	0x3d34e0a1	0.044159535
69	0x3cbea7a8	0.023273304
70	0x3c73dec9	0.014884659
71	0xbc818eb0	-0.015815109
72	0xbd993260	-0.074803114
73	0x3db2aae1	0.08723999
74	0x3dcf416b	0.10119899
75	0x3de09b57	0.10967129
76	0x3d9b56ec	0.075849384
77	0x3da5a579	0.08088202
78	0x3da86789	0.08222873
79	0x3e35643f	0.17714022
80	0x3d50a7ad	0.050941158
81	0xbd31a58e	-0.043370776
82	0x3e180e65	0.14849241
83	0x3c962cce	0.018331911
84	0x3d6471d3	0.055772614
85	0x3e12d085	0.14337356
86	0x3ca3e2b2	0.020005558
87	0x3e0f3409	0.13984694
88	0x3e4125fd	0.18862148
89	0xbc4ab860	-0.01237306
90	0xbe105b4e	-0.1409733
91	0x3e145a36	0.14487538
92	0x3b5cb66b	0.0033678066
93	0x3bef05f2	0.00729441
94	0x3e2d92a5	0.16950472
95	0xbd38c0e7	-0.04510584
96	0x3e2db80b	0.16964738
97	0x3d912973	0.07087984
98	0xbd1d0675	-0.038336236
99	0x3d41d6ed	0.04732411

encoder.fc_mean.weight f4 [64, 100]
0	0x3d606836	0.054786883
1	0xbcdb22c9	-0.026749985
2	0xbe0f5a41	-0.13999273
3	0x3da8530d	0.08218966
4	0x3d803e3c	0.0626187
5	0xbde8d89a	-0.113694385
6	0x3cce3ab5	0.025174478
7	0xbddc9f33	-0.10772552
8	0xbd41e892	-0.047340937
9	0xbcbe2f98	-0.023216054
10	0x3d1fcffc	0.03901671
11	0xbd77e46f	-0.060520586
12	0x3be7bd6e	0.0070721423
13	0x3cabdb5c	0.020978622
14	0x3d261488	0.040546924
15	0xbd00733e	-0.031359904
16	0xbc99e63a	-0.018786538
17	0xbd9c93e4	-0.076453954
18	0x3a6d980c	0.0009063489
19	0xbd8d3a5d	-0.068958975
20	0x3cc5b37b	0.024133435
21	0xbc6b2552	-0.01435216
22	0x3cca0476	0.02466033
23	0x3d9f60ae	0.07782112
24	0xbce2711e	-0.02764183
25	0x3d174acb	0.036936563
26	0x3dbde0d0	0.09271395
27	0xbc96642a	-0.018358309
28	0x3dd59bf1	0.10430134
29	0xbdcc0be5	-0.09963206
30	0x3dcaade2	0.09896447
31	0x3c416342	0.01180345
32	0x3df47769	0.11936838
33	0x3dac4521	0.08411623
34	0xbc371770	-0.0111750215
35	0xbdc06ef4	-0.09396163
36	0x3dbf8992	0.09352411
37	0x3c724630	0.014787242
38	0xbd66e83c	-0.05637382
39	0xbdf19c7e	-0.11797427
40	0xbdeb9ae5	-0.11504153
41	0x3d3fd27d	0.046831597
42	0x3dd1dbbb	0.102469884
43	0xbe374451	-0.17897154
44	0x3d678b0e	0.056529097
45	0xbd0c86ec	-0.03430836
46	0x3d8298a5	0.06376771
47	0xbc6f7466	-0.014615154
48	0xbb9fb473	-0.004873806
49	0x3d68f75b	0.05687652
50	0x3c38c961	0.011278481
51	0xbd1d017d	-0.038331497
52	0x3d2d16c8	0.042258054
53	0xbdcf391b	-0.10118314
54	0xba8806f7	-0.0010378052
55	0xbdb37d01	-0.08764077
56	0xbd3d74ad	-0.04625385
57	0xbd36dc40	-0.04464364
58	0xbd76c6ae	-0.06024807
59	0x3dac2936	0.08406298
60	0xbe311cd2	-0.1729615
61	0xbcc0ed12	-0.023550544
62	0xbd86dc61	-0.06585003
63	0xbba4dd16	-0.0050312383
64	0x3d29dc3d	0.0414698
65	0x3dda7785	0.10667328
66	0xbd099764	-0.033591643
67	0x3d017b34	0.031611636
68	0xbd844f29	-0.06460411
69	0x3ba1a984	0.004933538
70	0x3df7eb76	0.121054575
71	0x3dbc58e5	0.09196643
72	0x3e0fb3ae	0.14033386
73	0x3cdac907	0.026707185
74	0xbd82395c	-0.06358597
75	0x3db9c826	0.090713784
76	0xbdba12aa	-0.09085591
77	0x3cefb290	0.02925995
78	0xbd63c1e1	-0.05560482
79	0xbd45f10a	-0.048325576
80	0x3dc152d5	0.09439627
81	0xbd08b876	-0.03337904
82	0xbd9a6ada	-0.075399116
83	0x3daaf23d	0.083469845
84	0x3d9511ac	0.07278761
85	0xbc0e5e18	-0.008689426
86	0xbd875219	-0.06607456
87	0x3e13f4b7	0.1444882
88	0x3bd8ccc7	0.0066162082
89	0x3e4c5a70	0.19956374
90	0x3c04b3ab	0.008099477
91	0x3da92ec2	0.082608715
92	0x3a56dcb7	0.0008196341
93	0x3e0e1e96	0.13878855
94	0xbd901925	-0.07036046
95	0x3d1b3aa3	0.037897717
96	0xbdbc61a2	-0.091983095
97	0xbdf44601	-0.11927415
98	0xbc9cf8eb	-0.019161662
99	0xbe1a5ec0	-0.15075207
100	0x3e0d1b96	0.13780054
101	0xbcc8f411	-0.024530442
102	0x3c047599	0.008084678
103	0xbb3e2683	-0.0029014654
104	0x3e15236a	0.1456429
105	0x3bc2f26a	0.005949308
106	0xbe020801	-0.12698366
107	0x3d84cdbd	0.06484554
108	0xbd2b04ab	-0.0417525
109	0x3ba7539c	0.0051064026
110	0x3d7b5036	0.061355792
111	0xbd155664	-0.03645934
112	0xbd819e58	-0.0632903
113	0xbc41e155	-0.0118335085
114	0xbdf8f634	-0.121563345
115	0xbcd34938	-0.02579175
116	0x3db40e55	0.08791796
117	0x3d52b622	0.051443227
118	0x3dc21d7e	0.094782814
119	0x3df9d1ac	0.12198195
120	0xbce3354f	-0.02773538
121	0xbd7cb9b7	-0.06170055
122	0xbd0a7859	-0.03380618
123	0xbdc76c32	-0.097374335
124	0x3d5185b8	0.051152915
125	0x3d93ff72	0.07226457
126	0x3db6cd0c	0.08925828
127	0x3cb9c72b	0.022677979
128	0x3c93ec07	0.018056883
129	0x3dd9855a	0.10621138
130	0x3db86a54	0.090046555
131	0x3e053d43	0.1301165
132	0xbdff30cf	-0.124604814
133	0xbc1d948c	-0.009617936
134	0x3bbd6247	0.005779538
135	0xbd87a672	-0.06623544
136	0xbd91b49e	-0.07114528
137	0x3cefc9bc	0.029271
138	0xbcf639ac	-0.030056797
139	0x3d1184af	0.035526928
140	0xbe24d396	-0.16096339
141	0x3da363e9	0.07978041
142	0x3d0951f2	0.033525415
143	0xbe1e59bb	-0.15463917
144	0x3d2f298e	0.04276424
145	0xbc76bac8	-0.015059181
146	0xbe180154	-0.14844257
147	0xbcf4bdd9	-0.029875683
148	0xbdd4317d	-0.10361002
149	0xbc6089cd	-0.013704729
150	0xbc785a6f	-0.01515828
151	0xbd31c5bd	-0.04340147
152	0x3d97cb5d	0.07411835
153	0x3e067558	0.131307
154	0x3dbdd243	0.0926862
155	0x3bce699a	0.00629921
156	0x3d8ec3b0	0.06970918
157	0xbd0ee3e7	-0.034885313
158	0xbce0a082	-0.027420286
159	0x3d40507d	0.04695176
160	0x3c9fa392	0.019487176
161	0xbe04c368	-0.12965167
162	0xbd5f13de	-0.054462306
163	0x3c3b265c	0.01142272
164	0xbbd569f8	-0.0065128766
165	0xbde18437	-0.11011546
166	0x3c7ac843	0.015306535
167	0x3e2a60e1	0.16638519
168	0x3dba5026	0.09097318
169	0xbd8faa9b	-0.07014962
170	0x3da1f7d9	0.07908601
171	0xbd651aa4	-0.05593361
172	0xbaf92187	-0.0019007184
173	0x3e03d4d5	0.12874158
174	0x3e0396ec	0.12850541
175	0x3d8b6e8d	0.06808195
176	0xbdc6a836	-0.097000524
177	0xbe1df898	-0.15426862
178	0x3d8ae79b	0.067824565
179	0x3da31cfa	0.07964511
180	0xbddcc8ed	-0.10780511
181	0xbbf1afaa	-0.007375677
182	0xbcacd0e6	-0.021095704
183	0xbd40afe2	-0.047042735
184	0x3b000197	0.0019532198
185	0xbd5e20a5	-0.05423035
186	0xbd502d29	-0.050824318
187	0x3d3be5be	0.045873396
188	0xbd882c15	-0.06649033
189	0x3cad1c4e	0.02113166
190	0xbccc679d	-0.02495175
191	0x3db68b81	0.08913327
192	0xbce12fe5	-0.027488658
193	0x3d9e7043	0.07736256
194	0xbe25ccb2	-0.16191366
195	0x3dcd8399	0.10034866
196	0xbe07784b	-0.13229482
197	0xbda0296e	-0.07820402
198	0x3d8616d3	0.06547322
199	0xbdcf7296	-0.101292774
200	0x3d0ce43e	0.034397356
201	0xbd181097	-0.037125196
202	0x3ca666fe	0.020312782
203	0x3ddee6d0	0.10883868
204	0xbd41214c	-0.047150895
205	0x3d55c125	0.05218615
206	0xbde98d30	-0.114038825
207	0x3df59c00	0.11992645
208	0xbcb9ba40	-0.022671819
209	0xbdae998b	-0.0852538
210	0x3d100e9a	0.035170175
211	0xbcdbcb27	-0.026830269
212	0xbca280cd	-0.019836808
213	0xbc98695f	-0.018604932
214	0x3e0b0c2f	0.13578866
215	0x3d9bbcde	0.07604383
216	0xbd8490fe	-0.064729676
217	0xbdac8696	-0.08424108
218	0xbd86cf0e	-0.06582461
219	0xbdb1ee66	-0.08688049
220	0x3d8206da	0.06348963
221	0x3dfff512	0.12497915
222	0xbcdda10d	-0.027054334
223	0x3d5c3a6e	0.05376666
224	0x3e8441ec	0.25831544
225	0xbdc31184	-0.09524825
226	0x3d9d9adb	0.07695552
227	0xbd3da39f	-0.04629862
228	0xbdd49f0f	-0.103819005
229	0x3d8b2b3b	0.06795355
230	0x3bd1504f	0.0063877474
231	0xbe514ec2	-0.204402
232	0xbab649e4	-0.0013907519
233	0xbdd811c1	-0.10550261
234	0xbd085baf	-0.03329056
235	0x3d2c7146	0.042100213
236	0x3e19e24c	0.15027732
237	0xbd0bdef2	-0.034148164
238	0xbe0785b4	-0.13234597
239	0x3da8353d	0.082132794
240	0xbc33a015	-0.0109634595
241	0x3db37646	0.08762793
242	0x3c0b215e	0.008491842
243	0x3c88f175	0.016716698
244	0xbe1b2805	-0.15151985
245	0x3e3de1fa	0.18543234
246	0xbdcfc105	-0.101442374
247	0xbdd2d96f	-0.102953784
248	0x3bc50bf2	0.006013387
249	0x3d83a5e1	0.06428123
250	0x3df88bef	0.12136065
251	0x3d845ee2	0.0646341
252	0xbcf92fe4	-0.030418344
253	0xbd16c261	-0.036806468
254	0x3d4ec0f9	0.050477
255	0x3d8e005d	0.06933663

encoder.fc_mean.bias f4 [64]
0	0x3d9d8a6b	0.07692417
1	0xbd9e2af4	-0.077230364
2	0xbd56aa23	-0.05240835
3	0xbdf02bf1	-0.11727131
4	0xbd89a71e	-0.06721328
5	0xbdea97c6	-0.1145473
6	0xbd9910d1	-0.074739106
7	0x3d0da808	0.034584075
8	0xbd1787c1	-0.0369947
9	0x3d4b417b	0.049622994
10	0xbb9eb738	-0.0048436187
11	0xbd7a055f	-0.06104028
12	0x3d5ffc2b	0.054683845
13	0x3d631f4c	0.05544977
14	0xbd287555	-0.04112752
15	0xbd4d96ed	-0.050192762
16	0xbd595dd2	-0.05306799
17	0x3cf36eb7	0.029715879
18	0xbe0c3041	-0.13690282
19	0x3cd92c87	0.02651049
20	0x3d825c1c	0.06365225
21	0xb9dae536	-0.00041750976
22	0x3dbee3a0	0.0932076
23	0x3dab9c83	0.083794616
24	0xbd789692	-0.06069047
25	0x3cf4225b	0.029801538
26	0xbdc292e1	-0.09500671
27	0xbd380e2a	-0.044935383
28	0x3d9d05ed	0.07667146
29	0x3d8064b5	0.06269208
30	0xbd34862a	-0.04407326
31	0x3d65015b	0.055909496
32	0xbdbc583a	-0.091965154
33	0x3d2c5e2c	0.042081997
34	0xbd29f5ff	-0.041494366
35	0xbda4e543	-0.08051541
36	0x3d5cdc92	0.05392129
37	0xbdcf6fab	-0.10128721
38	0xbd83ecec	-0.06441674
39	0xbb6fec9a	-0.0036609531
40	0x3d0e2eb9	0.034712527
41	0x3d3efc0b	0.046627086
42	0x3ca3514b	0.019936224
43	0x3d575c5b	0.05257831
44	0xbd79c3a9	-0.06097761
45	0x3cdb4fe9	0.026771503
46	0x3d9f836c	0.077887386
47	0xbd69f15c	-0.057114944
48	0x3ca01d81	0.019545319
49	0xbb43e993	-0.002989386
50	0x3be20bfc	0.0068984013
51	0x3d941687	0.07230859
52	0xbc8d0a1e	-0.017216738
53	0x3db8b94c	0.090197176
54	0x3d60c6f7	0.054877248
55	0xbcb24c59	-0.021764921
56	0xbd8bfb18	-0.06835002
57	0x3d22b5a7	0.03972402
58	0xbc968e36	-0.018378358
59	0x3da5bfc6	0.080932185
60	0x3d40cb93	0.047069144
61	0x3d60bc0b	0.05486683
62	0xbd961602	-0.073284164
63	0x3c629228	0.013828792

encoder.fc_var.weight f4 [64, 100]
0	0xba0ba00b	-0.00053262775
1	0xbb373ee2	-0.0027961065
2	0x3c117179	0.008877152
3	0x3b217b62	0.0024640192
4	0xbb35cc03	-0.0027740009
5	0xbae4e441	-0.0017463044
6	0x3aa15d6d	0.0012311168
7	0xbc18d1f9	-0.009327405
8	0xbb8abd13	-0.004233965
9	0x3b47f935	0.003051353
10	0x3b16255b	0.002291045
11	0xba7a8b23	-0.0009557476
12	0xbb8ce43c	-0.0042996686
13	0xbb972061	-0.004612014
14	0x3a3e7414	0.0007265222
15	0x3a55ff33	0.0008163333
16	0x3ba03e01	0.004890204
17	0x392a3185	0.00016230911
18	0x3b279dca	0.0025576227
19	0xbbcb8efc	-0.0062121134
20	0x3b5f415d	0.003406606
21	0x3c0bec45	0.008540218
22	0xb81cf7a8	-3.7423946e-05
23	0xbb1283dc	-0.0022356426
24	0x3ad51877	0.0016257901
25	0xba52da58	-0.00080434
26	0x3b85682d	0.0040712566
27	0x3b155905	0.0022788655
28	0xb988c812	-0.00026089005
29	0xbab6ca8c	-0.0013945862
30	0x3a8ed484	0.0010897075
31	0xbbadc87e	-0.0053034415
32	0xbba162db	-0.0049251146
33	0x3a0f3f2d	0.0005464431
34	0x3b3fbbfc	0.0029256335
35	0xbaf9e754	-0.0019066134
36	0xb9f32603	-0.00046376893
37	0xbb0f06c0	-0.0021824092
38	0x3bb31c08	0.005465988
39	0xbba3ed97	-0.005002688
40	0x37896210	1.6377337e-05
41	0xbb36fc08	-0.0027921218
42	0x3ba617e5	0.0050687664
43	0x39d727ac	0.00041037553
44	0xbbb6185f	-0.0055571045
45	0x3ba75c6b	0.0051074526
46	0xbaa711ac	-0.0012746355
47	0x3a424dc5	0.0007412101
48	0x3bc98320	0.0061496645
49	0xbb12805c	-0.002235434
50	0x3b9dd53b	0.004816679
51	0x38ee4dd2	0.000113632195
52	0x3bc65806	0.0060529737
53	0xbaa95e86	-0.0012921847
54	0xba25c7a2	-0.0006323998
55	0xbbb549cf	-0.0055324803
56	0x3b9fd972	0.0048782164
57	0xba7eb946	-0.0009716939
58	0xbb4f8ac8	-0.0031668413
59	0xbaea5732	-0.001787877
60	0x3be2fd14	0.006927142
61	0x3d8b874c	0.06812915
62	0xbad76119	-0.0016432136
63	0x3adc68f0	0.0016815942
64	0x3baf50d9	0.005350214
65	0xbb17d363	-0.0023166768
66	0x3a727206	0.0009248558
67	0xbbd76657	-0.006573479
68	0x3c2d580b	0.010580073
69	0x3aa06269	0.001223636
70	0xbb42118a	-0.0029612505
71	0x3b308af3	0.002693829
72	0xbb337062	-0.0027380218
73	0x3b1da489	0.002405437
74	0x3bb4fb39	0.005523112
75	0xbb89e529	-0.004208226
76	0x3b1b1037	0.0023660788
77	0x3ba8c541	0.0051504676
78	0xba4eb6c1	-0.0007885509
79	0xbafb1790	-0.0019156802
80	0xb8da640e	-0.00010413687
81	0x3d0c286c	0.034218237
82	0xbb2cde55	-0.0026377637
83	0x3adf0cb1	0.0017017332
84	0xbacf5f27	-0.0015821204
85	0x3a50d3e1	0.0007966143
86	0x39f8dc16	0.00047466223
87	0x3b4488ff	0.0029988883
88	0x3b387851	0.0028147886
89	0x3b079199	0.0020686148
90	0xbd672969	-0.056435976
91	0xb9b23e9f	-0.00033997462
92	0x3bafc26c	0.005363753
93	0xbb671145	-0.0035258096
94	0xbaa3ecb1	-0.0012506453
95	0x3b35f65c	0.002776525
96	0x3ba77087	0.00510985
97	0x3af63b8c	0.0018786057
98	0x3c6225fe	0.013803003
99	0xbb09257f	-0.002092689
100	0x3995ec7b	0.00028595686
101	0xb9334146	-0.00017095087
102	0xbbb7bd56	-0.0056072874
103	0xbb2cf3f6	-0.002639053
104	0x3b79b875	0.003810433
105	0x3b9c1700	0.004763484
106	0x39dd52f2	0.00042214204
107	0x3ac7d354	0.0015245476
108	0x3b09f56f	0.002105083
109	0x3a01c986	0.0004950989
110	0x3b1c1825	0.0023818102
111	0x3a3c34d2	0.00071795017
112	0x3ae108b8	0.0017168736
113	0x3a792d39	0.0009505335
114	0x3adcd8a6	0.0016849234
115	0x3aec4168	0.0018024864
116	0x3a92ad64	0.001119059
117	0x3acba583	0.0015536997
118	0xbb19b929	-0.0023456311
119	0xba2b171f	-0.00065265776
120	0xba67b0e0	-0.0008838307
121	0xbbece9d7	-0.0072300243
122	0xbb875b08	-0.004130725
123	0x3b10d989	0.0022102317
124	0xbb1976af	-0.0023416688
125	0x3b7b73d0	0.003836859
126	0x3aca8cc5	0.001545333
127	0xbb0eac55	-0.0021770198
128	0xb8d984a1	-0.000103720704
129	0xba09eea1	-0.0005261694
130	0xbb3e4352	-0.0029031825
131	0x3b797ff3	0.0038070648
132	0x3b0e7f21	0.0021743255
133	0x39a0851c	0.00030616752
134	0xba8d87dd	-0.0010797937
135	0xba801d66	-0.0009774386
136	0x3ad7d3e3	0.0016466345
137	0xb9de600a	-0.00042414694
138	0x3b20f46b	0.0024559747
139	0x3b68b576	0.003550855
140	0x3ba54e3a	0.0050447257
141	0x39ac8a0a	0.00032909244
142	0x3a9690a1	0.0011487195
143	0x3b19e40c	0.0023481874
144	0x3b80405c	0.0039139222
145	0x3b011393	0.0019695505
146	0xb8b976c4	-8.843609e-05
147	0xba38dc3e	-0.00070518616
148	0xba3b81f8	-0.0007152851
149	0x3b9dbc9c	0.0048137438
150	0xbb651729	-0.0034956431
151	0x3b648728	0.0034870598
152	0xbb889c0b	-0.0041689924
153	0xbb1807ee	-0.0023198086
154	0xb98300c5	-0.0002498684
155	0x3bb38d56	0.005479495
156	0xbb74982e	-0.0037322151
157	0xba13caeb	-0.0005637842
158	0xbb216cdd	-0.0024631538
159	0x3b30e096	0.0026989332
160	0xbb3ae1ff	-0.0028516052
161	0xbcd9cfde	-0.026588377
162	0x3b29f940	0.0025935918
163	0xbabf85e3	-0.0014612045
164	0xbb3d9a8d	-0.002893123
165	0x3ad924ce	0.0016566755
166	0x3a6894d1	0.0008872273
167	0x3b8d7908	0.0043174066
168	0xbb9ddb34	-0.004817391
169	0x3a2fb47c	0.00067026145
170	0x3b2a446c	0.0025980724
171	0x3c058f54	0.008151848
172	0x3aeb6ab6	0.001796088
173	0xbb32bcae	-0.0027273106
174	0x3a0777ee	0.0005167712
175	0x3a445c46	0.00074905565
176	0xbac257c2	-0.0014827179
177	0x3a09259c	0.00052317395
178	0x3a50e417	0.00079685583
179	0x38ce911a	9.849873e-05
180	0x3b5a05d0	0.0033267625
181	0x3cbae187	0.022812618
182	0xb8bf3810	-9.118032e-05
183	0xba2c82e9	-0.00065807864
184	0x3b9f2652	0.004856863
185	0xba39fb0e	-0.00070946
186	0x39a85f6e	0.00032114558
187	0x3a08cfce	0.00052189536
188	0xbb655ace	-0.003499675
189	0xba9d8519	-0.0012017816
190	0x3a01a096	0.00049448886
191	0xb9b7f975	-0.0003509034
192	0xbb810409	-0.0039372486
193	0xbbb94732	-0.005654239
194	0xba42123b	-0.0007403229
195	0x3b1ddca5	0.0024087813
196	0xbae23096	-0.0017256911
197	0x3a8a5013	0.0010552428
198	0xbd27a46a	-0.04092828
199	0x3a1ed9f7	0.0006059701
200	0xbb3ac19f	-0.0028496755
201	0x3b9f26f7	0.00485694
202	0x3b748c4b	0.0037315066
203	0x398110cf	0.0002461732
204	0xbb1cc160	-0.0023918971
205	0xbbc062c9	-0.005871151
206	0x3aa19802	0.0012328627
207	0x3c1175af	0.008878156
208	0xb956d4ea	-0.00020487947
209	0xbb70683d	-0.0036683225
210	0xbbc55101	-0.0060216193
211	0x3a60860e	0.00085648976
212	0xbb010966	-0.001968944
213	0x3ab9f3b5	0.001418701
214	0xbbacae2d	-0.005269787
215	0xbb33bdd4	-0.0027426379
216	0x3c10ebc7	0.008845276
217	0x3a3027ef	0.0006719818
218	0x3a42d8dc	0.0007432827
219	0xbc1cee06	-0.009578234
220	0x3a94c313	0.001134964
221	0x3c025c21	0.007956536
222	0x3ae86c82	0.0017732533
223	0xb9319690	-0.00016936124
224	0xbb04acab	-0.002024452
225	0xbc7a439c	-0.015274908
226	0xbaf6a955	-0.0018818775
227	0xba3478e3	-0.00068844686
228	0xbb847249	-0.004041944
229	0x3b6bf62a	0.003600488
230	0x3b52c587	0.0032161193
231	0xbbb13e9f	-0.0054090763
232	0xba0402e7	-0.0005035833
233	0xb94fe244	-0.00019825349
234	0x3b15fa3b	0.0022884745
235	0x3bd88642	0.0066078017
236	0x3bb3b3d5	0.005484084
237	0x3a190396	0.0005837021
238	0x3bca2846	0.0061693517
239	0x3a349b11	0.0006889562
240	0xb8330a18	-4.2686326e-05
241	0x3aa20598	0.0012361286
242	0x3b4d7d73	0.003135529
243	0xbb3df39b	-0.0028984312
244	0xbabe24a6	-0.0014506772
245	0xbb1bb708	-0.0023760218
246	0xbab86f7e	-0.0014071313
247	0xbb9ab988	-0.004721824
248	0xbb5a9d55	-0.0033357937
249	0x39f94bf2	0.00047549565
250	0xbaeb49a2	-0.0017951021
251	0x3b972c10	0.004613407
252	0x3c64e0d5	0.01396962
253	0xbaf51c12	-0.0018700382
254	0xbbac6e39	-0.005262163
255	0xbc20f02d	-0.009822887

encoder.fc_var.bias f4 [64]
0	0xbba4bf15	-0.0050276616
1	0x3b6bb9a5	0.0035968807
2	0xbb630107	-0.0034638064
3	0x3ae485de	0.0017434915
4	0xbbbac24d	-0.005699432
5	0xbc0b8786	-0.008516198
6	0x397d068f	0.00024130403
7	0xba7bbb2c	-0.0009602781
8	0x3bac0b5e	0.0052503785
9	0x3ab00318	0.0013428656
10	0xbb99e31b	-0.0046962625
11	0x3c047818	0.008085273
12	0xbb951a70	-0.0045502707
13	0x3ad0907a	0.0015912198
14	0x3c33815d	0.010956136
15	0xbbf48f78	-0.007463392
16	0xbb42e797	-0.002974009
17	0xbaebc110	-0.0017986614
18	0x3a3e1e8d	0.0007252477
19	0xbaca3484	-0.0015427028
20	0x3a3ae432	0.00071293407
21	0xbb6111dd	-0.0034342923
22	0xbb3030c9	-0.0026884547
23	0x3b2f6e00	0.0026768446
24	0x3b9a2a2f	0.0047047357
25	0xbb2673b4	-0.0025398554
26	0xbbe7c0e3	-0.0070725544
27	0x3c07ff62	0.008300634
28	0x3a84b203	0.0010123852
29	0x3b35257a	0.0027640746
30	0x3b8fcba4	0.0043882895
31	0x39494106	0.00019193077
32	0x3c58917d	0.013218281
33	0xbbdfddfb	-0.006831882
34	0x3a055e00	0.00050875545
35	0xbba4baba	-0.0050271424
36	0x3a9c551d	0.0011927221
37	0xbb746a37	-0.0037294754
38	0x3be54323	0.0069965287
39	0xb9a51bba	-0.0003149191
40	0x3a77cd81	0.0009452925
41	0xbada241a	-0.0016642839
42	0x3bb09cf0	0.005389802
43	0xba8238c7	-0.0009935134
44	0x3b517619	0.003196126
45	0xbb9efcf6	-0.0048519326
46	0xbc110c5d	-0.008853045
47	0x3adfa892	0.0017063788
48	0x3c136903	0.008997205
49	0xbabc6e55	-0.0014376143
50	0xbc182bdd	-0.009287802
51	0xbbc67fd0	-0.006057717
52	0xbbab940e	-0.0052361554
53	0xbaf84f56	-0.0018944542
54	0xbc03df04	-0.008048777
55	0x3bcaa447	0.006184134
56	0x3bbde547	0.0057951543
57	0x3923ecc7	0.00015633098
58	0x3b20315b	0.002444348
59	0x3ad3233f	0.0016108527
60	0x3b9d0f69	0.004793097
61	0xb96497ec	-0.0002180037
62	0x394e492f	0.00019672954
63	0xbbdbb49e	-0.006704881

decoder.fc1.weight f4 [100, 64]
0	0xbdc75db5	-0.0973467
1	0xbecd331d	-0.4007806
2	0x3f5e3b32	0.86809075
3	0x3e0a43a5	0.13502367
4	0xbf0e9457	-0.556951
5	0xbc613ca6	-0.01374737
6	0xbef7cca9	-0.4839833
7	0x3f1bb08f	0.6081628
8	0xbf57b09a	-0.8425385
9	0xbf1c0b40	-0.60954666
10	0xbf8b34ef	-1.0875529
11	0x3f0272c6	0.5095638
12	0xbf32f26a	-0.69901145
13	0x3ef7af33	0.48375854
14	0xbe1f49ba	-0.15555468
15	0x3f41bde1	0.7568036
16	0xbe96319e	-0.2933473
17	0xbf110cb6	-0.5666002
18	0xbdc8a8ae	-0.09797798
19	0x3f0987d6	0.53722894
20	0xbf3975d4	-0.72445416
21	0xbec1e8b8	-0.37872863
22	0xbf846bfd	-1.0345455
23	0xbef58fc7	-0.47961256
24	0xbeac99fb	-0.33711228
25	0xbe1005da	-0.14064732
26	0xbf249870	-0.642951
27	0xbe27b24c	-0.16376609
28	0xbd26dced	-0.040738035
29	0x3f86fbd8	1.0545607
30	0xbd30bd00	-0.043148994
31	0x3f336bde	0.7008647
32	0xbe68c877	-0.22732721
33	0xbe05d4a2	-0.13069394
34	0x3dbf5b25	0.09343556
35	0xbf28bbbb	-0.65911454
36	0x3e59f27d	0.21283908
37	0x3ea28c3b	0.31747612
38	0x3f180cfa	0.593948
39	0x3f46c549	0.77644783
40	0x3e58436b	0.21119468
41	0x3e2d67f0	0.1693418
42	0xbf1a453b	-0.6026189
43	0x3f663fc6	0.8994106
44	0x3ef6dea5	0.4821674
45	0x3f0b115a	0.5432335
46	0xbee024ef	-0.43778178
47	0x3d4810d4	0.048844174
48	0x3f854e4b	1.0414518
49	0xbe88b873	-0.26703224
50	0x3eaa3f5e	0.3325147
51	0xbf1170fc	-0.56813025
52	0x3e394923	0.18094306
53	0xbf0442ef	-0.5166463
54	0xbed1b85a	-0.40960962
55	0x3efe419d	0.49659434
56	0xbf234c46	-0.6378826
57	0x3f30d027	0.69067615
58	0x3eb7359f	0.35783097
59	0xbdd19d5d	-0.10235093
60	0xbefe5059	-0.49670675
61	0xbeed3ffe	-0.46337885
62	0xbda63fa4	-0.08117607
63	0x3efa4363	0.48879537
64	0x3eed2bb1	0.46322396
65	0xbf6527ec	-0.8951404
66	0x3f40698e	0.75161064
67	0x3e5a38a6	0.21310672
68	0xbf09a49e	-0.5376681
69	0xbf3d9df3	-0.74069136
70	0x3f490e9b	0.7853791
71	0xbf3e4bc9	-0.7433439
72	0x3e7d8992	0.2475951
73	0xbeb0f24b	-0.34559855
74	0x3e9c3358	0.30507922
75	0x3edd6b9f	0.4324617
76	0xbe5657ce	-0.20931932
77	0xbe9fb9b8	-0.3119638
78	0xbdf28c2d	-0.11843143
79	0xbbdde339	-0.006771472
80	0xbf14d885	-0.5814288
81	0x3d778f7c	0.06043957
82	0xbf667ce2	-0.90034306
83	0x3e41a3f0	0.18910193
84	0x3f4973e5	0.78692466
85	0xbc926871	-0.017872067
86	0xbeb6171a	-0.355645
87	0xbf1cecc1	-0.6129876
88	0xbee8ca69	-0.45466927
89	0xbe95ae3c	-0.29234493
90	0x3e479e17	0.194939
91	0x3e5b5879	0.21420468
92	0x3f6b30b8	0.91871214
93	0xbf2e1c32	-0.6801177
94	0x3e2bbb27	0.16770612
95	0x3f2fb53f	0.68635935
96	0x3db0d41e	0.08634208
97	0xbc398b11	-0.01132466
98	0xbf471172	-0.77760994
99	0xbede3a67	-0.43403932
100	0x3f9727f3	1.1809067
101	0x3f4f13ca	0.8088957
102	0x3ccec95b	0.025242498
103	0xbc02c0ab	-0.007980506
104	0xbed3cef7	-0.4136884
105	0xbd00938b	-0.031390708
106	0xbe74afcb	-0.23895185
107	0x3e9e8d0e	0.3096699
108	0x3e9cd454	0.30630744
109	0x3f0baf0a	0.54563963
110	0xbf1fbc54	-0.6239674
111	0x3f2437b7	0.64147514
112	0x3e931f0f	0.28734633
113	0xbe30ef11	-0.17278697
114	0xbdcafc76	-0.09911434
115	0xbee748ab	-0.4517263
116	0xbefa468c	-0.48881948
117	0x3f8a1da7	1.0790299
118	0xbf36ec75	-0.71454555
119	0x3f11ac89	0.5690389
120	0xbee04b00	-0.4380722
121	0x3eaa991e	0.33319944
122	0x3d56daba	0.052454688
123	0x3f250032	0.64453423
124	0xbf278d83	-0.65450305
125	0xbeb5f6b2	-0.35539776
126	0xbd3fa002	-0.046783455
127	0x3e562034	0.20910722
128	0xbf096c1e	-0.536806
129	0x3d898147	0.06714111
130	0x3e42b696	0.19014964
131	0xbec70ced	-0.3887705
132	0x3d995ee1	0.074888
133	0xbf098d3d	-0.5373114
134	0xbf0ddbe0	-0.5541363
135	0x3f1d8fe8	0.6154771
136	0xbe4e7b28	-0.20164168
137	0xbe26005e	-0.16211078
138	0xbf1ce72b	-0.61290234
139	0x3ee01ecf	0.43773505
140	0xbe8fe6bb	-0.2810572
141	0x3f5ec7ce	0.8702363
142	0xbce387f6	-0.027774792
143	0x3f2879d5	0.658109
144	0xbef386f9	-0.47563913
145	0x3ea2d66a	0.3180421
146	0xbf69d135	-0.9133485
147	0x3f15567b	0.58335084
148	0x3d6fe5c0	0.058568716
149	0xbe9068ce	-0.2820496
150	0xbe6ba928	-0.23013747
151	0xbe3e9cd5	-0.18614514
152	0xbf1394f6	-0.5764917
153	0x3f8fe299	1.1241027
154	0xbf547646	-0.8299297
155	0x3df20caf	0.118188255
156	0xbe5d93be	-0.2163839
157	0x3ed3cff5	0.41369596
158	0xbf035abe	-0.51310337
159	0x3ebaa89d	0.36456767
160	0xbf137b95	-0.57610446
161	0x3faff27d	1.3745877
162	0xbe90aee5	-0.28258434
163	0xbf111c40	-0.5668373
164	0x3ecb884c	0.39752424
165	0xbe339070	-0.17535567
166	0x3e7d40bb	0.24731724
167	0x3f80c963	1.0061458
168	0x3f8a613f	1.0810927
169	0x3ef38995	0.47565904
170	0x3dc7cbfa	0.09755702
171	0x3f9013b2	1.125601
172	0x3f57d846	0.8431438
173	0x3f1713e2	0.59014714
174	0xbea193ec	-0.31558168
175	0x3e1fb8e3	0.15597872
176	0x3f1bff1d	0.60936147
177	0xbf3e055c	-0.7422693
178	0xbe005359	-0.12531795
179	0xbf1db006	-0.61596715
180	0x3ee67731	0.4501281
181	0xbe9255fe	-0.28581232
182	0x3ec07a19	0.37593153
183	0xbe5958a8	-0.21225226
184	0xbf398e80	-0.7248306
185	0x3eb7e584	0.35917294
186	0xbef4246b	-0.47684035
187	0xbeb9169e	-0.36150068
188	0xbf1406a7	-0.5782265
189	0xbdde0572	-0.10840882
190	0xbf0426b9	-0.51621586
191	0x3e943575	0.28947034
192	0xbf63cbcc	-0.88982844
193	0xbee772b4	-0.452047
194	0x3eb29aa1	0.34883597
195	0x3ded3204	0.11581805
196	0xbed9e535	-0.42557684
197	0x3ee45cc0	0.44602013
198	0x3f4f2ae4	0.8092482
199	0xbcf1d1a0	-0.029518902
200	0xbe230407	-0.15919505
201	0xbe3b79cf	-0.18308185
202	0xbd5f9928	-0.05458942
203	0x3f1d8c4c	0.615422
204	0xbe39dc1a	-0.18150368
205	0xbef92fa9	-0.48669174
206	0xbefe6a28	-0.49690366
207	0x3ef9fc68	0.48825383
208	0xbed71d57	-0.42014572
209	0xbf15eb86	-0.58562505
210	0xbf4aa3cf	-0.791562
211	0x3ed81243	0.42201433
212	0xbf6e0d80	-0.9298935
213	0xbf30be11	-0.6904002
214	0xbf5940f6	-0.8486475
215	0x3e2355ac	0.1595065
216	0xbe7e7cd9	-0.24852313
217	0x3ea50b83	0.32235345
218	0x3e978656	0.29594678
219	0x3f03f38a	0.51543486
220	0xbd29d0da	-0.041458942
221	0xbe4bee10	-0.19915032
222	0x3eb6eb5d	0.35726443
223	0x3ed92246	0.4240896
224	0xbf2f4e0b	-0.6847846
225	0xbf037b6f	-0.5136022
226	0xbea1df6a	-0.31615764
227	0xbf0625ef	-0.5240163
228	0xbe080724	-0.13283974
229	0xbf085358	-0.5325217
230	0x3ed728d1	0.42023328
231	0x3f6b98a8	0.9202981
232	0x3ee2fa7e	0.44331735
233	0x3f1f2067	0.6215882
234	0xbf83759f	-1.027027
235	0x3f31dfd0	0.69482136
236	0xbe46c98f	-0.19412826
237	0x3f6caa0b	0.92446965
238	0xbf2a4ff6	-0.6652826
239	0x3ec75aee	0.3893656
240	0x3de20dc2	0.1103778
241	0x3eafe360	0.3435316
242	0x3d59b8b7	0.053154673
243	0xbe858e47	-0.26085111
244	0xbdb550e7	-0.088533215
245	0xbe80ba0d	-0.25141945
246	0xbe31c0b7	-0.17358671
247	0x3de429aa	0.11140759
248	0xbebf527a	-0.37367612
249	0x3f09179c	0.5355165
250	0xbf1a37bb	-0.6024129
251	0x3eb0bc4c	0.3451866
252	0xbef6d8cb	-0.48212275
253	0x3dc686a6	0.09693651
254	0x3ef48c6d	0.47763386
255	0x3f1d2629	0.6138635

decoder.fc1.bias f4 [100]
0	0x3ede4360	0.43410778
1	0x3ea8e00e	0.3298344
2	0x3f2b78d4	0.66981244
3	0x3eb2d9b1	0.3493171
4	0x3eb816d1	0.35954908
5	0x3e182983	0.14859585
6	0x3ea2b8b2	0.31781536
7	0x3edb9677	0.42888233
8	0x3f14bc97	0.58100265
9	0x3f01b181	0.50661474
10	0xbe4964af	-0.19667314
11	0x3f1e24e0	0.61775017
12	0x3ef6085c	0.48053253
13	0x3b581f7a	0.0032977746
14	0x3e99dd6b	0.3005174
15	0x3ec14c9a	0.37753755
16	0x3ea4c3b7	0.3218057
17	0x3f06d22b	0.5266444
18	0x3f0d1f68	0.5512605
19	0x3ea27125	0.31726947
20	0x3ec9a67f	0.3938484
21	0x3ebf1933	0.37323913
22	0x3ec3e976	0.38264054
23	0x3ebaa245	0.36451927
24	0x3e96a871	0.29425386
25	0x3e1b7584	0.15181547
26	0x3ea387a2	0.31939417
27	0x3ee53ced	0.44773045
28	0x3ecf865e	0.40532202
29	0x3ebcbadc	0.36861312
30	0x3ecfa8cc	0.4055847
31	0x3f1f6dc4	0.62276864
32	0x3ec8e3d2	0.39236313
33	0x3ed9372a	0.424249
34	0x3eb83a53	0.35981998
35	0x3eec1d49	0.46116093
36	0x3ed7fb8c	0.42184103
37	0x3ee61f24	0.44945633
38	0x3e587843	0.21139626
39	0x3ea861ea	0.32887203
40	0x3ec0c67d	0.37651435
41	0x3f01940c	0.50616527
42	0x3e9fcb00	0.31209564
43	0xbd4e2ab2	-0.050333686
44	0x3efa88a3	0.4893237
45	0x3e8acc0e	0.27108806
46	0x3d07ff1f	0.033202287
47	0x3e9afbe3	0.302703
48	0x3ee42259	0.44557455
49	0x3ed661c8	0.41871476
50	0x3ea1fbd1	0.31637433
51	0x3ed7d8c2	0.4215756
52	0x3eb98d4c	0.36240613
53	0x3f1de440	0.61676407
54	0x3ea6bce4	0.32565987
55	0x3e9b186b	0.30292067
56	0x3e8ce368	0.27517247
57	0x3ee68528	0.45023465
58	0x3ea57b34	0.3232056
59	0x3ebfa0e9	0.37427452
60	0xbc9c7cb9	-0.019102441
61	0x3e85a4b8	0.26102233
62	0x3e4c9bdd	0.19981332
63	0x3ea20659	0.31645468
64	0x3f055f83	0.52098864
65	0x3ebad7cc	0.36492765
66	0x3f0cc79f	0.549921
67	0xbd86bdaa	-0.06579144
68	0x3ecc9bba	0.3996256
69	0x3e694832	0.22781447
70	0x3ec5c837	0.38629314
71	0x3eed3366	0.46328276
72	0x3edbe4c4	0.42947972
73	0x3ea38a42	0.3194142
74	0x3e6dc2b5	0.23218806
75	0x3e8a5e08	0.27024865
76	0x3ee5c721	0.44878486
77	0x3eea02a4	0.4570514
78	0x3f25903e	0.6467322
79	0x3e8a1eba	0.26976568
80	0x3e5f2acb	0.21793668
81	0x3ef7786f	0.4833407
82	0x3eae1831	0.34002832
83	0x3f0082d6	0.5019964
84	0x3ef6cd92	0.48203713
85	0x3ef83643	0.48478898
86	0x3f0a8575	0.5410989
87	0x3ef6514a	0.48108894
88	0x3f099e7a	0.5375744
89	0x3ee15fda	0.4401844
90	0x3ebb646f	0.36600062
91	0x3e834488	0.25638223
92	0x3ecd9218	0.40150523
93	0x3eab42d4	0.33449423
94	0x3eee3d1e	0.46531004
95	0x3f1a4fff	0.60278314
96	0x3ebc22fa	0.36745435
97	0x3eb46a43	0.3523732
98	0x3ec680d2	0.38770157
99	0x3ee3140e	0.44351238
