VAE/vae_mnist_weights_4.pth (torch, 721924 bytes, 14 tensors)

encoder.fc1.weight f4 [100, 784]
-0.0035687517 -0.029672675 0.0018980589 -0.025841871 0.013514017 -0.025571547 0.001683214 -0.024032744
0.019312669 -0.0350888 0.009627811 0.03354248 0.24198037 0.19100453 -0.068657815 -0.07923929
-0.017495357 -0.029302914 0.029314213 -0.029979225 0.025150301 0.02137952 0.030249197 -0.033191077
-0.0063805073 -0.0037266316 0.009296758 -0.028472655 -0.00063446164 0.009418083 -0.018069208 0.020495046
0.258038 -0.0044229873 -0.19989112 0.031776574 -0.104858615 0.11666448 0.45814735 0.06165686
0.10315257 0.05558232 -0.26480144 -0.2356547 0.07095705 0.28863823 0.43314156 -0.075140215
0.09874773 0.13568617 -0.08390197 0.0743124 0.0151355695 0.0014830445 0.013313563 -0.00223153
-0.01985037 -0.019543571 0.04032427 -0.096096106 -0.06317776 0.22484013 0.2976052 0.26662043
0.27419072 0.41299406 0.67069834 0.32684577 0.08278778 -0.11640866 -0.21843587 -0.27009434
-0.23787421 -0.3463665 -0.18766889 0.13069688 0.13430111 0.12830263 0.3314666 0.2896443
-0.080816306 0.0058995252 -0.025012422 0.033131294 -0.0169397 -0.0047261715 5.310343e-05 -0.42608723
0.015507855 -0.20072445 -0.5017966 -0.21833304 0.84227717 -0.21430464 -0.62567025 -0.4640724
-0.7183934 -0.67740524 -0.032902863 -0.17450704 -0.06374311 0.101626165 0.13425724 0.17470576
0.43120268 0.17783393 -0.020911854 -0.15080279 -0.4616122 0.24692596 0.2594309 0.0007657579
-0.023889782 -0.55568826 0.11959541 -0.131213 0.3475621 0.31314313 -0.3032878 -0.38369834
-0.20456836 -0.37815648 -0.5698018 -0.18723746 -0.10414508 -0.19490941 -0.11442982 -0.35371524
-0.2161523 -0.14109567 -0.08346593 -0.14118823 -0.062012963 0.2839919 0.16622078 0.16997793
-0.03048674 -0.26473752 -0.08515016 0.37821 0.02715784 -0.029159572 -0.12073077 -0.06574464
0.23617326 0.32826927 0.099302 -0.24468182 0.12063545 0.16002607 -0.052916493 -0.08240108
0.019291984 0.024654202 -0.286615 -0.19960935 -0.3063854 -0.059642635 0.09723949 -0.25805867
-0.027954286 -0.10714429 0.0480298 0.006680758 -0.3405217 -0.339839 -0.086378984 0.34890094
0.008894137 0.62976503 -0.03567743 -0.15175611 0.33195487 0.06602008 -0.0001697953 0.061463967
0.059051152 0.035097517 -0.009696691 -0.007430635 -0.080632225 -0.03852911 0.09603638 0.026310531
-0.025511047 0.10574809 0.1814543 -0.08236308 -0.06632435 -0.08393894 0.25041476 0.06504199
-0.14767069 -0.13230662 -0.020731507 -0.06635141 -0.31270438 -0.22827291 0.20726864 0.13238169
-0.05987009 0.10336429 -0.010835442 0.113349974 0.028764844 -0.01888611 0.006161279 0.060433805
0.02767065 0.0038055677 0.0988743 0.010685825 0.0056325714 0.007715225 -0.053412333 -0.07658285
0.027647462 0.09528916 0.16018046 -0.27179357 -0.75486773 -0.39380357 -0.39615783 -0.37189168
-0.31482238 0.06752225 0.21605234 0.06370407 -0.035395194 -0.0760078 0.17590997 -0.039729487
0.0073582125 0.025995 -0.006362376 -0.016097685 0.017055828 -0.013250783 0.0600401 0.07702744
-0.0013263676 -0.02761741 -0.10844374 0.021525713 0.010576367 -0.0024245642 -0.16299176 0.11321807
-0.0044854777 -0.24714893 -0.3143249 -0.030148119 -0.19772974 -0.1910266 0.12701732 0.21360455
00000000: b8e1 69bb 1c14 f3bc 4ac8 f83a 55b2 d3bc
00000010: e569 5d3c 6c7b d1bc 4a9f dc3a 51e0 c4bc
00000020: 9a35 9e3c 46b9 0fbd f7bd 1d3c d763 093d
00000030: b4c9 773e b196 433e 789c 8cbd 3548 a2bd
00000040: 6c52 8fbc aa0c f0bc 5c24 f03c fe96 f5bc
00000050: 0108 ce3c 1a24 af3c 2acd f73c 5ef3 07bd
00000060: 9313 d1bb 813a 74bb 6e51 183c 7c3f e9bc
00000070: 0052 26ba 4e4e 1a3c e005 94bc 3ae5 a73c
00000080: 8f1d 843e b5ee 90bb 42b0 4cbe 2728 023d
00000090: 1dc0 d6bd c9ed ee3d 4a92 ea3e e78b 7c3d
000000a0: a841 d33d 49aa 633d 0e94 87be 774f 71be
000000b0: ee51 913d 64c8 933e bbc4 dd3e 1de3 99bd
000000c0: 403c ca3d 51f1 0a3e ccd4 abbd 1931 983d
000000d0: 2efb 773c b762 c23a 2121 5a3c dc3e 12bb
000000e0: 3e9d a2bc d719 a0bc 102b 253d 09ce c4bd
000000f0: 5763 81bd 7e3c 663e b55f 983e 7982 883e
00000100: ba62 8c3e f573 d33e e3b2 2b3f 5458 a73e
00000110: a48c a93d aa67 eebd a7ad 5fbe ce49 8abe
00000120: 4c95 73be f356 b1be 462c 40be 67d5 053e
00000130: 3b86 093e c461 033e fdb5 a93e 424c 943e
00000140: 0583 a5bd ce50 c13b dae6 ccbc aeb4 073d
00000150: 20c5 8abc 00de 9abb 60bb 5e38 1b28 dabe
00000160: a914 7e3c b68a 4dbe be75 00bf b292 5fbe
00000170: 7a9f 573f ad72 5bbe ed2b 20bf e69a edbe
00000180: a1e8 37bf 6e6a 2dbf 27c5 06bd f9b1 32be
00000190: bf8b 82bd 6121 d03d bb7a 093e 11e6 323e
000001a0: 99c6 dc3e 191a 363e 564f abbc 0c6c 1abe
000001b0: 6f58 ecbe 29da 7c3e 20d4 843e 25bd 483a
000001c0: 81b4 c3bc 9641 0ebf 70ee f43d b35c 06be
000001d0: a9f3 b13e 4c54 a03e 8a48 9bbe 1c74 c4be
000001e0: 5e7a 51be ba9d c1be 88de 11bf 2dbb 3fbe
000001f0: 044a d5bd 5596 47be 2e5a eabd 2a1a b5be
00000200: 0757 5dbe 627b 10be 2ff0 aabd a693 10be
00000210: 4e01 7ebd 6367 913e c835 2a3e b20e 2e3e
00000220: 54bf f9bc ad8b 87be 3563 aebd bea4 c13e
00000230: 1e7a de3c 0ee0 eebc b241 f7bd 20a5 86bd
00000240: 67d7 713e e912 a83e d95e cb3d df8d 7abe
00000250: b80f f73d e0dd 233e f7be 58bd e6c1 a8bd
00000260: 390a 9e3c 9cf7 c93c 34bf 92be 6566 4cbe
00000270: 8cde 9cbe d64b 74bd 7f25 c73d 4420 84be
00000280: 6300 e5bc 776e dbbd e5ba 443d 43ea da3b
00000290: dc58 aebe 61ff adbe 77e7 b0bd 25a3 b23e
000002a0: b7b8 113c 4838 213f 7f22 12bd f465 1bbe
000002b0: fdf5 a93e 8935 873d 140b 32b9 a4c1 7b3d
000002c0: 9fdf 713d 6ac2 0f3d dfde 1ebc af7c f3bb
000002d0: 8222 a5bd b3d0 1dbd b9ae c43d 2f89 d73c
000002e0: 8bfc d0bc 7492 d83d 28cf 393e f9ad a8bd
000002f0: 10d5 87bd 2ee8 abbd 5d36 803e bc34 853d
00000300: fc36 17be 637b 07be 1fd5 a9bc 3fe3 87bd
00000310: ca1a a0be 60c0 69be 3b3e 543e 118f 073e
00000320: 573a 75bd a8b0 d33d 2387 31bc 0824 e83d
00000330: 40a4 eb3c 0bb7 9abc 8ee4 c93b 7089 773d
00000340: 8fad e23c d566 793b 9c7e ca3d 9913 2f3c
00000350: 6f91 b83b 00d0 fc3b e4c6 5abd 78d7 9cbd
00000360: ee7c e23c f726 c33d 5906 243e 8728 8bbe
00000370: 033f 41bf 9fa0 c9be 33d5 cabe 9668 bebe
00000380: 6630 a1be 1b49 8a3d d33c 5d3e 4877 823d
00000390: 8dfa 10bd faa9 9bbd be21 343e 63bb 22bd
000003a0: 291d f13b 77f3 d43c 7a7b d0bb 4bdf 83bc
000003b0: aab8 8b3c d019 59bc 9cec 753d 90c0 9d3d
000003c0: 83d9 adba e83d e2bc c017 debd b156 b03c
000003d0: 8048 2d3c 70e5 1ebb 50e7 26be e0de e73d
000003e0: eafa 92bb 9c14 7dbe 31ef a0be 30f9 f6bc
000003f0: aa79 4abe 7a9c 43be d410 023e 27bb 5a3e

encoder.fc1.bias f4 [100]
0.593304 0.3313338 -0.31431985 0.0061110645 0.74043316 -0.06795302 0.3548943 0.19121048
-0.4914677 0.19581665 -0.46481153 0.52150226 0.31990486 0.16455606 -0.47002366 -0.36062348
-0.26625496 0.31389168 -0.39227426 -0.11888776 -0.17121024 0.6619732 -0.40943334 -0.3258194
0.3054077 0.5896557 -0.6604292 0.39286327 -0.14148492 0.20855893 0.5472118 0.18728687
0.81115454 0.047973715 -0.22075953 -0.37708235 0.61053824 -0.038316317 0.3158916 -0.37376234
0.03935011 1.1036786 0.5770046 0.35151154 -0.20452203 -0.7625784 0.22434661 0.29735738
0.08490524 0.44663492 -0.81531507 -0.11028223 0.70296085 0.70620924 0.34429097 0.9881245
1.0610034 -0.14247844 0.1359584 0.5891193 -0.02071037 0.50968874 -0.38002062 -0.414451
0.38710186 0.3995503 -0.18997148 0.5304562 -0.277441 0.28654695 0.38952333 -0.11947859
0.12616545 0.06984138 0.32109943 -0.09007273 -0.005788982 0.898343 -0.5668468 -0.20288111
-0.3439981 0.42962912 0.40050817 -0.11305657 0.8752653 0.50864404 0.3479331 -0.06799075
0.48332372 0.65812695 -0.21074246 -0.03253046 0.4658197 0.45960444 0.32998136 0.19903801
-0.110036135 0.622883 0.1696656 0.04148497
00000000: c5e2 173f 95a4 a93e 88ee a0be 533f c83b
00000010: 078d 3d3f f42a 8bbd b5b4 b53e aecc 433e
00000020: a8a1 fbbe 2984 483e c7fb edbe 2c81 053f
00000030: 92ca a33e 6281 283e f1a6 f0be a4a3 b8be
00000040: 9252 88be 69b6 a03e 2cd8 c8be 6d7b f3bd
00000050: bd51 2fbe 1377 293f 3fa1 d1be cdd1 a6be
00000060: 665e 9c3e adf3 163f e311 29bf 6025 c93e
00000070: 6ce1 10be 7990 553e 1316 0c3f 21c8 3f3e
00000080: d3a7 4f3f 1680 443d c90e 62be f010 c1be
00000090: 3c4c 1c3f 92f1 1cbd 8bbc a13e c75d bfbe
000000a0: 952d 213d 5745 8d3f 93b6 133f 52f9 b33e
000000b0: 396e 51be 5738 43bf 1ebb 653e 3a3f 983e
000000c0: cce2 ad3d 55ad e43e 7db8 50bf a6db e1bd
000000d0: 3ef5 333f 21ca 343f e846 b03e baf5 7c3f
000000e0: f6ce 873f dee5 11be ae38 0b3e 86d0 163f
000000f0: cba8 a9bc f67a 023f 1092 c2be ec32 d4be
00000100: 3732 c63e db91 cc3e e287 42be facb 073f
00000110: bf0c 8ebe 48b6 923e 9a6f c73e 31b1 f4bd
00000120: 8431 013e ff08 8f3d 2567 a43e 0d78 b8bd
00000130: 80b1 bdbb cff9 653f df1c 11bf 11c0 4fbe
00000140: 8520 b0be 59f8 db3e 680f cd3e 348a e7bd
00000150: 6311 603f 7f36 023f 4a24 b23e bc3e 8bbd
00000160: 3576 f73e 027b 283f dfcc 57be a93e 05bd
00000170: eb7f ee3e 4651 eb3e 51f3 a83e 9fd0 4b3e
00000180: a05a e1bd 4375 1f3f d2bc 2d3e 25ec 293d

encoder.fc2.weight f4 [100, 100]
0.0878128 -0.17490865 0.09210654 0.066619195 -0.096278034 -0.24490933 0.01525044 -0.05710961
-0.4704315 -0.041650973 -0.052566383 -0.008955428 -0.029109549 0.07599625 0.011156559 0.023528507
0.052894555 -0.089077555 0.05316801 -0.15770306 0.010173686 -0.10803347 -0.037935913 -0.29194292
0.12789264 -0.040265873 0.047017723 0.016659742 -0.04759387 0.111570254 0.0042380933 0.16521011
-0.013898458 0.07333382 0.0077079986 0.064811826 0.011611788 -0.32998168 -0.16602892 -0.080207326
-0.04428875 -0.13879995 0.023075067 0.08253306 -0.27932957 -0.327519 -0.10626093 -0.011216923
0.22367898 -0.029404182 -0.02634652 0.04268666 -0.0015613094 0.08255468 -0.20192116 0.08600162
0.04369508 -0.016065761 0.060381103 -0.089521565 0.020989824 0.07804279 -0.4068862 -0.07039453
0.004384164 0.040003404 -0.15977167 0.013664161 -0.14391255 0.021816136 -0.0403549 0.038715426
0.0037181976 0.025534524 -0.060913544 -0.27627757 -0.06453649 0.117568366 -0.06704817 -0.0020490405
-0.0038982867 -0.025544222 0.017762972 0.016907416 -0.043652102 0.16011098 0.02394023 0.03489324
0.054776143 -0.11134822 -0.1266504 0.0021535456 0.041902225 -0.008467543 -0.08576123 0.018384557
0.036405485 0.06953347 0.057079896 0.030310053 0.014510618 -0.030779405 -0.11169939 -0.006462974
0.08312352 -0.13012695 -0.14648 -0.013967231 -0.105883926 -0.10067929 -0.047258057 0.11101617
-0.019965108 0.139144 0.013506215 0.010442025 0.06754247 0.15456489 -0.026885843 -0.11801257
-0.023113437 0.054947924 -0.023940604 -0.18923683 -0.026605997 -0.02916099 0.040448565 0.012207159
-0.11193872 0.029619506 -0.09614002 0.09474806 -0.064286515 0.047749512 0.07785425 0.06991298
-0.004243259 0.10953953 0.10585708 0.0039358838 -0.16057259 0.09672553 -0.03706365 0.12023891
-0.24573457 -0.10755084 -0.032525398 0.0014174529 -0.06450687 -0.029861761 0.016079977 0.015530782
-0.089527026 -0.033426143 -0.04004848 -0.00920526 0.1769807 0.102289684 -0.032637708 -0.09482633
0.01216933 -0.07857222 0.035454452 0.016784709 -0.035518896 0.06986795 0.019543527 -0.02665856
0.04739173 0.02156856 0.10007911 -0.046144176 0.047743842 0.082787536 -0.17393954 -0.06203649
-0.0034039693 -0.016221538 -0.16285823 -0.062579505 0.007951613 -0.10164076 0.11293418 0.011666018
0.040170364 0.09218928 0.03319217 -0.013598843 0.032480482 0.14540645 0.008174455 0.05612169
0.07053837 -0.0052691298 -0.13521054 0.037096143 -0.042535145 -0.21571049 0.03803074 0.0017522477
0.06672631 -0.11697956 0.014857205 0.06819834 0.16809319 0.09481793 -0.010563918 0.055557862
-0.039568402 -0.0344643 -0.02201215 -0.1778858 0.002581758 -0.027597439 -0.051063318 -0.013623981
0.038723767 -0.095823556 -0.013471907 0.06675882 0.01785693 -0.09613902 0.011304944 -0.021672757
0.10466268 0.09097083 -0.008576633 0.0011196346 -0.22468036 0.052499603 0.4879985 -0.11843329
0.008862428 -0.00322785 0.019081725 0.024705399 0.0014858857 0.15951273 0.044282544 0.028939186
0.27251503 0.1291377 -0.062039994 -0.0954557 -0.10146908 -0.06266732 0.10902708 -0.02610016
-0.012117006 0.062258087 -0.066805445 0.00810446 -0.09609368 0.027066752 0.12090745 0.06843729
00000000: 33d7 b33d 411b 33be 5ba2 bc3d a56f 883d
00000010: 6b2d c5bd 83c9 7abe fbdc 793c c4eb 69bd
00000020: 66dc f0be 369a 2abd d94f 57bd cab9 12bc
00000030: 2677 eebc eca3 9b3d 00ca 363c dbbe c03c
00000040: f6a7 583d 4b6e b6bd b3c6 593d e97c 21be
00000050: 88af 263c a740 ddbd b062 1bbd 8b79 95be
00000060: 4af6 023e d4ed 24bd a895 403d 037a 883c
00000070: caf1 42bd f27e e43d b4df 8a3b d72c 293e
00000080: 5cb6 63bc 0b30 963d 6193 fc3b 10bc 843d
00000090: 5e3f 3e3c 5cf3 a8be 7c03 2abe bd43 a4bd
000000a0: 1f68 35bd 9321 0ebe ec07 bd3c 1807 a93d
000000b0: 4904 8fbe 92b0 a7be 559f d9bd 2fc7 37bc
000000c0: 1a0c 653e 0ae1 f0bc a8d4 d7bc 35d8 2e3d
000000d0: daa4 ccba 6e12 a93d 6cc4 4ebe 9e21 b03d
000000e0: 9df9 323d 589c 83bc 2d52 773d 1557 b7bd
000000f0: daf2 ab3c e6d4 9f3d 6353 d0be 022b 90bd
00000100: 09a9 8f3b 9cda 233d 2f9b 23be a5df 5f3c
00000110: d05d 13be c1b7 b23c 2e4b 25bd 1194 1e3d
00000120: 01ad 733b c72d d13c 7b80 79bd 4174 8dbe
00000130: b52b 84bd afc7 f03d 8d50 89bd 3249 06bb
00000140: 667a 7fbb 1e42 d1bc a783 913c 6c81 8a3c
00000150: 8ccc 32bd 22f4 233e 4d1e c43c 37ec 0e3d
00000160: f35c 603d 890a e4bd a4b0 01be 8022 0d3b
00000170: aba1 2b3d 73bb 0abc 95a3 afbd 369b 963c
00000180: eb1d 153d 9067 8e3d 9ccc 693d ca4c f83c
00000190: f1bd 6d3c 1725 fcbc a6c2 e4bd 5bc7 d3bb
000001a0: aa3c aa3d 0040 05be dafe 15be d0d6 64bc
000001b0: acd9 d8bd f230 cebd aa91 41bd 725c e33d
000001c0: de8d a3bc c47b 0e3e 2c49 5d3c 0715 2b3c
000001d0: b553 8a3d 4246 1e3e b33f dcbc 93b0 f1bd
000001e0: 6458 bdbc 1311 613d 161f c4bc 4dc7 41be
000001f0: d2f4 d9bc 07e3 eebc 65ad 253d 8900 483c
00000200: 2140 e5bd 9ba4 f23c 0fe5 c4bd 450b c23d
00000210: a6a8 83bd fe94 433d 0d72 9f3d 892e 8f3d
00000220: 090b 8bbb 4356 e03d 99cb d83d 96f8 803b
00000230: 246d 24be 0918 c63d 0ed0 17bd d13f f63d
00000240: d8a1 7bbe 9d43 dcbd 5a39 05bd d4c9 b93a
00000250: 2e1c 84bd a7a0 f4bc 28ba 833c d274 7e3c
00000260: f259 b7bd dae9 08bd e009 24bd a9d1 16bc
00000270: 6e3a 353e 417d d13d 1eaf 05bd 4f34 c2bd
00000280: df61 473c 79ea a0bd b038 113d 1680 893c
00000290: 437c 11bd ee16 8f3d bf19 a03c 0d63 dabc
000002a0: d51d 423d 8cb0 b03c 47f6 cc3d ad01 3dbd
000002b0: 0c8f 433d 838c a93d 351d 32be f919 7ebd
000002c0: 2115 5fbb 08e3 84bc 4fc4 26be af29 80bd
000002d0: 7b47 023c 0829 d0bd 094a e73d d322 3f3c
000002e0: ae89 243d bccd bc3d 83f4 073d aecd 5ebc
000002f0: 410a 053d 6ee5 143e 26ee 053c dbdf 653d
00000300: 6c76 903d aaa8 acbb a274 0abe 20f2 173d
00000310: 5539 2ebd 36e3 5cbe 1fc6 1b3d adab e53a
00000320: cea7 883d fb92 efbd a26b 733c 92ab 8b3d
00000330: 9f20 2c3e e72f c23d 4914 2dbc a490 633d
00000340: 7a12 22bd 702a 0dbd d352 b4bc b227 36be
00000350: b632 293b 0614 e2bc c527 51bd 1e37 5fbc
00000360: d09c 1e3d 243f c4bd 46b9 5cbc d9b8 883d
00000370: b248 923c 89e4 c4bd 5f38 393c 118b b1bc
00000380: 6359 d63d ea4e ba3d 0285 0cbc b4c0 923a
00000390: 9c12 66be d309 573d f0da f93e 278d f2bd
000003a0: b833 113c 568a 53bb 4751 9c3c fa62 ca3c
000003b0: 0dc2 c23a 4e57 233e 9d61 353d df11 ed3c
000003c0: 1787 8b3e ac3c 043e a61d 7ebd 477e c3bd
000003d0: 05cf cfbd b957 80bd 9749 df3d 01d0 d5bc
000003e0: 6886 46bc 5602 7f3d 4bd1 88bd 92c8 043c
000003f0: c3cc c4bd 18bb dd3c 539e f73d da28 8c3d

encoder.fc2.bias f4 [100]
0.3166177 -0.0024388875 0.31152907 0.21159169 0.11623989 0.6572849 0.2902136 0.09278563
0.28421104 0.21506098 0.29540923 0.33218458 0.37284014 -0.16809645 0.0003623858 0.03897679
0.17762816 -0.1251043 0.26225978 0.15984851 0.029530412 0.053132672 0.05318059 0.25839484
-0.1294882 0.19702926 0.13012259 0.25573137 -0.22368053 0.078531824 0.22277148 -0.25170577
0.31904122 0.42548448 -0.22744748 0.12919877 -0.0023914587 0.25426772 0.001082794 0.17724897
-0.10983692 0.2783673 -0.02871301 -0.47079483 0.22425045 0.24621332 0.52137816 0.19722149
-0.21795683 0.38994625 0.250917 0.28403324 0.1890711 0.36444017 0.0054315343 -0.32531366
0.074976325 0.47474024 0.055379238 -0.09890491 0.17277797 -0.051092822 0.47790524 0.03753003
-0.11078558 0.38138506 0.15760101 0.3329062 0.2917295 0.09198552 0.36883333 -0.03552519
0.16420913 0.07652714 0.2994305 -0.07507762 0.07070153 0.4779397 0.3548599 0.45434752
-0.06912005 0.35937107 0.29880783 0.3764524 0.37470248 0.25223154 0.16809501 0.14748879
0.094139524 0.2389905 -0.2369995 -0.1402556 -0.023233777 0.084296085 0.29335344 -0.0726571
-0.27341303 0.562172 -0.14291795 0.30627868
00000000: b71b a23e bed5 1fbb bd80 9f3e 7eab 583e
00000010: 2e0f ee3d d343 283f e196 943e 6406 be3d
00000020: 1c84 913e f238 5c3e e13f 973e 1914 aa3e
00000030: e7e4 be3e 7a21 2cbe 99fe bd39 20a6 1f3d
00000040: 28e4 353e 571b 00be ea46 863e 54af 233e
00000050: c3e9 f13c a5a1 593d e4d3 593d 544c 843e
00000060: 8e98 04be 0ac2 493e db3e 053e 39ef 823e
00000070: 820c 65be 4bd5 a03d 351e 643e 94df 80be
00000080: 5f59 a33e 1ad9 d93e fee7 68be af4c 043e
00000090: 05ba 1cbb 612f 823e 8aec 8d3a c180 353e
000000a0: 2ef2 e0bd 2986 8e3e 8c37 ebbc 050c f1be
000000b0: e9a1 653e 581f 7c3e 0a79 053f 6ef4 493e
000000c0: 1330 5fbe 09a7 c73e 3178 803e ce6c 913e
000000d0: db9b 413e e797 ba3e 03fb b13b 838f a6be
000000e0: 308d 993d 2711 f33e 57d5 623d a88e cabd
000000f0: b5ec 303e b546 51bd ffaf f43e 17b9 193d
00000100: 8de3 e2bd e744 c33e 2962 213e ae72 aa3e
00000110: 925d 953e e862 bc3d b9d7 bc3e dd82 11bd
00000120: 7026 283e 43ba 9c3d f44e 993e 4cc2 99bd
00000130: f7cb 903d 83b4 f43e 32b0 b53e 3da0 e83e
00000140: d08e 8dbd 7cff b73e 57fd 983e 5ebe c03e
00000150: 01d9 bf3e 7e24 813e 1921 2c3e 4d07 173e
00000160: 39cc c03d edb9 743e ffaf 72be 2a9f 0fbe
00000170: c354 bebc 6da3 ac3d 6c32 963e 3fcd 94bd
00000180: cbfc 8bbe 81ea 0f3f 1559 12be 8fd0 9c3e

encoder.fc_mean.weight f4 [4, 100]
-0.04453356 0.060192086 -0.081941254 0.020624273 -0.09817737 0.25135458 -0.103637375 -0.03624639
0.13662651 -0.045647465 0.027776174 -0.05616261 0.0147168115 -0.0034972152 0.0060267826 0.032895587
-0.04479176 0.034342363 -0.07391302 -0.042935353 0.005506572 0.0031312762 -0.035006598 -0.049915865
0.08048154 0.17213552 -0.07073014 0.05459419 0.07222422 -0.02293618 -0.005234873 0.032235187
-0.0124407355 -0.092366695 0.008826632 0.0013371537 -0.020728981 -0.09935817 0.02996683 0.06578622
0.13645281 0.004885043 -0.025102697 0.09274962 0.007005608 0.0131884795 0.049275707 0.012741752
0.011444266 0.005918018 -0.028826702 -0.061341852 0.023994323 -0.079742655 -0.050739355 -0.02431149
0.05566389 0.15003517 -0.06455173 0.11484827 0.053378444 -0.010447093 0.10850683 0.07042675
-0.002916345 -0.026173662 -0.09522494 -0.07121791 -0.036807597 0.015621171 -0.080724746 -0.07002439
0.06953334 -0.009519738 -0.0779037 -0.0014688468 0.08326758 -0.005419064 -0.058591653 0.20005038
0.016609328 -0.049220126 -0.03132222 -0.09871133 -0.018628582 0.080329545 -0.051815026 -0.016077898
0.05541144 -0.036832053 -0.08063911 0.030342638 0.041612405 -0.036366962 -0.058536675 -0.0026139168
0.028203856 0.083314925 0.18494838 -0.01826188 0.0448691 -0.041342314 -0.06376886 -0.15789022
0.04476891 -0.046825346 0.6245579 -0.16669303 -0.04165313 0.042205922 -0.1630007 0.030244716
0.108934306 0.084740855 -0.011806845 0.21123156 -0.043215785 0.15598078 0.079608046 0.114930846
-0.06445063 -0.10970516 -0.059031017 -0.084266886 -0.09422479 -0.055644885 0.022197464 0.056201573
-0.023502046 -0.011653537 -0.056052867 -0.17626563 -0.05859665 0.06275996 0.06993309 0.40095687
-0.09556185 0.06955256 0.032549895 0.083424315 -0.055403754 0.04755859 -0.09566153 0.1168038
0.36949795 -0.06839111 0.03718642 0.006802916 -0.010276709 0.102155365 0.03602569 -0.036277223
-0.12719046 -0.04499497 -0.02030768 -0.014612052 0.05818866 0.08879847 -0.049309112 0.050048985
-0.011667368 -0.06909543 -0.0050076856 -0.04850344 0.050816324 0.01510907 -0.09555062 -0.0033216106
-0.0016464001 -0.03466574 0.03144824 0.035380643 0.10679604 0.0868881 0.15130177 0.1188608
-0.02763625 -0.015399455 -0.02546614 -0.06893639 -0.077675834 -0.0940863 -0.027958134 -0.06556718
0.028715793 0.1667713 0.027376845 -0.037128545 -0.042316113 -0.022070525 0.1005003 -0.08469793
0.07080484 -0.21222374 0.020043805 0.05612252 -0.03628634 -0.076805376 0.011423939 0.12934572
-0.19216403 0.018820727 0.011401251 0.03947796 0.04062349 0.18535627 -0.215375 -0.20560467
-0.103653274 0.06497449 0.06995765 0.065227516 -0.023103327 -0.035519324 -0.015814537 -0.0046321773
0.02741415 -0.06906359 -0.024552522 0.062308833 0.10317495 0.117478214 -0.18066244 -0.01652499
-0.035780165 -0.12877017 -0.0839798 0.0022401253 0.32079467 0.036210872 -0.08584657 -0.030026546
-0.042051796 0.009411458 -0.037600573 -0.3165819 0.003119358 -0.10821892 0.03320747 0.0333809
-0.17214939 0.07098445 0.004917579 0.05227117 -0.013968714 0.009736118 0.051756296 -0.11239794
0.12662822 -0.026794149 -0.0053408393 -0.06604407 0.051169958 0.020374045 -0.062469672 0.107399754
00000000: d268 36bd fa8b 763d d1d0 a7bd 3cf4 a83c
00000010: 3811 c9bd 8cb1 803e d53f d4bd 1877 14bd
00000020: d2e7 0b3e d6f8 3abd dc8a e33c c40a 66bd
00000030: c81e 713c 8931 65bb 517c c53b 86bd 063d
00000040: 9177 37bd 94aa 0c3d b65f 97bd fbdc 2fbd
00000050: 7970 b43b 1936 4d3b 1463 0fbd 9474 4cbd
00000060: 81d3 a43d 4b44 303e f7da 90bd 289e 5f3d
00000070: 4bea 933d a8e4 bbbc 4c89 abbb 0b09 043d
00000080: 3ad4 4bbc c02a bdbd 949d 103c 6f43 af3a
00000090: d3cf a9bc 4c7c cbbd ff7c f53c edba 863d
000000a0: 49ba 0b3e b612 a03b 2ca4 cdbc 83f3 bd3d
000000b0: 4d8f e53b 7e14 583c 53d5 493d c8c2 503c
000000c0: bb80 3b3c efeb c13b fa25 ecbc 9841 7bbd
000000d0: be8f c43c 1e50 a3bd 12d4 4fbd e428 c7bc
000000e0: d2ff 633d d2a2 193e b333 84bd 9235 eb3d
000000f0: 5ba3 5a3d 492a 2bbc d438 de3d e63b 903d
00000100: 2620 3fbb 266a d6bc 4b05 c3bd b2da 91bd
00000110: 90c3 16bd f1ef 7f3c 0453 a5bd f368 8fbd
00000120: 7f67 8e3d adf8 1bbc fa8b 9fbd 5286 c0ba
00000130: 3188 aa3d 6792 b1bb cdfd 6fbd 02da 4c3e
00000140: 4910 883c 0b9b 49bd ba4b 00bd 2a29 cabd
00000150: f89a 98bc d183 a43d fe3b 54bd ccb5 83bc
00000160: 1bf7 623d 35dd 16bd 1e26 a5bd 2091 f83c
00000170: c571 2a3d 86f5 14bd 27c4 6fbd 3f4e 2bbb
00000180: c60b e73c 04a1 aa3d 1c63 3d3e f099 95bc
00000190: a9c8 373d 8f56 29bd 4099 82bd f9ad 21be
000001a0: 9b5f 373d efcb 3fbd 07e3 1f3f 94b1 2abe
000001b0: 799c 2abd 1ee0 2c3d a8e9 26be c4c3 f73c
000001c0: f318 df3d 9d8c ad3d 7f71 41bc 164d 583e
000001d0: 0903 31bd 6db9 1f3e 8b09 a33d dd60 eb3d
000001e0: b1fe 83bd 19ad e0bd 82ca 71bd 1e94 acbd
000001f0: edf8 c0bd e4eb 63bd 75d7 b53c 9f33 663d
00000200: 5d87 c0bc 7aee 3ebc b197 65bd fa7e 34be
00000210: 0a03 70bd 4b88 803d 1439 8f3d 384a cd3e
00000220: eeb5 c3bd 9371 8e3d 0a53 053d 5eda aa3d
00000230: 0cef 62bd cccc 423d 31ea c3bd d536 ef3d
00000240: d62e bd3e a310 8cbd ca50 183d ffea de3b
00000250: a45f 28bc d536 d13d ad8f 133d 6d97 14bd
00000260: 373e 02be a54c 38bd 4b5c a6bc 6367 6fbc
00000270: 3b57 6e3d f9db b53d 5af8 49bd 2a00 4d3d
00000280: 7d28 3fbc e881 8dbd 8317 a4bb 8bab 46bd
00000290: c724 503d 088c 773c 0bb0 c3bd 61af 59bb
000002a0: 05cc d7ba aafd 0dbd dfcf 003d 4beb 103d
000002b0: e2b7 da3d 63f2 b13d daee 1a3e 4b6d f33d
000002c0: 6b65 e2bc ff4d 7cbc 5e9e d0bc 862e 8dbd
000002d0: 8214 9fbd 51b0 c0bd 7508 e5bc 1648 86bd
000002e0: 623d eb3c 18c6 2a3e 6845 e03c 1a14 18bd
000002f0: a953 2dbd 3fcd b4bc 1ad3 cd3d 1c76 adbd
00000300: 2102 913d 2e51 59be e832 a43c bae0 653d
00000310: fca0 14bd 234c 9dbd 792b 3b3c 3473 043e
00000320: a6c6 44be ed2d 9a3c 50cc 3a3c a4b3 213d
00000330: d164 263d 09ce 3d3e 448b 5cbe 088a 52be
00000340: 2b48 d4bd 5811 853d f545 8f3d 0196 853d
00000350: 3043 bdbc b67c 11bd 7d8d 81bc 85c9 97bb
00000360: a493 e03c 3671 8dbd 5f22 c9bc 8c37 7f3d
00000370: 634d d33d 6b98 f03d 93ff 38be 6a5f 87bc
00000380: 398e 12bd 54dc 03be 9afd abbd 11cf 123b
00000390: 333f a43e da51 143d 54d0 afbd 3bfa f5bc
000003a0: 813e 2cbd 8432 1a3c 0f03 1abd 0617 a2be
000003b0: 256e 4c3b e2a1 ddbd 8e04 083d 69ba 083d
000003c0: ee47 30be 4c60 913d a423 a13b 4b1a 563d
000003d0: 08dd 64bc 3d84 1f3c 69fe 533d e430 e6bd
000003e0: d4aa 013e 677f dbbc 3502 afbb 1d42 87bd
000003f0: 9797 513d 78e7 a63c 33e0 7fbd 67f4 db3d

encoder.fc_mean.bias f4 [4]
-0.05831731 -0.1343901 -0.11582798 0.09333076
00000000: 22de 6ebd 8f9d 09be 3837 edbd 3324 bf3d

encoder.fc_var.weight f4 [4, 100]
-0.00064232625 0.00012842026 0.00041976268 -0.0008459433 -0.0013585892 -0.0012444142 0.00055511546 0.004493311
0.0018983242 0.0010491102 0.0041648294 -0.0011476851 0.0012949774 0.0033623073 -0.0074059805 0.0003681561
-0.0017342296 -0.00013334767 -0.0014166865 -0.00060123316 0.00075874967 0.0007461968 0.0019735137 0.0011941625
0.00023878113 -0.0043077893 0.00093566196 -0.0018162881 -0.0014632291 -0.0012641716 -0.0010672451 -0.006473723
0.0012537426 -0.003192854 0.00308003 -0.0014826363 0.00070905546 0.00039514893 -0.00082263397 0.001037514
0.004480898 -0.0013987826 0.0022810402 -0.00033943367 -0.0014506177 0.0010688349 0.0015106478 0.0019447108
0.00035435162 -0.0009704078 0.0038673654 0.0020880916 0.0034131228 -0.0014495439 0.0013965007 3.720433e-05
-0.00026913855 0.0018755898 0.00070242985 0.008244438 -0.00045400125 -0.0009580443 -0.0005193194 0.011668645
0.002051475 0.0025148485 0.0057299947 0.0018498821 0.00017128976 0.0039060882 0.0010795796 -0.006037745
-0.0014230297 -0.00023869645 0.0026680864 -0.00010467953 -0.0006624772 0.0016642637 0.003128745 -0.0029143936
-0.000758554 0.0021664726 0.0013808537 0.0009320795 -0.0033519554 -0.0007057537 -0.0026887571 0.0031763215
-0.00062083785 -0.0015348685 0.0001921127 -0.0021481507 -0.0036453456 -0.0023425939 -0.00031750498 5.18459e-05
2.3113345e-05 -0.0012598675 0.003982678 -0.00017627739 0.00019297587 -0.00014702308 -0.0018565478 -3.5069064e-05
-0.0055655693 -0.00026578704 -0.003996491 0.0049619405 0.0019854172 -0.0006292582 0.002619475 -0.0005615434
-0.00056759117 -0.0007100028 0.0003302527 -0.0001751094 0.0021897107 -0.0017147568 0.0045461236 0.0017150255
-0.0024612257 0.00080791756 0.00018410869 -0.006045441 -0.0005864489 -0.0020220722 0.0024286336 0.00035155422
0.0023194859 0.002451201 0.0011085803 -0.004260104 0.0017598679 -0.00017638598 0.0036840437 0.0037895548
0.005077341 -0.0053862026 -0.0011576415 0.00053369213 0.0015573883 0.0034017528 0.0002874632 -0.0052668056
0.0003458087 -0.00040751614 9.4116054e-05 0.0017625329 -0.0035725061 -0.0011449842 -0.0020697634 0.00036808316
-0.0017483581 -0.0058215666 -0.00066726736 0.0029359024 -2.7565533e-05 0.0007480393 -0.0001014723 -0.006913477
-0.00039472416 -0.0012217663 -0.002861702 0.0032601308 -0.008911728 -0.0010735276 -0.002302945 -0.0057741487
-0.0013035035 0.0023706236 0.0037226249 0.0023581511 -0.00013233139 0.00026853624 0.000714898 0.00594343
0.002032516 6.988444e-05 0.00067002774 0.0020659405 -0.0017878793 0.00024335556 -0.0016030854 0.0015774285
-0.0001449773 0.0034311418 0.0009031414 0.0010613656 -0.0013352411 0.0018935202 0.00083061104 -0.00049489015
-0.0010740836 -0.0016661962 0.0011517147 0.00086807896 -0.00014761537 0.0008901393 -0.0005442345 -0.00083898753
-0.00016962034 -0.0016064198 -0.0006193407 0.003293124 0.0028401935 0.0011773338 0.0015313122 -0.0019213859
0.00040650787 -0.00049770006 0.0051453407 0.00013148498 -0.0006617821 -0.006505066 0.0051801945 7.589507e-05
0.0015104207 0.0055652102 -0.004334804 0.0007118094 -0.002348658 -0.0030934215 -0.001288652 -0.0007088902
0.0004115972 -0.00015738838 0.003143408 0.00024413712 0.0043491917 0.0024437115 0.0067664813 0.0057043904
-0.00012376407 0.0001322414 -0.0035438268 0.00041229074 -0.0016135937 0.00033504807 0.00027291154 -0.0009389784
-0.002572185 -0.00021940547 0.00017098324 0.00095329486 6.757023e-05 0.0038244287 -0.0025284495 0.0025021094
0.0032173267 -0.00023605055 -0.0011463969 0.0029247599 -0.0003015914 -0.001127332 0.0022304982 0.00032009935
00000000: c961 28ba 8da8 0639 9813 dc39 4bc2 5dba
00000010: b012 b2ba 9d1b a3ba 2b85 113a a03c 933b
00000020: 31d1 f83a 4c82 893a 1f79 883b ec6d 96ba
00000030: 3bbc a93a 285a 5c3b dead f2bb 1305 c139
00000040: 174f e3ba 3ed3 0bb9 1cb0 b9ba 139c 1dba
00000050: d4e6 463a 6b9c 433a 1156 013b 7285 9c3a
00000060: 5261 7a39 5b28 8dbb 3647 753a 8410 eeba
00000070: d2c9 bfba 8fb2 a5ba cee2 8bba 8621 d4bb
00000080: 9f54 a43a 343f 51bb 54da 493b 0555 c2ba
00000090: e8df 393a fe2b cf39 08a6 57ba 31fd 873a
000000a0: 7fd4 923b 5b57 b7ba 817d 153b 04f6 b1b9
000000b0: a722 beba 2618 8c3a ee00 c63a abe5 fe3a
000000c0: 45c8 b939 f762 7eba a073 7d3b 5dd8 083b
000000d0: b3ae 5f3b 9ffe bdba ca0a b73a d80b 1c38
000000e0: 2a1b 8db9 5ad6 f53a 4523 383a ae13 073c
000000f0: 0407 eeb9 4425 7bba ef22 08ba d82d 3f3c
00000100: 0a72 063b 28d0 243b aec2 bb3b be77 f23a
00000110: 3f9c 3339 49fd 7f3b ae80 8d3a 47d8 c5bb
00000120: f484 baba 974a 7ab9 10db 2e3b 6587 dbb8
00000130: 18aa 2dba 6c23 da3a a10b 4d3b 69ff 3ebb
00000140: b2d9 46ba 61fb 0d3b c3fd b43a cc56 743a
00000150: 7bac 5bbb 5402 39ba dc35 30bb d529 503b
00000160: b9bf 22ba a42d c9ba dc71 4939 fdc7 0cbb
00000170: c0e6 6ebb 3486 19bb cc76 a6b9 1c75 5938
00000180: 88e3 c137 2322 a5ba 2081 823b 1ad7 38b9
00000190: 9159 4a39 352a 1ab9 6857 f3ba 1f17 13b8
000001a0: 615f b6bb 5559 8bb9 fff4 82bb c697 a23b
000001b0: c61d 023b cef4 24ba 7fab 2b3b 8a34 13ba
000001c0: 66ca 14ba 7b1f 3aba c425 ad39 929d 37b9
000001d0: 4081 0f3b b1c1 e0ba a6f7 943b b5ca e03a
000001e0: 844c 21bb 6eca 533a 4d0d 4139 d618 c6bb
000001f0: ebbb 19ba be84 04bb b629 1f3b cf50 b839
00000200: 8402 183b 54a4 203b c84d 913a 5898 8bbb
00000210: 5eab e63a 40f4 38b9 ff6f 713b 2e5a 783b
00000220: d35f a63b be7e b0bb 01bc 97ba 79e7 0b3a
00000230: 4821 cc3a f1ef 5e3b a8b6 9639 2b95 acbb
00000240: a84d b539 e4a7 d5b9 2c60 c538 ca04 e73a
00000250: b520 6abb 4b13 96ba dea4 07bb 49fb c039
00000260: 2a29 e5ba d7c2 bebb 8eeb 2eba 4568 403b
00000270: 883c e7b7 1118 443a 87cd d4b8 738a e2bb
00000280: fbf2 ceb9 ad23 a0ba 658b 3bbb eba7 553b
00000290: 7f02 12bc 9cb5 8cba 01ed 16bb 1235 bdbb
000002a0: 52da aaba 775c 1b3b 48f7 733b 368b 1a3b
000002b0: 70c2 0ab9 53ca 8c39 fe67 3b3a 1bc1 c23b
000002c0: f633 053b ec8e 9238 cda4 2f3a bb64 073b
000002d0: 4657 eaba 432d 7f39 9f1e d2ba b8c1 ce3a
000002e0: 0c05 18b9 02dd 603b cbc0 6c3a 851d 8b3a
000002f0: 4203 afba ff2f f83a 5dbd 593a 84bb 01ba
00000300: 44c8 8cba 4464 daba 22f5 963a cb8f 633a
00000310: 33c9 1ab9 3d58 693a f6aa 0eba 80ef 5bba
00000320: 1ddc 31b9 818e d2ba 405b 22ba 74d1 573b
00000330: 8a22 3a3b c450 9a3a 50b6 c83a 03d7 fbba
00000340: 9020 d539 1678 02ba 3f9a a83b 3bdf 0939
00000350: 727b 2dba 7328 d5bb 9fbe a93b db29 9f38
00000360: 4ff9 c53a 5e5c b63b f90a 8ebb b898 3a3a
00000370: f1eb 19bb 00bb 4abb fce7 a8ba d1d4 39ba
00000380: a4cb d739 9f08 25b9 a301 4e3b 0fff 7f39
00000390: aa83 8e3b ad26 203b 5cb9 dd3b e5eb ba3b
000003a0: aac6 01b9 48aa 0a39 8c3f 68bb ba28 d839
000003b0: 387f d3ba 64a9 af39 9115 8f39 c625 76ba
000003c0: 1a92 28bb 3510 66b9 f749 3339 89e6 793a
000003d0: 7eb4 8d38 44a3 7a3b 58b4 25bb 6efa 233b
000003e0: c9d9 523b 5684 77b9 b242 96ba 54ad 3f3b
000003f0: ea1e 9eb9 fcc2 93ba 8d2d 123b 02d3 a739

encoder.fc_var.bias f4 [4]
0.00032694067 -0.0008957358 0.0020066437 -9.83157e-05
00000000: 3c69 ab39 d0cf 6aba e581 033b d72e ceb8

decoder.fc1.weight f4 [100, 4]
-1.0110524 0.018703325 -1.2063432 1.0116782 -0.9484794 0.19383162 -0.05414352 -1.4346943
1.5684342 0.8816481 0.016519602 -1.6253126 0.731496 0.35029504 -1.051006 -1.1955096
-0.7302523 -0.24644543 0.17706583 0.19656186 0.21515784 -1.1928198 0.4282869 0.69143456
0.33229157 1.5884106 -1.2093968 -0.6986367 1.36556 0.03355509 -0.050268784 -1.4404023
-1.1536342 1.7297422 -0.36197034 0.9713542 -1.5856452 -0.7591822 -0.21654461 1.1027111
0.07372364 0.5010777 1.4435246 1.031611 -0.69330597 0.4127042 1.4469432 0.42741388
0.82474846 1.1313486 1.0761564 -0.84605145 -1.7922618 0.77902085 1.1571181 1.1265967
0.16490789 0.9101191 -1.5095574 -1.3113663 1.2788187 1.3643249 0.35122582 -0.7864735
-0.70509845 1.2485541 0.25472265 1.0308262 -0.24788703 1.799847 -1.0169815 1.0304388
-0.47983786 -2.1034129 -0.67066 0.17846169 -0.69958735 0.21124908 0.2941089 1.2174718
1.2348354 0.98103005 -1.4782335 0.6635955 -1.8499095 -0.50767547 0.67508316 0.90087473
-1.1595489 -0.8854229 0.5382856 -1.2183669 -0.34823942 -1.4668883 2.0736809 -0.93304324
-0.5174543 -1.2300195 -0.19430201 0.5979918 -1.4956806 -1.4030474 1.7319456 -0.5010512
0.15696402 -0.8641262 -1.0198219 0.7579173 -1.7383587 -0.006212418 -0.6313993 0.78672314
0.5520698 -1.2030432 0.087787144 1.4053459 0.33590236 -0.20178865 -1.7457578 0.4286984
0.64717203 -0.8237169 -0.6794492 0.50637555 -0.5747969 -0.80325395 1.2753866 -1.0044615
1.3062229 -0.5611858 0.8150673 0.56120986 1.0111603 0.15534215 1.6396183 -0.12726392
0.4651452 1.3765085 -0.92841727 -1.0454179 -1.6795923 -0.15197577 0.08175461 0.19759338
0.7942647 1.3677884 1.316851 0.4770684 1.3486797 1.9854462 -1.0965612 -0.53115565
-0.14514346 -0.20540221 -0.0031087578 0.1507477 -1.5929309 1.0084559 1.0280498 0.27994335
-0.35585406 -0.4673941 -0.47504047 -1.7232721 0.011774397 0.18836075 0.7148619 0.6609867
0.4627014 0.0937847 -0.6339856 -2.1373925 -0.41362706 -0.61731565 0.42723888 -0.0063752024
-0.18060827 -0.7767391 1.1279873 1.2390201 0.19658485 1.1449158 -1.295736 -1.5468427
-0.30122837 -1.6136818 -0.16567628 -0.5208407 -1.4700519 -1.3386816 -0.6094214 -1.417974
-0.45940617 0.9019731 0.9944087 -0.18539186 -2.1816025 -0.5791262 -0.1367257 -0.34145015
0.77679586 1.844727 0.07000251 0.8814608 -1.2018424 -0.6002961 1.2236441 0.28855497
-0.9996853 -0.17578793 -1.146234 0.42362547 1.2253091 -0.9537484 1.8214833 -0.5760391
-0.46218514 1.0769584 -0.50327176 -1.9461691 -0.15420878 0.06602465 0.22042374 0.37727547
-1.1827768 -0.59775466 0.014254357 -0.791808 -0.119593225 -0.12923786 0.67363364 0.67686653
0.6615499 2.0014632 -0.103407755 -0.16022706 -1.9772767 -1.3875041 0.25328222 -0.005367581
0.9113413 0.39608112 1.9621413 -1.5222769 -1.463238 0.7810358 0.39617902 -0.65428364
0.30110484 2.256483 -0.5808315 -0.8803911 1.0549388 -1.9312545 -0.23634382 0.6870346
00000000: 2a6a 81bf b737 993c 7469 9abf ac7e 813f
00000010: 8ccf 72bf cc7b 463e 98c5 5dbd 10a4 b7bf
00000020: 74c2 c83f b1b3 613f 1e54 873c 3e0a d0bf
00000030: 5243 3b3f df59 b33e 5d87 86bf 7506 99bf
00000040: d1f1 3abf 315c 7cbe bf50 353e 8347 493e
00000050: 5652 5c3e 52ae 98bf 6c48 db3e db01 313f
00000060: 1f22 aa3e 0a51 cb3f 84cd 9abf dbd9 32bf
00000070: acca ae3f 1071 093d a4e6 4dbd 1a5f b8bf
00000080: 49aa 93bf 3168 dd3f 2d54 b9be abaa 783f
00000090: 6cf6 cabf c459 42bf dfbd 5dbe a325 8d3f
000000a0: 6bfc 963d a146 003f 6ac5 b83f d40b 843f
000000b0: 807c 31bf f74d d33e 6f35 b93f fed5 da3e
000000c0: b722 533f 08d0 903f 7ebf 893f d496 58bf
000000d0: d668 e5bf e96d 473f 721c 943f 5234 903f
000000e0: 9ddd 283e 91fd 683f 2d39 c1bf dada a7bf
000000f0: 55b0 a33f 33a2 ae3f dfd3 b33e 5456 49bf
00000100: 5581 34bf 9fd0 9f3f 026b 823e 1df2 833f
00000110: 19d6 7dbe 6361 e63f 732c 82bf 6be5 833f
00000120: 4fad f5be 519e 06c0 60b0 2bbf a9be 363e
00000130: 2818 33bf ae51 583e 7195 963e 1ed6 9b3f
00000140: 160f 9e3f c924 7b3f c136 bdbf 65e1 293f
00000150: d6c9 ecbf 05f7 01bf 40d2 2c3f ba9f 663f
00000160: 196c 94bf 13ab 62bf 16cd 093f 72f3 9bbf
00000170: 704c b2be ffc2 bbbf 30b7 0440 ecdb 6ebf
00000180: e377 04bf 4771 9dbf 1bf7 46be fe15 193f
00000190: 7672 bfbf 0f97 b3bf 65b0 dd3f e444 00bf
000001a0: 2dbb 203e 6037 5dbf 8689 82bf de06 423f
000001b0: 8a82 debf 8a91 cbbb 62a3 21bf b066 493f
000001c0: 7254 0d3f 52fd 99bf bfc9 b33d 60e2 b33f
000001d0: 65fb ab3e afa1 4ebe fe74 dfbf 5b7e db3e
000001e0: 11ad 253f 1cdf 52bf 62f0 2dbf d4a1 013f
000001f0: e425 13bf 0da2 4dbf de3f a33f 3292 80bf
00000200: 5032 a73f dfa9 0fbf 40a8 503f 73ab 0f3f
00000210: b36d 813f 0312 1f3e 03df d13f 7951 02be
00000220: 8327 ee3e 6e31 b03f c1ac 6dbf 41d0 85bf
00000230: e1fc d6bf 899f 1bbe f66e a73d eb55 4a3e
00000240: ee54 4b3f b113 af3f 938e a83f 4f42 f43e
00000250: 89a1 ac3f 1a23 fe3f 1e5c 8cbf d1f9 07bf
00000260: 7da0 14be f554 52be 4dbc 4bbb 9b5d 1a3e
00000270: 29e5 cbbf 1515 813f 2397 833f bc54 8f3e
00000280: 8132 b6be 484e efbe 8138 f3be 2e94 dcbf
00000290: 67e9 403c a4e1 403e 3101 373f 6d36 293f
000002a0: 33e7 ec3e 3112 c03d e14c 22bf 0acb 08c0
000002b0: edc6 d3be 6608 1ebf 0ebf da3e 13e7 d0bb
000002c0: 60f1 38be 60d8 46bf e361 903f 3698 9e3f
000002d0: 8a4d 493e 9a8c 923f adda a5bf f1fe c5bf
000002e0: 9b3a 9abe 208d cebf 0ba7 29be d155 05bf
000002f0: a92a bcbf eb59 abbf 0a03 1cbf 2c80 b5bf
00000300: 4937 ebbe b6e7 663f 9291 7e3f 5dd7 3dbe
00000310: 609f 0bc0 9d41 14bf d201 0cbe 8ed2 aebe
00000320: 18dc 463f 0420 ec3f 7a5d 8f3d 6aa7 613f
00000330: f9d5 99bf 01ad 19bf 5fa0 9c3f 7abd 933e
00000340: 60eb 7fbf c001 34be ccb7 92bf 70e5 d83e
00000350: eed6 9c3f db28 74bf 5d26 e93f 4c77 13bf
00000360: 88a3 ecbe c6d9 893f 6bd6 00bf 121c f9bf
00000370: e8e8 1dbe ef37 873d c3b6 613e 402a c13e
00000380: 3b65 97bf 7306 19bf 1b8b 693c eeb3 4abf
00000390: 4bed f4bd ee56 04be 4173 2c3f 2047 2d3f
000003a0: 565b 293f f917 0040 72c7 d3bd 9012 24be
000003b0: 6717 fdbf bc99 b1bf 35ae 813e 88e2 afbb
000003c0: aa4d 693f 25cb ca3e 7227 fb3f f8d9 c2bf
000003d0: 624b bbbf f6f1 473f fad7 ca3e 227f 27bf
000003e0: 6a2a 9a3e 386a 1040 60b1 14bf 5061 61bf
000003f0: 3c08 873f 5933 f7bf 1d04 72be 80e1 2f3f

decoder.fc1.bias f4 [100]
0.4155629 0.2092947 0.2172742 0.8125001 0.709968 0.61498195 -0.4840123 0.5392604
-0.077728026 -0.06709565 -0.712473 0.22497451 0.073931076 -0.71596503 -0.32366857 0.73335
0.43805143 0.5238133 -0.55188817 0.5931178 -0.17811461 -0.049476407 0.25037974 -0.3911865
0.55577487 -0.6756426 0.49832755 -0.09155615 0.38306254 0.54548615 0.58155483 0.42502716
-0.7386572 0.49074867 0.7558631 0.63671595 0.42633072 0.15804252 0.67492294 0.30296463
0.28131488 0.56816196 -0.28775126 0.6360097 -0.38163602 0.042760473 0.76432025 -0.008074955
0.42203468 0.29816917 -0.33298296 0.49847496 -0.07071957 -0.34689566 0.25816992 0.60229737
0.71969706 0.5803429 0.43109205 -0.15833756 0.002165256 0.60287714 0.15245837 -0.5660331
0.04208179 0.4290521 0.5658757 0.89816934 0.84366614 -0.028494183 0.5878394 0.693044
-0.4726137 0.63894355 0.65672064 0.023938578 -0.14264768 -0.24384665 0.2288323 -0.039535142
-0.026431035 0.3432889 -0.16653757 0.69235736 -0.14452684 0.594252 0.5948497 0.5713991
-0.3371084 -0.52890414 0.46074638 -0.22431342 0.33699778 -0.47162858 -0.21447237 -0.4337868
0.38023672 1.025417 0.110255376 0.3544317
00000000: a9c4 d43e 5a51 563e 217d 5e3e 0200 503f
00000010: 76c0 353f 756f 1d3f 76d0 f7be f80c 0a3f
00000020: df2f 9fbd 7269 89bd a164 36bf b85f 663e
00000030: 2d69 973d 7c49 37bf e3b7 a5be d3bc 3b3f
00000040: 4748 e03e a118 063f 8b48 0dbf 91d6 173f
00000050: ad63 36be c6a7 4abd c631 803e 9949 c8be
00000060: 4347 0e3f eaf6 2cbf ca24 ff3e ca81 bbbd
00000070: c620 c43e fba4 0b3f c7e0 143f 299d d93e
00000080: a318 3dbf 6943 fb3e 3e80 413f d1ff 223f
00000090: 0548 da3e e6d5 213e c0c7 2c3f 2e1e 9b3e
000000a0: 8108 903e 1073 113f 2254 93be 88d1 223f
000000b0: cc65 c3be 9b25 2f3d 7eaa 433f d14c 04bc
000000c0: ee14 d83e a1a9 983e be7c aabe 1c38 ff3e
000000d0: 6cd5 90bd 4f9c b1be d92e 843e 2930 1a3f
000000e0: 113e 383f 5a91 143f 19b8 dc3e 3e23 22be
000000f0: f8e6 0d3b 2856 1a3f 0c1e 1c3e 8ce7 10bf
00000100: f45d 2c3d b8ac db3e 3bdd 103f 6dee 653f
00000110: 81fa 573f a26c e9bc a57c 163f 556b 313f
00000120: 6cfa f1be ce91 233f d81e 283f d61a c43c
00000130: 3c12 12be f0b2 79be 0453 6a3e 9aef 21bd
00000140: e685 d8bc 90c3 af3e d388 2abe 553e 313f
00000150: d8fe 13be e620 183f 1248 183f 3647 123f
00000160: 7999 acbe 4366 07bf f3e6 eb3e 6bb2 65be
00000170: f98a ac3e 4d79 f1be a59e 5bbe 4e19 debe
00000180: 63ae c23e dd40 833f 92cd e13d 1278 b53e

decoder.fc2.weight f4 [100, 100]
0.2246649 -0.2684834 -0.35225236 -0.064164825 0.15048869 -0.1155492 -0.5294479 0.050586596
-0.08511348 -0.26990902 0.16667478 -0.119290374 0.0007464534 0.026977664 -1.12405 0.3177522
-0.26566982 -0.019576 0.43430302 0.260141 0.18609647 -0.4470425 0.4060564 0.5033435
0.0054693297 0.19115187 -0.22305475 -0.410101 -0.18237795 -0.061477415 0.06026311 0.03224159
0.15898412 -0.0031145907 0.26647976 0.07568888 0.25883195 0.30817482 0.17498106 0.8610392
-0.18502295 0.08770233 -0.87185967 0.07667156 0.6753435 -0.21101807 0.17035548 -0.010223505
0.38071525 -0.3784253 -0.12383133 0.14445385 0.38449422 -0.07228087 -0.8752794 0.005549636
0.11384826 0.13462351 0.19116165 -0.029087061 0.6344393 0.17763385 0.28461254 -0.38821638
-0.5429575 0.16242707 0.37240958 0.13912295 0.2761367 0.40526745 0.045294974 -0.04790308
0.112716526 0.19872454 0.09916125 -0.18453377 -0.3350871 -0.18530947 0.60913455 0.105173886
0.28733474 -0.5771507 -0.9492605 0.051313493 -0.3515122 0.23506474 -0.08234363 0.07522401
-0.051865026 0.37519836 0.1809913 0.07091055 -0.2552587 -0.052641228 -0.10707599 -0.21137054
-0.03344904 0.16015632 0.3866113 -0.28546587 -0.20189443 -0.16851385 0.1748227 -0.2627552
0.28606677 0.11215811 -1.7544447 -0.33188325 -0.8312273 0.16821274 -0.6135975 -0.19878905
-0.013006609 -0.090710804 -1.9004973 0.47023502 0.1770442 0.4466962 0.7847023 0.04007892
-1.1045963 -0.2840096 0.27772644 -0.16026236 0.17014654 -0.029692255 -0.09987511 -0.39468426
-0.053623237 0.42258164 -0.12678216 0.38947952 -0.13781922 0.14770116 0.1440192 0.008606465
0.45176917 -1.1791912 0.11052696 -0.1277208 -0.5655635 0.056011315 -0.95855397 0.27348375
-1.1794513 -1.9271638 0.061606266 0.5199037 0.35200718 0.2155034 0.87781024 0.41562325
-0.6346222 -1.0264593 -0.5067942 0.09967129 0.37819886 0.16919656 0.094853826 0.27062044
-0.20640695 0.40421212 -0.891125 -0.7864623 0.024465922 0.01700326 0.46592784 0.32024282
0.3952564 0.34517524 0.004031128 0.49642408 0.016016718 0.09295225 0.21713187 -0.12684721
-0.4926834 0.37207827 0.3183333 -1.0779952 -0.12774864 -0.10494374 -0.50442284 0.18036565
-0.0056931935 0.2938394 0.09664399 0.2323324 0.24181202 -0.48734346 -0.21807623 -0.3238537
-0.21446268 0.42049515 -0.28775203 -0.04614701 0.28421444 0.6357681 -0.05942642 -0.3102834
-0.0016156178 0.3152817 -0.50629455 -0.0074034603 0.2933438 0.525506 0.19860259 -0.35471228
-0.28206792 -0.50399345 -1.0290847 0.6083565 -0.63013184 -0.7754951 -0.0019454338 0.054671768
-0.42960492 0.08588094 -0.21744418 0.367086 0.09663766 -0.347807 0.10776208 0.311291
0.1480317 0.32543424 -0.12595227 -0.30073422 0.4577308 -0.1974733 -0.028794143 0.3421151
-0.6959472 -0.5618962 0.112985104 0.13936105 -0.4174313 -0.053477 0.16459441 0.45527977
0.30430543 0.2034891 0.7218469 0.17616127 0.3774508 0.31317535 0.3462221 0.15280487
0.22162852 -0.754115 -0.39349028 -0.25680488 -0.15991561 -0.170433 0.13903561 0.20036592
00000000: 8e0e 663e a876 89be 6c5a b4be d968 83bd
00000010: b519 1a3e 0fa5 ecbd e689 07bf e433 4f3d
00000020: fa4f aebd 8431 8abe cbac 2a3e 834e f4bd
00000030: a4ad 433a 4300 dd3c dfe0 8fbf 6bb0 a23e
00000040: e005 88be d95d a0bc f75c de3e 3331 853e
00000050: 1390 3e3e c1e2 e4be a0e6 cf3e 1fdb 003f
00000060: 1038 b33b 51bd 433e 7768 64be c2f8 d1be
00000070: 49c1 3abe becf 7bbd 73d6 763d c20f 043d
00000080: bccc 223e 291e 4cbb 0970 883e c602 9b3d
00000090: 9f85 843e 17c9 9d3e 3c2e 333e 116d 5c3f
000000a0: a876 3dbe 479d b33d 3232 5fbf fb05 9d3d
000000b0: 50e3 2c3f 1f15 58be ab71 2e3e 7d80 27bc
000000c0: 1ced c23e f6c0 c1be 489b fdbd b6eb 133e
000000d0: 6ddc c43e fe07 94bd 5012 60bf b9d9 b53b
000000e0: 4729 e93d bfda 093e e1bf 433e fd47 eebc
000000f0: 9d6a 223f a6e5 353e bcb8 913e 4cc4 c6be
00000100: 43ff 0abf 4853 263e 78ac be3e 3f76 0e3e
00000110: ca61 8d3e 377f cf3e 3987 393d 0536 44bd
00000120: ecd7 e63d 727e 4b3e 0e15 cb3d 6cf6 3cbe
00000130: 8990 abbe c4c1 3dbe 3ef0 1b3f 6865 d73d
00000140: 8a1d 933e 26c0 13bf bc02 73bf 192e 523d
00000150: 68f9 b3be d0b4 703e c7a3 a8bd 0c0f 9a3d
00000160: 6c70 54bd 001a c03e c955 393e 8d39 913d
00000170: 45b1 82be 549e 57bd a84a dbbd 8571 58be
00000180: dc01 09bd 0500 243e ebf1 c53e 9528 92be
00000190: 6abd 4ebe e58e 2cbe b904 333e d987 86be
000001a0: 5877 923e 27b3 e53d a591 e0bf 9aec a9be
000001b0: 50cb 54bf f63f 2c3e ba14 1dbf 5b8f 4bbe
000001c0: ac19 55bc 96c6 b9bd 7f43 f3bf a5c2 f03e
000001d0: 134b 353e 5db5 e43e 40e2 483f cb29 243d
000001e0: 6963 8dbf b569 91be 2932 8e3e d11b 24be
000001f0: e53a 2e3e 2c3d f3bc 528b ccbd 0e14 cabe
00000200: 0aa4 5bbd 9f5c d83e 2fd3 01be dc69 c73e
00000210: 7b20 0dbe f93e 173e c579 133e 2102 0d3c
00000220: 4a4e e73e bdef 96bf f55b e23d 3ec9 02be
00000230: c5c8 10bf 1f6c 653d cb63 75bf 1006 8c3e
00000240: 43f8 96bf 4ead f6bf da56 7c3d 6918 053f
00000250: 493a b43e ecac 5c3e 2cb8 603f 92cc d43e
00000260: 9a76 22bf 0563 83bf 44bd 01bf 7620 cc3d
00000270: 48a3 c13e dd41 2d3e b942 c23d c38e 8a3e
00000280: 585c 53be e4f4 ce3e c520 64bf 9855 49bf
00000290: c26c c83c 6c4a 8b3c 188e ee3e def6 a33e
000002a0: 0c5f ca3e cfba b03e 8d17 843b 4c2b fe3e
000002b0: 7e35 833c c05d be3d d157 5e3e 3ce4 01be
000002c0: 0041 fcbe 0b81 be3e 95fc a23e bffb 89bf
000002d0: 8ad0 02be beec d6bd db21 01bf c6b1 383e
000002e0: f88d babb 1e72 963e 49ed c53d 8be8 6d3e
000002f0: 929d 773e 1585 f9be 604f 5fbe 27d0 a5be
00000300: 1b9c 5bbe 244b d73e 3c54 93be a604 3dbd
00000310: 8e84 913e b3c1 223f 1e69 73bd 77dd 9ebe
00000320: 23c3 d3ba 9a6c a13e 859c 01bf ba98 f2bb
00000330: 2931 963e 9087 063f 7a5e 4b3e d99c b5be
00000340: 356b 90be b705 01bf 0cb9 83bf 40bd 1b3f
00000350: 5250 21bf d986 46bf edfd feba 81ef 5f3d
00000360: 2df5 dbbe 59e2 af3d b0a9 5ebe b2f2 bb3e
00000370: f7e9 c53d c213 b2be 5eb2 dc3d 8961 9f3e
00000380: 9f95 173e 519f a63e a2f9 00be d6f9 99be
00000390: b15b ea3e 7136 4abe b2e1 ebbc b629 af3e
000003a0: 9829 32bf 6ed8 0fbf bc64 e73d aab4 0e3e
000003b0: 8eb9 d5be b30a 5bbd 708b 283e 6e1a e93e
000003c0: eccd 9b3e 725f 503e f5ca 383f 9f63 343e
000003d0: 3b41 c13e 8558 a03e 0644 b13e e178 1c3e
000003e0: 96f2 623e ae0d 41bf 8f77 c9be ee7b 83be
000003f0: ebc0 23be fd85 2ebe 5a5f 0e3e b92c 4d3e

decoder.fc2.bias f4 [100]
0.19930407 0.11427938 0.12558708 -0.08899818 0.09272522 0.2341893 0.09684899 0.28691134
-0.044451848 0.1379376 -0.29260376 0.003742554 0.03654126 0.32306698 -0.02564496 0.010768788
0.13697189 0.14021026 -0.27670085 0.23084481 -0.035722375 0.08643992 -0.042737883 0.28101954
0.07833612 -0.1015388 -0.018714607 0.073029004 -0.012507149 0.24148756 0.028090373 -0.07614304
0.1534544 0.18317917 -0.08685699 -0.010641588 -0.004194611 -0.29121888 0.07793732 0.023474673
-0.108941816 0.09130108 0.13863976 0.15086626 0.15815802 0.06306616 0.058833603 0.039352294
0.020287652 0.10991348 0.36003765 -0.0019587774 0.017966894 0.1133948 0.06975713 0.22418542
0.13362113 -0.037472516 -0.0031956395 -0.11074701 0.032573324 0.041924838 0.07804569 0.3605558
0.18941884 0.22300734 0.049611345 0.11773503 -0.039489366 0.007452522 0.19388805 -0.05447517
0.03226338 -0.14016524 -0.068229824 0.050399825 -0.3592397 0.04256556 0.18403076 0.013382156
0.2498245 0.0146359615 0.19701323 0.21160537 0.062710546 0.09493484 0.17351529 -0.088553265
0.17701267 -0.040885855 0.014262503 -0.2924868 6.0859078e-05 0.045395218 -0.39860702 0.14639723
-0.22429033 0.17507854 -0.3773037 0.16581088
00000000: 5e16 4c3e 4f0b ea3d e699 003e ae44 b6bd
00000010: b8e6 bd3d 52cf 6f3e c358 c63d 0be6 923e
00000020: 2413 36bd 843f 0d3e 29d0 95be a345 753b
00000030: 4aac 153d 0969 a53e 6115 d2bc 926f 303c
00000040: 5c42 0c3e 4793 0f3e bcab 8dbe 9562 6c3e
00000050: a051 12bd 6a07 b13d eb0d 2fbd cbe1 8f3e
00000060: b06e a03d 93f3 cfbd 604f 99bc 3b90 953d
00000070: c9ea 4cbc 8448 773e c81d e63c e2f0 9bbd
00000080: 2623 1d3e 5293 3b3e 14e2 b1bd 0e5a 2ebc
00000090: f372 89bb a41a 95be 9a9d 9f3d f54d c03c
000000a0: e31c dfbd 10fc ba3d 95f7 0d3e af7c 1a3e
000000b0: 2df4 213e d528 813d 81fb 703d df2f 213d
000000c0: 4a32 a63c 521a e13d db56 b83e d55e 00bb
000000d0: 4f2f 933c 883b e83d d4dc 8e3d dd90 653e
000000e0: fad3 083e c87c 19bd ef6d 51bb 54cf e2bd
000000f0: 9b6b 053d 61b9 2b3d 6bd6 9f3d c59a b83e
00000100: 03f7 413e 095c 643e 4435 4b3d 101f f13d
00000110: 9abf 21bd 4934 f43b 978a 463e 5b21 5fbd
00000120: 9b26 043d 7a87 0fbe 14bc 8bbd 0c70 4e3d
00000130: 44ee b7be 3a59 2e3d 8f72 3c3e d540 5b3c
00000140: fed1 7f3e accb 6f3c d6bd 493e 14af 583e
00000150: 636e 803d 336d c23d fead 313e 6a5b b5bd
00000160: cf42 353e ed77 27bd 46ad 693c d4c0 95be
00000170: f042 7f38 56f0 393d 3816 ccbe 28e9 153e
00000180: 5dac 65be ca47 333e f32d c1be 54ca 293e
