VAE/vae_mnist_weights.pth (torch, 69956 bytes, 8 tensors)

encoder.fc.weight f4 [10, 784]
0.0053489 0.019672373 -0.030088797 0.022785427 -0.0026933765 -0.0064822948 -0.011739353 -0.008251157
0.03187523 -0.0074292384 0.022150585 -0.0025480986 950.53687 1238.7445 875.47034 875.4782
-0.03165658 0.021269483 -0.014823565 -0.018974602 -0.004178022 -0.015953057 0.021773404 0.035409447
-0.018671598 -0.007457491 -0.004758997 0.033741146 -0.02208614 0.0073712133 -0.020587135 0.01432854
875.4555 1012.068 1860.7144 2393.1445 2940.9966 3567.21 4253.506 4680.005
4816.9023 4851.094 4918.7544 4784.86 4874.211 4622.0474 4080.0432 3589.6978
3245.669 2251.436 1775.7344 940.88837 0.0015794125 0.02128758 -0.011004265 0.011843643
0.035117615 -0.021947565 875.7623 1136.5403 1803.6825 2445.852 3356.414 4579.1045
5279.174 5926.354 6271.065 6487.8545 6617.9434 6697.307 6749.1543 6773.202
6777.0264 6758.256 6720.149 6632.321 6438.1694 6059.3096 5417.838 4155.8813
2793.6323 1643.9249 0.026464123 0.0010753317 -0.017582346 -0.02259129 1131.1661 1884.9286
2837.4058 3968.4524 5137.7954 6009.323 6441.6616 6662.654 6771.6196 6831.141
6864.0195 6885.483 6898.469 6904.5967 6905.0327 6898.975 6884.3945 6854.9253
6794.7837 6666.892 6414.3584 5758.583 4778.3745 2968.967 1139.1976 0.03024333
-0.025868038 875.1128 1685.79 2930.3152 4193.4897 5866.4585 6441.568 6703.347
6821.0303 6877.61 6906.8574 6923.2686 6933.616 6939.6157 6942.8086 6944.077
6943.837 6941.7163 6937.233 6929.0405 6912.4204 6880.9453 6816.414 6670.2827
6339.238 5374.887 2852.5864 1236.6549 0.012903031 -0.019797986 2423.684 3952.7388
5912.773 6552.456 6776.844 6864.6313 6905.2417 6925.9175 6936.932 6943.612
6947.8213 6950.3022 6951.638 6952.193 6952.076 6951.2153 6949.19 6945.6523
6939.378 6927.271 6904.116 6858.837 6756.484 6397.3696 4922.739 1760.4382
0.013249802 1213.9452 3099.5654 5230.04 6436.307 6758.732 6866.148 6909.261
6929.6577 6940.326 6946.2896 6949.861 6952.071 6953.4316 6954.187 6954.5005
6954.382 6953.7837 6952.6055 6950.451 6946.637 6939.6274 6925.9717 6899.5938
6839.269 6648.112 5803.9834 2910.5369 875.5875 2699.9604 4447.136 6115.751
6686.899 6844.5713 6902.464 6927.6387 6939.9917 6946.63 6950.432 6952.6616
6953.891 6954.584 6954.8955 6955.0786 6955.001 6954.7134 6953.9766 6952.584
6949.8115 6944.641 6934.632 6914.139 6865.598 6722.7476 6058.4155 2985.2283
1069.3518 3326.2327 5598.833 6511.9824 6777.3384 6876.3013 6916.4546 6935.171
6944.489 6949.6543 6952.304 6953.702 6954.3813 6954.4785 6954.532 6954.5474
6954.43 6954.5264 6954.2217 6953.0654 6950.7256 6946.3384 6937.3057 6917.185
6866.236 6720.7104 5967.8184 2696.4377 1297.3807 3803.9978 5953.979 6574.061
00000000: d345 af3b f527 a13c c87c f6bc 81a8 ba3c
00000010: 5c83 30bb 6e69 d4bb 6a56 40bc dc2f 07bc
00000020: 9a8f 023d f870 f3bb 2575 b53c 00fe 26bb
00000030: 5ca2 6d44 d3d7 9a44 1ade 5a44 9bde 5a44
00000040: 54aa 01bd 573d ae3c 8ade 72bc a070 9bbc
00000050: cae7 88bb fcaf 82bc 235e b23c 7f09 113d
00000060: 2ef5 98bc f85d f4bb 5cf1 9bbb 2834 0a3d
00000070: feed b4bc 388a f13b 5aa6 a8bc 41c2 6a3c
00000080: 27dd 5a44 5a04 7d44 dc96 e844 5092 1545
00000090: f2cf 3745 5cf3 5e45 0cec 8445 0a40 9245
000000a0: 3887 9645 c198 9745 09b6 9945 e186 9545
000000b0: b051 9845 6170 9045 b100 7f45 2a5b 6045
000000c0: b4da 4a45 fab6 0c45 80f7 dd44 db38 6b44
000000d0: 4a04 cf3a 4a63 ae3c 3c4b 34bc d70b 423c
000000e0: 7dd7 0f3d 61cb b3bc caf0 5a44 4a11 8e44
000000f0: d775 e144 a2dd 1845 a0c6 5145 d618 8f45
00000100: 64f9 a445 d532 b945 85f8 c345 d6be ca45
00000110: 8ccf ce45 754a d145 3ce9 d245 9ea9 d345
00000120: 36c8 d345 0c32 d345 3101 d245 9142 cf45
00000130: 5b31 c945 7a5a bd45 b44e a945 0ddf 8145
00000140: 1e9a 2e45 997d cd44 4acb d83c 25f2 8c3a
00000150: da08 90bc 5e11 b9bc 5165 8d44 b79d eb44
00000160: 7e56 3145 3d07 7845 5d8e a045 96ca bb45
00000170: 4b4d c945 3b35 d045 f59c d345 2179 d545
00000180: 2880 d645 dd2b d745 c193 d745 c6c4 d745
00000190: 43c8 d745 cd97 d745 2823 d745 6737 d645
000001a0: 4556 d445 2357 d045 de72 c845 aaf4 b345
000001b0: ff52 9545 798f 3945 5366 8e44 dcc0 f73c
000001c0: 35e9 d3bc 38c7 5a44 48b9 d244 0b25 3745
000001d0: eb0b 8345 ab53 b745 8b4c c945 c77a d145
000001e0: 3e28 d545 e1ec d645 dcd6 d745 265a d845
000001f0: eeac d845 eddc d845 78f6 d845 9e00 d945
00000200: b2fe d845 bbed d845 ddc9 d845 5388 d845
00000210: 5d03 d845 9007 d745 5003 d545 4372 d045
00000220: e719 c645 19f7 a745 6249 3245 f594 9a44
00000230: 3c67 533c 632f a2bc f27a 1745 d20b 7745
00000240: 2fc6 b845 a6c3 cc45 c1c6 d345 0d85 d645
00000250: efc9 d745 576f d845 75c7 d845 e5fc d845
00000260: 921e d945 6b32 d945 1b3d d945 8b41 d945
00000270: 9c40 d945 b939 d945 8529 d945 380d d945
00000280: 06db d845 2b7a d845 eec0 d745 b256 d645
00000290: df23 d345 f5ea c745 e9d5 9945 060e dc44
000002a0: b315 593c 3fbe 9744 0cb9 4145 5270 a345
000002b0: 7522 c945 db35 d345 2f91 d645 17ea d745
000002c0: 438d d845 9ce2 d845 5112 d945 e32e d945
000002d0: 9140 d945 744b d945 7f51 d945 0154 d945
000002e0: 0e53 d945 454e d945 d844 d945 9c33 d945
000002f0: 1915 d945 05dd d845 c66f d845 c09c d745
00000300: 27ba d545 e5c0 cf45 de5f b545 97e8 3545
00000310: 9ae5 5a44 5ebf 2845 17f9 8a45 021e bf45
00000320: 31f7 d045 92e4 d545 b6b3 d745 1c7d d845
00000330: efdf d845 0a15 d945 7533 d945 4b45 d945
00000340: 214f d945 ac54 d945 2a57 d945 a158 d945
00000350: 0258 d945 b555 d945 d04f d945 ac44 d945
00000360: 7e2e d945 2105 d945 0eb5 d845 1d11 d845
00000370: c98c d645 fb15 d245 5353 bd45 a793 3a45
00000380: 42ab 8544 b9e3 4f45 aaf6 ae45 dc7f cb45
00000390: b5ca d345 69e2 d645 a323 d845 5eb9 d845
000003a0: e903 d945 3c2d d945 6f42 d945 9e4d d945
000003b0: 0d53 d945 d453 d945 4254 d945 6154 d945
000003c0: 7153 d945 3654 d945 c651 d945 8648 d945
000003d0: ce35 d945 b512 d945 72ca d845 7b29 d845
000003e0: e391 d645 af05 d245 8c7e ba45 0187 2845
000003f0: 2f2c a244 f7bf 6d45 d50f ba45 7d70 cd45

encoder.fc.bias f4 [10]
6957.484 -0.03328742 6957.5283 6957.594 6957.5703 -0.056863144 -0.0025931045 -0.016015172
6957.6777 -0.0294316
00000000: df6b d945 6458 08bd 3a6c d945 c16c d945
00000010: 906c d945 54e9 68bd 13f1 29bb 4032 83bc
00000020: 6c6d d945 8a1a f1bc

encoder.fc_mean.weight f4 [1, 10]
6957.7725 -0.3010223 6957.6924 6957.608 6957.6313 -0.1368838 0.31401175 0.13673617
6957.437 -0.2336905
00000000: 2e6e d945 981f 9abe 8a6d d945 dd6c d945
00000010: 0d6d d945 442b 0cbe 26c6 a03e 9104 0c3e
00000020: 7f6b d945 904c 6fbe

encoder.fc_var.weight f4 [1, 10]
-6422.227 -0.1596505 -6422.3486 -6422.362 -6422.499 -0.15497816 -0.11984748 0.017249562
-6422.527 -0.13199165
00000000: d1b1 c8c5 6c7b 23be cab2 c8c5 e5b2 c8c5
00000010: feb3 c8c5 98b2 1ebe 9872 f5bd f44e 8d3c
00000020: 37b4 c8c5 d228 07be

decoder.fc1.weight f4 [10, 1]
1.810562 0.71781486 -6.339593 1.3525172 0.72424215 -3.3972247 6.795122 1.283599
-2.9305308 0.35133192
00000000: 7fc0 e73f b7c2 373f f2dd cac0 491f ad3f
00000010: ef67 393f 216c 59c0 a471 d940 f94c a43f
00000020: d18d 3bc0 c7e1 b33e

decoder.fc1.bias f4 [10]
-21.96209 -8.152502 -25.44846 -19.633327 1.0172971 -9.767423 7.4342475 -5.4767556
9.419634 2.578988
00000000: 5cb2 afc1 a670 02c1 7296 cbc1 0e11 9dc1
00000010: cb36 823f 5d47 1cc1 5be5 ed40 9541 afc0
00000020: d2b6 1641 240e 2540

decoder.fc2.weight f4 [784, 10]
-0.62134904 -0.81696564 -0.87871885 -0.9082636 -0.6141524 -0.38460827 -0.97555375 -0.9103192
-1.0303373 -0.6726679 -0.5015897 -1.0179442 -0.8930936 -0.33799276 -0.64799494 -0.8772275
-0.93187976 -0.8906355 -0.71968466 -0.40560552 -0.94292635 -0.7159855 -0.8946232 -0.5258659
-0.68523157 -0.9104976 -1.0719384 -0.6665286 -0.677192 -0.59906316 -0.95681995 -0.71029174
-0.44939402 -0.5905315 -0.69988316 -0.6258563 -0.9306842 -0.39191413 -0.8899335 -0.87041044
-0.5603505 -0.5838515 -0.42251918 -0.48344457 -0.62933993 -0.7879834 -0.9171704 -0.88926655
-1.0885367 -0.9983412 -0.5617164 -0.73491424 -0.6845974 -0.58874726 -0.61416274 -0.60702896
-0.8888383 -0.6561449 -0.7292554 -0.7911712 -0.83164346 -0.868642 -0.6255908 -0.9063374
-0.64899486 -0.6150065 -1.0175332 -0.7358619 -0.97812927 -0.95256734 -0.96114373 -0.9203627
-0.95016074 -0.8872036 -0.58887136 -0.53258455 -0.9729987 -0.7551878 -0.66886854 -0.52591884
-0.7825945 -0.85885483 -0.5488145 -0.4950174 -0.61431885 -0.6648772 -1.2766232 -0.40181124
-0.69223285 -0.7611819 -0.61768365 -0.87822104 -0.9520369 -0.7720274 -0.74293053 -0.44785595
-1.0385503 -0.71279013 -0.7153824 -0.9368064 -0.9033281 -0.5984806 -0.5286004 -0.7192522
-0.7647244 -0.35292298 -1.0944976 -0.95039546 -1.0389403 -0.8888189 -0.839247 -0.7704361
-0.595145 -0.680974 -0.8336735 -0.85358804 -0.8342971 -0.82415473 -0.7084695 -0.85919064
-0.9121725 -0.8446106 -0.636819 -0.92017174 -0.69924927 -0.77203125 -1.0061911 -0.47551462
-1.0396868 -0.698531 -0.93997777 -0.922748 -0.74733675 -0.5304837 -0.5707835 -0.5047703
-0.8969171 -0.83891135 -1.0195584 -0.7461405 -0.9055581 -0.90597075 -0.68910885 -0.7176529
-0.68591744 -0.6345636 -1.1644654 -0.62736833 -0.95788324 -0.7108908 -0.74507153 -0.7182745
-0.89226586 -0.800488 -0.5750159 -0.7908264 -0.95790493 -0.4192849 -1.0070231 -0.73461294
-0.60217726 -0.5920184 -0.8167142 -0.49470195 -0.45950446 -0.48725876 -1.0778077 -0.58831084
-1.0691264 -1.0127507 -0.91431904 -0.49505857 -0.7126561 -0.36257958 -0.8547417 -0.7503864
-1.1294874 -0.6036812 -1.0220406 -0.78478986 -0.9250644 -0.92515063 -0.92320555 -0.52622986
-0.52401006 -0.86946493 -0.80917 -0.4951802 -0.8450385 -0.6396302 -0.9783682 -0.9233834
-0.98624194 -0.8022371 -0.43706933 -0.42181405 -0.8744349 -0.7615996 -1.0426692 -0.8920266
-0.83208233 -0.82354003 -0.6976617 -0.81207377 -0.86973566 -0.8629798 -1.1476183 -0.6601462
-0.6290591 -0.5107561 -0.86713094 -0.73219734 -0.66303116 -0.42955953 -0.617438 -0.5854898
-1.0239611 -0.5583186 -0.9517325 -0.88610095 -0.5767814 -0.57858247 -0.7783083 -0.8651915
-0.7442191 -0.69827056 -1.0559381 -0.753183 -1.0107452 -0.43535057 -0.7755172 -0.66720843
-0.9691221 -0.62545574 -0.43640956 -0.48952395 -0.91564053 -0.41041395 -0.9464375 -0.892388
-0.49254593 -0.9364262 -0.8206104 -0.76339597 -0.4182235 -0.6115909 -1.1208739 -0.65701145
-0.645256 -0.9099773 -0.5610427 -0.74287224 -0.81772524 -0.92126215 -0.7003046 -0.69453084
00000000: bb10 1fbf a924 51bf b8f3 60bf f783 68bf
00000010: 1739 1dbf 60eb c4be e4bd 79bf ae0a 69bf
00000020: 18e2 83bf f733 2cbf 2f68 00bf ff4b 82bf
00000030: c8a1 64bf 630d adbe ffe2 25bf fb91 60bf
00000040: ac8f 6ebf b000 64bf 413d 38bf 87ab cfbe
00000050: 9f63 71bf d34a 37bf 0706 65bf 269f 06bf
00000060: 566b 2fbf 5f16 69bf 4735 89bf 9ea1 2abf
00000070: 745c 2dbf 345c 19bf 27f2 74bf aed5 35bf
00000080: f916 e6be 132d 17bf 8b2b 33bf 1e38 20bf
00000090: 5241 6ebf f8a8 c8be afd2 63bf 38d3 5ebf
000000a0: 2173 0fbf 4b77 15bf 6f54 d8be 0c86 f7be
000000b0: 6c1c 21bf 48b9 49bf aecb 6abf f9a6 63bf
000000c0: 2c55 8bbf 4a93 7fbf a5cc 0fbf 5723 3cbf
000000d0: c641 2fbf 24b8 16bf c539 1dbf 4066 1bbf
000000e0: e88a 63bf 1df9 27bf 7bb0 3abf 328a 4abf
000000f0: 96e6 54bf 525f 5ebf b826 20bf ba05 68bf
00000100: 8724 26bf 1171 1dbf 873e 82bf 7261 3cbf
00000110: ae66 7abf 74db 73bf 840d 76bf e49c 6bbf
00000120: bc3d 73bf c61f 63bf 46c0 16bf 7657 08bf
00000130: 7116 79bf fd53 41bf f83a 2bbf 9ea2 06bf
00000140: 1d58 48bf e9dd 5bbf 1b7f 0cbf ec72 fdbe
00000150: 0044 1dbf 6435 2abf 6468 a3bf 34ba cdbe
00000160: 2c36 31bf d1dc 42bf 8420 1ebf 18d3 60bf
00000170: b1b8 73bf 96a3 45bf b230 3ebf 604d e5be
00000180: 37ef 84bf 6a79 36bf 4d23 37bf 8bd2 6fbf
00000190: 8340 67bf 0636 19bf 5b52 07bf ea20 38bf
000001a0: fac4 43bf 52b2 b4be 7f18 8cbf 1e4d 73bf
000001b0: fffb 84bf a389 63bf e4d8 56bf 4d3b 45bf
000001c0: 6c5b 18bf 5054 2ebf a06b 55bf bf84 5abf
000001d0: 7f94 55bf cefb 52bf 425e 35bf ebf3 5bbf
000001e0: 2384 69bf 6638 58bf 9206 23bf 6090 6bbf
000001f0: 0002 33bf d7a3 45bf dfca 80bf a776 f3be
00000200: 7514 85bf edd2 32bf 62a2 70bf 3739 6cbf
00000210: 7651 3fbf c8cd 07bf de1e 12bf a038 01bf
00000220: 5c9c 65bf e5c2 56bf e480 82bf 1003 3fbf
00000230: a8d2 67bf b3ed 67bf 7069 30bf 1ab8 37bf
00000240: 4998 2fbf c372 22bf 340d 95bf 369b 20bf
00000250: d637 75bf f1fc 35bf 02bd 3ebf d6e0 37bf
00000260: 896b 64bf c8ec 4cbf 3e34 13bf 9973 4abf
00000270: 4239 75bf 83ac d6be 22e6 80bf 980f 3cbf
00000280: 4a28 1abf 858e 17bf 2f14 51bf 9349 fdbe
00000290: 2b44 ebbe fb79 f9be 9af5 89bf 8a9b 16bf
000002a0: 22d9 88bf d1a1 81bf d010 6abf 5178 fdbe
000002b0: a170 36bf 08a4 b9be 5ad0 5abf 5319 40bf
000002c0: 0b93 90bf da8a 1abf 3ad2 82bf fde7 48bf
000002d0: 05d1 6cbf acd6 6cbf 3357 6cbf 00b7 06bf
000002e0: 8625 06bf 4195 5ebf c425 4fbf 4288 fdbe
000002f0: 7154 58bf cebe 23bf 5776 7abf db62 6cbf
00000300: 5a7a 7cbf 695f 4dbf 8dc7 dfbe 03f8 d7be
00000310: f7da 5fbf 31f8 42bf 2f76 85bf db5b 64bf
00000320: 5903 55bf 85d3 52bf f599 32bf 11e4 4fbf
00000330: ffa6 5ebf 3fec 5cbf 28e5 92bf 57ff 28bf
00000340: 040a 21bf e9c0 02bf 4bfc 5dbf 4971 3bbf
00000350: 69bc 29bf 3aef dbbe 6b10 1ebf a9e2 15bf
00000360: 2811 83bf f8ed 0ebf bea4 73bf 83d7 62bf
00000370: f2a7 13bf fb1d 14bf 363f 47bf 317d 5dbf
00000380: 2585 3ebf dcc1 32bf fb28 87bf 9ad0 40bf
00000390: 1960 81bf 45e6 debe 4c88 46bf 2cce 2abf
000003a0: 6318 78bf de1d 20bf 1371 dfbe e2a2 fabe
000003b0: 6b67 6abf c721 d2be ba49 72bf 8a73 64bf
000003c0: fb2e fcbe a1b9 6fbf 8613 52bf eb6d 43bf
000003d0: 6421 d6be 3991 1cbf cc78 8fbf e731 28bf
000003e0: 7f2f 25bf 46f4 68bf 7fa0 0fbf e02c 3ebf
000003f0: 7156 51bf d6d7 6bbf 2a47 33bf c6cc 31bf

decoder.fc2.bias f4 [784]
-0.36494184 -0.66375333 -0.8125897 -0.9229067 -0.4171303 -0.92735696 -0.6532561 -0.7134301
-0.35102725 -0.7612869 -0.7141828 -0.36079574 -0.46378505 -0.7806306 -0.7106126 -0.3657876
-0.90359634 -0.831895 -0.37202018 -0.5485181 -0.80206007 -0.675585 -0.4714893 -0.6953299
-0.7787915 -0.78255016 -0.88375086 -0.5290883 -0.8417868 -0.53963614 -0.7241981 -0.6848565
-0.5982829 -0.5256393 -0.30402833 -0.3712415 -0.32376572 -0.59788513 -0.4497543 -0.8058223
-0.3512947 -0.44431543 -0.6215334 -0.80254316 -0.7924604 -0.61472064 -0.4226672 -0.325212
-0.6739949 -0.3109842 -0.90237224 -0.54931253 -0.7976191 -0.80774426 -0.4062084 -0.71111745
-0.53648275 -0.49096543 -0.8165554 -0.4682166 -0.6032896 -0.6382631 -0.88505507 -0.47410095
-0.35756618 -0.575188 -0.8710104 -0.4574111 -0.6996425 -0.45350268 -0.5637765 -0.896771
-0.8763591 -0.6209252 -0.53417534 -0.76955056 -0.87027687 -0.45569718 -0.7380586 -0.59519994
-0.50880635 -0.33574128 -0.50106204 -0.39555043 -0.64135504 -0.8862571 -0.42169175 -0.61450934
-0.5672651 -0.4432062 -0.7688731 -0.42516854 -0.5507949 -0.75906247 -0.6646197 -1.3555013
-1.1772178 -3.757829 -1.158204 -4.310222 -3.7187812 -0.76060736 -0.70287126 -1.0935241
-0.551547 -0.85048 -0.7581043 -0.8844562 -0.84015864 -0.50562173 -0.7302209 -0.48088086
-0.4278718 -0.64052624 -0.41238832 -0.79141724 -0.87303674 -0.41814148 -0.42603245 -0.7595694
-1.1378298 -3.942163 -3.6499586 -2.9591014 -2.7278063 -2.863099 -6.568269 -3.8412948
-2.8235583 -3.1207895 -4.3991065 -2.9328861 -1.2445741 -3.1606374 -0.8912199 -0.5831313
-0.44808397 -0.65879655 -0.6243035 -0.41883144 -0.31581578 -0.5159136 -0.40560913 -0.8046716
-0.65693045 -0.7637595 -0.7422826 -2.609454 -1.8922684 -4.547942 -4.258733 -4.9478188
-5.5607986 -6.1392517 -9.447684 -3.345623 -4.9212556 -7.8059926 -6.102808 -3.0123575
-1.4665712 -2.8983774 -2.0623996 -1.7658794 -0.9363032 -0.36715484 -0.8631652 -0.81460446
-0.86531186 -0.6673818 -0.729132 -0.3673656 -0.41740972 -0.70781016 -3.602971 -4.4077487
-3.0079985 -7.1872625 -5.4392424 -6.405548 -5.939466 -5.642783 -5.9586535 -5.7272897
-6.6998262 -6.5079784 -8.3455925 -6.358772 -5.028765 -6.3134646 -1.8999561 -2.7387755
-0.6970677 -0.28687447 -0.5878465 -0.54279596 -0.832197 -0.83545095 -0.51612204 -0.53684604
-0.2581584 -3.3375247 -6.1640987 -2.591689 -3.3251207 -7.8793488 -5.929011 -5.219214
-3.5293212 -4.552257 -7.6672235 -6.7482243 -5.8371367 -7.385609 -5.110485 -9.715546
-6.1088033 -4.9538674 -4.2103295 -1.4524544 -1.501434 -0.8071037 -0.6068066 -0.51918566
-0.2867287 -0.7348067 -0.584219 -0.30555063 -1.2300618 -0.93220204 -2.084199 -4.1546617
-6.8859196 -5.278062 -8.557252 -4.0318155 -4.9942083 -4.03778 -7.2304897 -3.8016717
-5.65137 -5.2544355 -2.4693594 -6.6075296 -5.397227 -5.829012 -3.717214 -2.8150845
-1.6447039 -0.4270496 -0.7367519 -0.6378287 -0.48034477 -0.34865913 -0.29679203 -0.62000763
00000000: a8d9 babe bdeb 29bf e105 50bf 9d43 6cbf
00000010: 1a92 d5be 4467 6dbf cb3b 27bf 5ba3 36bf
00000020: d8b9 b3be b3e3 42bf afd4 36bf 38ba b8be
00000030: 3c75 edbe 68d7 47bf b5ea 35bf 8348 bbbe
00000040: 1752 67bf 12f7 54bf 6e79 bebe af6b 0cbf
00000050: cf53 4dbf 23f3 2cbf 0c67 f1be 2401 32bf
00000060: e15e 47bf 3555 48bf 7f3d 62bf 5572 07bf
00000070: 577f 57bf 9825 0abf 0c65 39bf c152 2fbf
00000080: 1129 19bf 4c90 06bf 9aa9 9bbe 5e13 bebe
00000090: 9fc4 a5be 000f 19bf 3246 e6be 5f4a 4ebf
000000a0: e6dc b3be 507d e3be d01c 1fbf 7873 4dbf
000000b0: afde 4abf 555e 1dbf d667 d8be 3082 a6be
000000c0: ee8a 2cbf 5239 9fbe de01 67bf bf9f 0cbf
000000d0: c430 4cbf 54c8 4ebf 8cfa cfbe cb0b 36bf
000000e0: ef56 09bf d25f fbbe c609 51bf 16ba efbe
000000f0: 3071 1abf 3665 23bf f892 62bf 5cbd f2be
00000100: ea12 b7be 853f 13bf 8afa 5ebf ca31 eabe
00000110: c51b 33bf 8131 e8be a853 10bf c992 65bf
00000120: 1259 60bf f4f4 1ebf b7bf 08bf 4401 45bf
00000130: 77ca 5ebf 2451 e9be 69f1 3cbf 065f 18bf
00000140: 2241 02bf 48e6 abbe 9a45 00bf 9685 cabe
00000150: d82f 24bf bfe1 62bf fbe7 d7be 7c50 1dbf
00000160: 4938 11bf eceb e2be ded4 44bf b1af d9be
00000170: e500 0dbf eb51 42bf 8424 2abf 1181 adbf
00000180: 13af 96bf 4580 70c0 0740 94bf 57ed 89c0
00000190: 8300 6ec0 2ab7 42bf 5fef 33bf 99f8 8bbf
000001a0: 2f32 0dbf 0fb9 59bf 2013 42bf b96b 62bf
000001b0: a314 57bf 6d70 01bf c2ef 3abf 0436 f6be
000001c0: 0312 dbbe 87f9 23bf 9024 d3be 529a 4abf
000001d0: 567f 5fbf a416 d6be ed20 dabe 2473 42bf
000001e0: 68a4 91bf 664c 7cc0 ec98 69c0 eb61 3dc0
000001f0: 6194 2ec0 043d 37c0 422f d2c0 c6d7 75c0
00000200: 2eb5 34c0 04bb 47c0 7bc5 8cc0 68b4 3bc0
00000210: 344e 9fbf e247 4ac0 fd26 64bf 1848 15bf
00000220: 436b e5be e4a6 28bf 5bd2 1fbf 1371 d6be
00000230: 9bb2 a1be ea12 04bf 00ac cfbe f5fe 4dbf
00000240: 982c 28bf be85 43bf 3c06 3ebf 4b01 27c0
00000250: da35 f2bf be88 91c0 8a47 88c0 8854 9ec0
00000260: 10f2 b1c0 c074 c4c0 b729 17c1 b01e 56c0
00000270: ed7a 9dc0 b1ca f9c0 344a c3c0 77ca 40c0
00000280: 9bb8 bbbf 047f 39c0 5bfe 03c0 5608 e2bf
00000290: 91b1 6fbf b8fb bbbe 65f8 5cbf eb89 50bf
000002a0: 1485 5dbf 89d9 2abf 65a8 3abf 5817 bcbe
000002b0: bab6 d5be 0c33 35bf 1497 66c0 470c 8dc0
000002c0: 0c83 40c0 0efe e5c0 460e aec0 40fa ccc0
000002d0: 1b10 bec0 ae91 b4c0 4aad bec0 f545 b7c0
000002e0: fa64 d6c0 5c41 d0c0 8c87 05c1 0f7b cbc0
000002f0: a5eb a0c0 e707 cac0 c331 f3bf 1948 2fc0
00000300: 0773 32bf 36e1 92be 1c7d 16bf adf4 0abf
00000310: dd0a 55bf 1de0 55bf 9320 04bf be6e 09bf
00000320: 562d 84be 019a 55c0 4c40 c5c0 3cde 25c0
00000330: c7ce 54c0 a023 fcc0 75ba bdc0 cd03 a7c0
00000340: 66e0 61c0 17ac 91c0 e559 f5c0 74f1 d7c0
00000350: d3c9 bac0 e956 ecc0 1889 a3c0 e072 1bc1
00000360: 517b c3c0 1586 9ec0 05bb 86c0 07ea b9bf
00000370: fd2e c0bf 599e 4ebf ad57 1bbf 5ae9 04bf
00000380: 1bce 92be 4b1c 3cbf 608f 15bf 2271 9cbe
00000390: aa72 9dbf cba4 6ebf 8463 05c0 fdf2 84c0
000003a0: 7459 dcc0 e2e5 a8c0 81ea 08c1 a204 81c0
000003b0: 8ed0 9fc0 7e35 81c0 2c60 e7c0 974e 73c0
000003c0: 06d8 b4c0 5624 a8c0 fc09 1ec0 e270 d3c0
000003d0: 15b6 acc0 4487 bac0 d6e6 6dc0 582a 34c0
000003e0: a885 d2bf 3fa6 dabe c69b 3cbf be48 23bf
000003f0: c0ef f5be 7383 b2be 20f5 97be d2b8 1ebf
